model_B.pth (torch, 5135 bytes, 8 tensors)

fc1.weight f4 [10, 4]
00000000: 58cb df3d 4030 fdbe 7a8c a93e 3a79 b33e
00000010: 7e9f f8be d43c cabe 4c15 823e 608f abbc
00000020: e0ec 4d3d b2fc eabe 682e 9a3d 5497 5bbe
00000030: 5060 0b3e ecab d23e 807d c3bb 7055 d4be
00000040: d8f0 55be 4c8e 2bbe d269 903e 1413 b0be
00000050: a058 f7be 8073 b93b 640f 083e 50bc 8dbe
00000060: 406e 8a3c 3845 e73d 32c6 8abe b494 c23e
00000070: 0c64 563e 6690 9bbe 5c73 023e 6038 aabe
00000080: 065e 8cbe c09e 513e a054 533e ba68 ac3e
00000090: e079 863d 442d 7abe 7cdd 7bbe 32e9 eabe
0.109274566 -0.49450874 0.33114988 0.35053426 -0.48559183 -0.39499533 0.25406873 -0.02094239
0.05027473 -0.45895916 0.075283825 -0.21444446 0.13610959 0.4114679 -0.0059658885 -0.41471434
-0.20892656 -0.167535 0.28205734 -0.34389555 -0.48309803 0.0056595206 0.13287121 -0.27682734
0.016898274 0.11292499 -0.27104336 0.38004076 0.20936602 -0.30383605 0.12739319 -0.33246136
-0.27415484 0.20470715 0.2063775 0.3367365 0.065662146 -0.2443133 -0.24596208 -0.4588104

fc1.bias f4 [10]
00000000: 34f9 063e ba97 98be a879 27be 38db 82bd
00000010: 6c0b 22be 382e 90bd 8c84 e0be 980a 4e3e
00000020: e452 6dbe 9851 003e
0.13181001 -0.29803258 -0.16355002 -0.06389469 -0.1582467 -0.070400655 -0.43851125 0.20121229
-0.23176152 0.12531126

rnn.weight_ih_l0 f4 [30, 4]
00000000: 25f0 88be 821d 503e 704e 4fbd 2853 e6bd
00000010: b8e3 28be 3893 123d 38fc 0dbe 81b6 63be
00000020: a3d5 8b3e acc2 75be 1c79 aabd 82b5 53be
00000030: f8df 373e a056 193e f0db 8c3c 444a 46be
00000040: 8fe9 873e da20 efbd 077b 843e 61f7 26be
00000050: 92ab 99be 50c3 253e 848e 3fbe 0636 783e
00000060: 12b5 263e 988e c33d ca53 e6bd abe2 85be
00000070: 60c3 903c 0017 8b3c 7003 eabc 0842 763d
00000080: 40af 7d3c ec00 8cbd 0071 de3c 023a 4bbe
00000090: e4d4 953d e2de e1bd c031 f03d 0da6 993e
000000a0: 90fc fd3d ea0b 283e f01c 163e 98b8 e7bd
000000b0: 3003 c23c 640b 82bd 0000 c4bd b758 a0be
000000c0: bf9d 8a3e e02f 61bc 47a8 933e 8829 08be
000000d0: 7e34 713e d6ae 643e 2e1a 3bbe 5698 493e
000000e0: 70a3 f2bd 60e1 bbbd 8a5a 64be c0bf 18bd
000000f0: ae9f 093e 3cd4 18be 00f7 a6bb 206e 0e3e
00000100: 2069 e5bc 1093 d73c b8ff 83bd d0a7 ecbc
00000110: 1b67 8e3e 0d35 843e 80fc 1bbb 9885 50bd
00000120: b44b 2b3e 8868 1b3d d678 6bbe 407e 9b3c
00000130: 885f 313e 6803 32be 605c 90bd 0003 41bb
00000140: 2294 a0be eece 723e 2d5a 50be 1e3b 463e
00000150: 2a4b 383e da76 6d3e 5c69 87bd 0039 1fbb
00000160: 0a05 513e 00d5 72bd f2a0 b8bd b8f2 d73d
00000170: 8e21 283e 4e3c 5c3e 8a79 373e 36bd a6bd
00000180: 1198 973e b5b4 30be d099 883d d683 79be
00000190: 28a7 363e 505c 56bd c8a1 8fbd ee2b 9abd
000001a0: e8bd 0cbe a8b4 16bd 10e9 083d 2d1d 52be
000001b0: 6e84 9fbd fb46 9c3e 6806 fc3d 8b46 a0be
000001c0: c8d2 80bd 905b d7bd 2ae8 323e 3c44 68be
000001d0: 62f6 4bbe 4890 793d 42c8 143e d829 753d
-0.26745716 0.20323756 -0.050611913 -0.112463295 -0.16493118 0.03578493 -0.13865745 -0.22237588
0.2731143 -0.24000043 -0.08323881 -0.20674708 0.17956531 0.14974451 0.017194718 -0.19364268
0.2654538 -0.11676188 0.25875112 -0.16305305 -0.3001371 0.16187787 -0.18706709 0.24239358
0.1628001 0.09548682 -0.1124645 -0.26149496 0.017671287 0.01697874 -0.028566092 0.060121566
0.015483677 -0.06836113 0.027153492 -0.19846347 0.07315996 -0.1102884 0.11728239 0.300095
0.12401688 0.16410795 0.14659476 -0.11314505 0.02368316 -0.06349829 -0.095703125 -0.31317684
0.27073476 -0.013744324 0.28839323 -0.13297093 0.2355518 0.2233232 -0.18271706 0.19687018
-0.118475795 -0.09173846 -0.22300163 -0.037292242 0.13439819 -0.14924711 -0.0050953627 0.13909197
-0.02800423 0.026315242 -0.06445259 -0.028888613 0.27813038 0.25821725 -0.0023801625 -0.050908655
0.16728097 0.037941486 -0.22995314 0.0189811 0.17321599 -0.17384112 -0.07048869 -0.002945125
-0.31363016 0.2371175 -0.203469 0.19358489 0.17997423 0.2318987 -0.066118926 -0.002429545
0.20412078 -0.059285164 -0.09015073 0.10544342 0.1641905 0.2150738 0.17917457 -0.08141558
0.29608205 -0.17256434 0.066699624 -0.24366698 0.17837203 -0.05233413 -0.07013279 -0.0752791
-0.13744318 -0.03679338 0.03342539 -0.20518942 -0.07788931 0.30522904 0.123059094 -0.3130382
-0.06290203 -0.10515511 0.17471376 -0.2268228 -0.19918206 0.060928613 0.14529517 0.05985436

rnn.weight_hh_l0 f4 [30, 10]
00000000: 40b5 a0bc a836 6bbe c088 1f3d 40d7 40bc
00000010: 2a87 4fbe 7005 f13c 05ed 9e3e 5bf1 05be
00000020: 5846 bc3d 5cd4 7cbe a089 183d 6210 4cbe
00000030: fe1c 253e 9012 a0be a059 1f3d f815 90bd
00000040: 2be6 93be 6e1c 7d3e e0fb 183d 007f 9e3d
00000050: 4e1e 1abe da29 2b3e 4635 0e3e e5cc 93be
00000060: e8a4 4cbd 00cd 10bb e85b debd 2f51 3ebe
00000070: 1252 fdbd 7ef4 223e 6e02 763e fc8f f53d
00000080: 48cd ca3d 4a7d 2b3e 1c68 dabd 7a14 75be
00000090: fa1a 3f3e 2131 3fbe b54d 20be 6f2e 2cbe
000000a0: afa0 43be f6a2 4a3e 1c26 8f3d 7062 9dbe
000000b0: 5882 fc3d 1c48 19be 442c 52be eece ebbd
000000c0: 602e a93c c8be 0f3e 16b8 40be 9ac6 1a3e
000000d0: 3461 8b3d 382f 2abd 3d69 8bbe 124b 743e
000000e0: 8502 923e e1df 9f3e f13d 9cbe 7070 013e
000000f0: a43c 06be 3654 e7bd bc3c 31be 3661 6f3e
00000100: c0de b2bc 5418 a0be e8e1 333d 0060 613a
00000110: 9e18 63be 883c 2e3e f8c0 343e 08a1 003e
00000120: dc55 de3d 47d5 13be ded5 96be 40cd 703d
00000130: daea 6d3e a019 973c 689e d0bd 3510 5bbe
00000140: 3cef 3fbe 989e ce3d a0ad fbbd b064 4dbd
00000150: 927a 303e 50f5 4fbd c051 8dbb 8028 2c3b
00000160: c8e7 f3bd d670 6c3e b854 f9bd 58f2 8fbe
00000170: 5840 55bd 7277 93be c243 8dbe 0715 a03e
00000180: 01c1 923e 9c14 cabd ef8b 953e 5999 803e
00000190: d9e6 9d3e c0de b93d 9844 993d 305c 3fbe
000001a0: 2d74 95be f765 86be 9a0f 2cbe 10e4 1a3e
000001b0: 9870 1b3d 2667 213e d8ce 013e 312e 40be
000001c0: b640 503e 2038 b7bd 2f01 82be 96d8 013e
000001d0: e00d 453d b283 1fbe 2eee 673e 500b 6fbe
000001e0: 634f 9dbe 2415 a0bd 59a5 1cbe 5dd4 0fbe
000001f0: c294 01be e21f 5dbe 6e08 6e3e fc7d cc3d
00000200: 7665 183e 3a4a 3ebe f836 88bd 7e12 cdbd
00000210: 7802 2fbd 06ac 6e3e d6b4 e0bd 6253 69be
00000220: 6d51 9d3e 521f 493e 90cd 8a3d f062 1d3e
00000230: f7d3 9cbe 00d7 0abd 8ede 48be 3fc8 1bbe
00000240: 233d 18be 9041 5a3d b265 7c3e 3607 c4bd
00000250: 9a7c 82be d40b 123e 00da 44bc a0e2 703d
00000260: b069 073e 404f 1a3d ac87 8fbe 8c04 9b3d
00000270: 98fc 11bd 8d04 9a3e b86d ce3d 4840 503d
00000280: 40a0 8bbb de86 8cbe acb6 fa3d 20eb 14bd
00000290: 0875 c03d 9c33 1d3e c9dd 04be f8cc 85bd
000002a0: d803 2ebe 20fa 26bc c926 8e3e b8f3 44be
000002b0: 94ab dcbd 88e7 13be 27cf 18be 508b d0bc
000002c0: fdd7 9f3e 7f35 9a3e fb09 933e 60de a43c
000002d0: 740d 823d ecaa c53d 2124 9e3e 2842 583d
000002e0: 6ed0 eabd 9291 7b3e 5845 1dbd 6708 863e
000002f0: 0495 963d 5137 983e 421e 123e fa0f 0fbe
00000300: c86a 523d 000d b0bd 641f c2bd 3f27 30be
00000310: 0d14 983e 0c08 60be 25df 8f3e faf0 d0bd
00000320: 4481 e23d bce2 76be bc6e d83d c0c5 61bc
00000330: aad2 453e 2284 19be 4e49 273e f730 8fbe
00000340: e65d 223e f5be 9f3e 502b fd3d 9087 933d
00000350: 1d44 02be b0e6 133e cd62 903e 30c8 84bc
00000360: 4671 84be ee7d 5b3e 703f 62be 1409 213e
00000370: 2997 25be e0b2 563d 5a3d 163e db67 953e
00000380: 8cb5 89bd 9145 943e 163f 5f3e 009f 3f3b
00000390: d851 243d ac2d 1b3e 49f7 7cbe 4ca4 343e
000003a0: c6af f3bd 33dc 8ebe b865 023d 708c 573d
000003b0: 2dce 9d3e 40cc fdbc 42bd 64be 6ea5 113e
000003c0: 8452 e23d fe2a 413e 80b2 2dbd a4f7 32be
000003d0: c0cf 87bb 7dc0 95be a008 c53d ab27 91be
000003e0: c841 2a3d 5668 8ebe 6061 09bd 5a12 b3bd
000003f0: 2510 8f3e 4041 34bd 0c11 313e 620f 493e
-0.019617677 -0.22970068 0.038948774 -0.01177007 -0.20266405 0.029421538 0.31040207 -0.13080351
0.091931045 -0.24690384 0.037240624 -0.19928125 0.16124341 -0.31264162 0.038903832 -0.0703544
-0.28886542 0.24717876 0.03734958 0.07739067 -0.15050623 0.16715184 0.1388751 -0.2886726
-0.049961954 -0.0022094846 -0.108573735 -0.18585657 -0.12369169 0.15913579 0.24024364 0.119903535
0.099024355 0.16747013 -0.106643885 -0.23933592 0.18662634 -0.18671085 -0.15654643 -0.16814588
-0.19104265 0.19788727 0.06989691 -0.30739164 0.123295486 -0.14968914 -0.20524698 -0.11514078
0.020651996 0.14037621 -0.18820223 0.15114823 0.068056494 -0.041548938 -0.27228728 0.23856762
0.28517547 0.31225494 -0.30516008 0.12640548 -0.1310907 -0.11295359 -0.17308325 0.23376927
-0.021834731 -0.3126856 0.043916613 0.0008597374 -0.2217736 0.17015278 0.17651737 0.12561429
0.1085622 -0.14436828 -0.29460043 0.05878949 0.2323412 0.018444836 -0.101864636 -0.21392901
-0.18743604 0.10088843 -0.12288976 -0.05014485 0.17234257 -0.050771058 -0.004312724 0.0026269257
-0.11909443 0.23089918 -0.12174362 -0.2811458 -0.052063316 -0.28802067 -0.27590758 0.31266043
0.28662875 -0.09867212 0.29208323 0.25116995 0.30840185 0.09075689 0.07483786 -0.1868751
-0.29190198 -0.26249668 -0.16802827 0.15126061 0.037949175 0.15762004 0.12676561 -0.1876762
0.20337185 -0.08946252 -0.25391528 0.12680277 0.048108935 -0.15577582 0.22649452 -0.23344159
-0.3072463 -0.07816532 -0.1529745 -0.14045854 -0.12654403 -0.21594194 0.23245403 0.09984967
0.14882454 -0.18583003 -0.066511095 -0.10013293 -0.042726964 0.23307809 -0.10971992 -0.22785714
0.30726185 0.19640854 0.06777489 0.15369773 -0.30630466 -0.033896446 -0.19616148 -0.15213107
-0.14867072 0.05328518 0.24648169 -0.09571688 -0.25485688 0.14262325 -0.012014866 0.058809876
0.1322391 0.037673235 -0.28033197 0.075692266 -0.035641283 0.30081597 0.10079521 0.050842553
-0.0042610466 -0.27446645 0.12241873 -0.036357045 0.09397322 0.15351719 -0.1297523 -0.06533235
-0.16993654 -0.01019147 0.27763966 -0.19233596 -0.107749134 -0.14443791 -0.14922772 -0.025457054
0.31219473 0.3011894 0.28718552 0.020125568 0.06350222 0.096517414 0.3088694 0.052797467
-0.11465536 0.2456725 -0.03839621 0.26178285 0.07352641 0.29729703 0.14269355 -0.13970938
0.051371366 -0.085962296 -0.094786435 -0.17202471 0.29702798 -0.2187807 0.28099933 -0.10202213
0.11059812 -0.2410993 0.10567996 -0.013780057 0.19318643 -0.14991811 0.16336557 -0.27967045
0.15856132 0.31200376 0.12361777 0.07203591 -0.12721296 0.14443469 0.2820038 -0.016208738
-0.2586767 0.21434757 -0.22094512 0.1572612 -0.16170944 0.052416682 0.14671841 0.29180798
-0.067240804 0.28959325 0.21801409 0.0029239058 0.040117115 0.15154141 -0.24703707 0.176408
-0.118987605 -0.27902374 0.031835288 0.052624166 0.30821362 -0.030981183 -0.22337821 0.14223263
0.11050895 0.18864056 -0.04240656 -0.1747728 -0.004144639 -0.2924842 0.09620786 -0.28350577
0.04156664 -0.27813977 -0.03354013 -0.08743735 0.27942005 -0.04400754 0.17291659 0.19634774

rnn.bias_ih_l0 f4 [30]
00000000: ccf8 8bbd acda 86be 6026 7bbc da83 6a3e
00000010: f0c9 2d3e 5041 96bc b762 26be b4e6 96be
00000020: 3a97 9fbd 8ead 583e 29d9 9abe 8869 5d3d
00000030: 888f 943d 0068 eb3a 30ec 84be 53b5 873e
00000040: eb8b 8d3e 0053 85bb 2ac6 5f3e a34a 97be
00000050: be13 34be b138 0abe 3427 e43d 9f1b 46be
00000060: 808b 173b 3824 39bd d767 21be 5461 b93d
00000070: 9f59 8a3e 94e4 e93d
-0.068345636 -0.26338708 -0.0153289735 0.2290186 0.16971564 -0.01834169 -0.16248594 -0.29472888
-0.07792516 0.21159956 -0.30243805 0.05405572 0.07253939 0.0017960072 -0.25961447 0.26505527
0.2764581 -0.0040687323 0.21852937 -0.2954913 -0.17585656 -0.13498189 0.1114029 -0.19346474
0.002312392 -0.045200557 -0.15762268 0.09051767 0.270215 0.11420551

rnn.bias_hh_l0 f4 [30]
00000000: 450a 81be 91ab 93be 684f 33be b86e d7bd
00000010: 00c8 f0b9 5d44 863e abbc 813e 9e0e 53be
00000020: 04c6 0c3e 0c6f 3ebe aae7 c3bd 6e1f 473e
00000030: 7ee9 353e 02dc 36be 9401 cd3d cc41 f83d
00000040: f84b 5c3d 8bbb 953e c039 b3bc fae3 12be
00000050: b7ea 963e 5fc5 9dbe ebfa 803e 44bb e73d
00000060: 70a7 afbc c0bf 9bbe 8b07 85be 32b3 9cbd
00000070: f397 86be fade 5abe
-0.25203148 -0.28841832 -0.1751076 -0.10519165 -0.0004592538 0.26224032 0.25339255 -0.20611045
0.13747412 -0.18597049 -0.09565671 0.19445583 0.17764851 -0.17857364 0.10010067 0.12121925
0.053783387 0.29244646 -0.021878123 -0.14344779 0.29475948 -0.30814645 0.25191435 0.11315015
-0.021442145 -0.3041973 -0.25982317 -0.07651366 -0.26287803 -0.21374121

fc2.weight f4 [8, 20]
00000000: 793c debd 5e8d 28be 806b 2b3c b453 bbbd
00000010: 73f0 e6bd f496 93bd d494 833d fd98 46be
00000020: 0050 4e39 e0a1 963c 285d bbbd ecce edbd
00000030: 1a57 4f3e acad 2e3e 06c8 22be c43f 823d
00000040: 048c e43d 64e5 9d3d 3ca5 babd b4d1 e23d
00000050: 5834 14bd 7875 e0bd 8877 82bd b01a e83c
00000060: 1a35 213e 88ee 23be 59b8 4dbe b6ed 2a3e
00000070: 7a97 97bd 6315 2abe 0c67 8a3d 2032 e93c
00000080: 68f3 a83d ce8b 06be 4497 e43d da81 c8bd
00000090: bbb1 d8bd 5a68 c6bd 0270 553e 10c8 b03d
000000a0: 6c6a 023e 684e 413d 80da 413b daea 81bd
000000b0: c803 ba3d 84c2 133e 1b34 4dbe 3009 a83c
000000c0: 7804 9a3d 8039 2abb aae5 323e 040a 923d
000000d0: c0bb 6e3b 8c62 133e 480e b5bc 70b6 35bd
000000e0: f0d1 9a3d 7bec 25be a03c 913b 00f4 b43c
000000f0: f040 cf3d 1807 12be 68b1 68bd 8005 9c3a
00000100: 9083 bf3d 3495 d33d a00a 26bd c69d 2c3e
00000110: 0ec1 073e 4ced 2dbe 60ea 3fbe 9847 ef3d
00000120: 329d 443e f77a 39be fc8f 02be 3e53 11be
00000130: 1cd8 973d 0262 32be c4f1 02bd a417 8c3d
00000140: 30bb 663d 3527 4ebe 00e4 f43a b41a 3ebe
00000150: 1818 f53d 30d4 613d dcd6 563e cc06 ec3d
00000160: a441 b7bd 6681 103e cc41 64bd 7840 80bc
00000170: 806c 25bb 805c b43c e0c3 ab3c 0023 e7bc
00000180: 40c9 443d 50c0 553d f897 b9bd ea2c 613e
00000190: fb38 cfbd 2894 1fbd 6011 f63c 8666 18be
000001a0: d0e9 95bd acb8 163e a4e8 193e 48ad f93d
000001b0: 9e55 363e da74 363e 3889 553d 40ed 233e
000001c0: de61 2d3e 401e 02be ec36 d93d 54ea ed3d
000001d0: 5c45 42bd 40c4 3ebb 9eb5 18be d4d0 283e
000001e0: 88a4 13bd da49 123e 5280 d5bd 543b c2bd
000001f0: 50e5 bbbd c04e 363d 8aeb 03be f0c6 4b3d
00000200: 6a00 093e 5882 40bd d80b 233d 0cb5 31bd
00000210: b25a 29be 94e5 883d 4430 a03d 3c5b 22be
00000220: 101a bcbd a8f7 b7bd b0c4 433d e033 a53c
00000230: 1c90 bd3d f4c3 3abe 6568 fcbd 1826 48bd
00000240: b087 90bd eaf0 20be d884 0ebe b4d5 993d
00000250: 59ca d4bd 70b5 78bd c2eb 3a3e 70ed 003d
00000260: af0e 40be 2bda 41be 20d5 923d fc54 b7bd
00000270: 4029 7b3d 4031 46bb 7689 17be 229c 263e
-0.10851378 -0.16460177 0.010462642 -0.091468245 -0.11276331 -0.072065264 0.06424871 -0.19394298
0.00019675493 0.018387735 -0.091486275 -0.11611733 0.2024807 0.17058438 -0.15896615 0.063598186
0.11159518 0.077097684 -0.09113547 0.11075154 -0.03618273 -0.109599054 -0.06370455 0.028333038
0.15742913 -0.16008961 -0.20089854 0.16692242 -0.07401939 -0.16609721 0.06757936 0.028466284
0.08249551 -0.13139269 0.11161664 -0.09790392 -0.105807744 -0.09687872 0.20843509 0.08631909
0.12735909 0.047193915 0.00295797 -0.063436225 0.090827525 0.1442967 -0.20039408 0.020512193
0.075203836 -0.0025974214 0.17470422 0.071308166 0.0036427826 0.14393061 -0.022101536 -0.04436344
0.07559574 -0.16203491 0.004432276 0.022089005 0.10119808 -0.14260519 -0.056809813 0.0011903495
0.093512654 0.103311926 -0.040537477 0.16857061 0.13257238 -0.16985053 -0.1874175 0.11683577
0.1920059 -0.18113314 -0.12750238 -0.1419191 0.074142665 -0.174202 -0.031968847 0.068404466
0.05633086 -0.20132144 0.0018683672 -0.18564874 0.11967486 0.055134 0.209804 0.11524734
-0.08948067 0.14111862 -0.05572681 -0.015655741 -0.0025241673 0.022016764 0.020967424 -0.028214931
0.04804349 0.052185357 -0.09062189 0.2198979 -0.1011829 -0.038959652 0.030037582 -0.1488286
-0.07319987 0.14718884 0.15030152 0.12191254 0.17806098 0.17818013 0.052132815 0.16008472
0.16931865 -0.12706852 0.10606179 0.1161696 -0.047429428 -0.0029108673 -0.14913031 0.16485912
-0.03604558 0.14285985 -0.10424866 -0.09483972 -0.09174597 0.044508696 -0.1288282 0.04975027
0.13379064 -0.046999305 0.039806217 -0.04338555 -0.16538504 0.066844136 0.07821706 -0.15855116
-0.091846585 -0.089827836 0.047794998 0.020166337 0.09256002 -0.18238813 -0.12324599 -0.048864454
-0.0705713 -0.15716901 -0.13917863 0.07511464 -0.10390157 -0.060719907 0.18253997 0.031476438
-0.18755601 -0.1893088 0.071695566 -0.08951756 0.061318636 -0.0030241758 -0.14798531 0.16270497

fc2.bias f4 [8]
00000000: 8093 c53d cd7a dcbd f8da 373d be22 073e
00000010: 9a0b afbd 8c13 463e 7c01 36be 22be 5cbe
0.09647274 -0.1076561 0.04488656 0.13196847 -0.08547135 0.19343394 -0.17774004 -0.21556905
