model_A.pth (torch, 5135 bytes, 8 tensors)

fc1.weight f4 [10, 4]
00000000: d614 913e 08a1 a23e 2058 823c 2c40 bc3e
00000010: c895 d93e eea5 cbbe 303f ffbd 32e1 973e
00000020: 802c 34bd a419 213e 6cf1 efbe ac2e e6be
00000030: 1432 a3be bef2 97be 40e0 2f3d a071 92bd
00000040: 9066 623e 9853 f5be c81e 4d3e c82b f73e
00000050: 64a4 143e 0086 c43d 38f2 e8bd fced 0dbe
00000060: 82c3 d03e 487b fc3d e8e2 55be dcbc cc3e
00000070: b02f 4b3d f0c9 5e3e 40af 82be ee9a c83e
00000080: e614 e2be 04f6 31be a6fa a03e f085 c43e
00000090: c0ab 7a3e b8d6 febe 02fa ff3e be38 d0be
0.2833621 0.31763482 0.015911162 0.3676771 0.42497087 -0.39775032 -0.12463224 0.29663998
-0.04398775 0.15732437 -0.46863878 -0.44957483 -0.31874144 -0.29677385 0.04293847 -0.071505785
0.22109437 -0.4791534 0.20031273 0.4827559 0.14515835 0.09595871 -0.113743246 -0.13860315
0.4077416 0.123282015 -0.20887339 0.39987838 0.049606025 0.2175672 -0.2552433 0.39180702
-0.4415657 -0.17379004 0.3144123 0.38383436 0.2447958 -0.49773192 0.49995428 -0.4066829

fc1.bias f4 [10]
00000000: b6f8 80be 0415 8e3e 88c5 f03d c096 b2bd
00000010: 7440 7b3e f0d4 2f3d 8c66 093e a2d3 c13e
00000020: 2052 d3bd 14cb 7d3e
-0.2518975 0.2775041 0.11756426 -0.087201595 0.24536306 0.042927682 0.13418025 0.37856776
-0.103183985 0.247845

rnn.weight_ih_l0 f4 [30, 4]
00000000: 82a2 22be 19b8 8ebe 88e5 bcbd 00b9 eb3b
00000010: 162a 8cbd f8d7 953d 0584 40be d83d 0cbd
00000020: b8ff 80bd 900b 44bd b840 7dbe feb6 5e3e
00000030: 1c70 fd3d 2069 243e dc72 29be c0ca 9abc
00000040: 5047 143e 00df 07bc 9581 37be a005 703c
00000050: b436 7ebe 3368 863e 905a 1abd 4a5a 54be
00000060: f4eb 0a3e 9345 4abe 0d18 79be df6f 9e3e
00000070: fe6d 583e aa6b 433e 47a3 823e 4d61 8a3e
00000080: b4ba cc3d 800f f83b e8c1 80be 7956 38be
00000090: 2096 4cbc 4571 60be 7b78 9c3e 98d1 9cbe
000000a0: b027 46bd ab66 9f3e 8623 15be 9675 1d3e
000000b0: 1085 233e 88f6 6abe 1e26 233e a19f 8abe
000000c0: d83b 89be bf88 923e 6086 803c cc6f 953d
000000d0: 864c 94bd 000e acbc a41a 943d 78e0 2cbd
000000e0: 2882 4fbd c822 5abd e0a2 24bc 0698 6f3e
000000f0: 86f4 8bbd bb7b 17be 8409 923d 10d3 223e
00000100: 7ed5 c1bd a1cd 9b3e c49a a03d ac1d 20be
00000110: 32fb 3d3e d9cc 91be feac 413e 037e 94be
00000120: e0a5 4dbd 20d0 23bd f4ca 2dbe 2494 db3d
00000130: b6da 373e 606d 2ebc a237 2a3e bc8a 87be
00000140: ad58 9fbe 0bde 21be 1ceb e83d 4a2b 35be
00000150: f1c4 863e 85c6 943e ddb4 7dbe a4c5 103e
00000160: ebf1 1dbe 5872 e73d 708c b13d a0ef 66bd
00000170: a8b1 643d f4ca b3bd 946d 82bd 44e0 ec3d
00000180: 0085 fcbd 307d b93c a43f af3d d689 4f3e
00000190: daf6 08be ea66 e5bd a499 0b3e 1e31 88bd
000001a0: f829 21bd 6d42 37be 82d8 fdbd 6033 7cbc
000001b0: 1657 333e 388d 67be d911 923e 2010 773d
000001c0: 3024 3b3d f6ed 5a3e 1d57 40be 6ace 8fbe
000001d0: 5458 58be f91b 9fbe 9992 81be 82b9 523e
-0.15882304 -0.2787483 -0.09223467 0.0071936846 -0.06843965 0.073165834 -0.18800361 -0.034238666
-0.062987745 -0.04786259 -0.2473172 0.21749493 0.12374899 0.16055727 -0.16547722 -0.018895507
0.14480329 -0.008292913 -0.17920525 0.014649779 -0.24825555 0.26251373 -0.037684023 -0.20737568
0.13566571 -0.19753103 -0.24325581 0.30944726 0.21135709 0.1908404 0.25515196 0.2702736
0.09996548 0.007570207 -0.2514794 -0.18001737 -0.012486964 -0.21918209 0.3056067 -0.30628657
-0.048377693 0.31133017 -0.14564332 0.15376887 0.15968728 -0.22945607 0.1593251 -0.27074912
-0.2680347 0.28619954 0.015689075 0.07296714 -0.07241158 -0.02100277 0.07231644 -0.042206258
-0.050661236 -0.053255826 -0.010048598 0.23397836 -0.068337485 -0.14793293 0.07130721 0.15900826
-0.094645485 0.3043032 0.07842019 -0.15636319 0.18552855 -0.284766 0.18913648 -0.2900239
-0.05020702 -0.039993405 -0.16971952 0.10721615 0.17954525 -0.010646194 0.16622785 -0.26473033
-0.31122342 -0.15807359 0.113729686 -0.17692295 0.2632213 0.29057708 -0.24776025 0.14137894
-0.15424316 0.11301106 0.086693645 -0.056380868 0.05583349 -0.087789446 -0.063685566 0.11566213
-0.12330055 0.022642702 0.0855706 0.20267424 -0.13375416 -0.1120127 0.13632828 -0.06649993
-0.039346665 -0.17896433 -0.12394811 -0.015393108 0.1751369 -0.22612464 0.28529242 0.060318112
0.045688808 0.21379837 -0.18783231 -0.2808717 -0.21127445 -0.3107603 -0.25307158 0.20578578

rnn.weight_hh_l0 f4 [30, 10]
00000000: 020b 123e c408 263e 6052 4b3d 9c9b 3abe
00000010: e3be a1be 2882 9fbd c2ad 4d3e 7842 09be
00000020: 7043 bf3d 57ba 9abe 8a76 5bbe 50c5 8f3d
00000030: c0c3 7ebd 4bcf 8ebe 40ed 8a3b 5c66 e5bd
00000040: 103d 313d 64fa babd 205a 9ebd d874 83be
00000050: d5ef 9d3e d741 94be ec30 ef3d d059 0e3d
00000060: 1872 84bd ce85 1e3e 80d9 973c be3a bebd
00000070: 9ee6 323e 8667 4b3e 170d 91be 886e 993d
00000080: f07f 03bd cea5 e8bd 84b5 b23d 1447 103e
00000090: 1021 27bd 8bab 94be 067e c6bd 90a7 7dbe
000000a0: 1c97 1ebe ad56 84be b0fe 3fbd 6dfe 9cbe
000000b0: c051 0e3e 908f 173d 94da 0abe e605 653e
000000c0: a73e 5bbe 204c 53bc e021 4b3c 6d41 95be
000000d0: e2d7 f4bd 882c 063e fd01 8ebe 5e3c 7f3e
000000e0: e5eb 913e 6a12 573e 0c4b eebd aa0d 0fbe
000000f0: e2c9 98be 948e a33d 61a3 8bbe a03a 5d3d
00000100: 0828 963d 6333 04be e8a2 da3d b635 523e
00000110: ea03 debd ecd6 ed3d 7b74 833e 52c8 9abe
00000120: 97ce 1bbe 209a 74bc c8c1 03be 0e7c 0e3e
00000130: 8878 733d 00c1 9bba 15d9 8e3e 5467 f13d
00000140: 5cfb 2c3e dcaa 803d 2365 8d3e d86d 6abe
00000150: ba40 3f3e 76fe 603e 842e 863d c2c3 38be
00000160: 54e2 bf3d 7cc9 e83d 7265 4cbe d686 3f3e
00000170: b78f 29be febf 95bd 670a 9bbe 3092 07bd
00000180: b08f 3bbe 7e1e 08be 08d6 373d d848 79bd
00000190: ad8e 2fbe 01f6 8d3e b82b ff3d ede3 9dbe
000001a0: 9ee4 7cbe ece9 143e f03b dd3d b3e0 923e
000001b0: 904a 8c3d c159 93be 9a80 fabd d88d 093d
000001c0: 7c0f 7ebe 0a02 98be d0f5 a6bc 3071 e43d
000001d0: 998d 97be e03c 2ebe f6b6 533e 8bb2 893e
000001e0: 40bc 943d 57b2 34be fd2a 80be 0e98 66be
000001f0: a041 493c c8d9 1cbd 06b6 90bd 0909 893e
00000200: fce5 fdbd 9e7d 583e a014 cabc ce52 77be
00000210: 36d4 c2bd 40cd 69be 36c8 c8bd c0d1 e2bc
00000220: 4aad 543e a014 d0bd 7f48 873e 3c03 78be
00000230: 9325 50be fc1d aa3d 20d9 51bd 4f2e 813e
00000240: c98f 2cbe 96cb 613e c530 923e 0e8d 613e
00000250: 758e 71be 5a22 193e f41a ce3d 4056 433d
00000260: 6c8c fabd abed 82be 7dc7 813e 7a20 183e
00000270: 60db e3bc 5e78 81be 1d05 853e d311 07be
00000280: 7ea4 b6bd ab24 8c3e 661a 1e3e 1a53 d7bd
00000290: 961d a7bd 2017 593c 68b6 4ebe f08a 5a3d
000002a0: d80b e8bd a0eb 6e3c 80b9 7d3d 6e6f 4ebe
000002b0: feee 83be 0a32 89be 80f2 fb3d 00e4 87bb
000002c0: 8126 913e 929b dfbd e499 4cbe a8e4 98be
000002d0: 00a0 03bd b838 28bd 10cb 2a3e bb06 80be
000002e0: a4b5 96be 2cfe 8a3d 0d0f 833e d3b0 30be
000002f0: 00a5 073e 2032 4cbd ec75 c93d 2e70 123e
00000300: 006f fe3a 04e6 51be 908e 803c c328 9c3e
00000310: 0878 7dbe ca9f 98be 308c 663d 3038 ea3d
00000320: 82f6 acbd 169b 1abe e8f2 6e3d 6eca 4e3e
00000330: b454 9abe 93b2 9a3e b021 f63d 68cb 63bd
00000340: 9c46 d23d 7b24 90be 4090 8cbc 18fb 1cbd
00000350: 5e02 55be baa1 debd 80e0 89bc 40ff af3b
00000360: 3422 6bbe 8884 f0bd 27ba 94be 34b0 1dbe
00000370: 6fb9 35be fef7 313e d015 9d3c a857 0ebe
00000380: e01c 8fbe b626 043e 506d 2c3e 44c8 86bd
00000390: 39c6 47be 9aec 443e 181f 6f3d f0f0 b33d
000003a0: 5e22 84be 2e82 403e 082c 193d 5c7d 013e
000003b0: b01e 8a3d 7e7d 5f3e 5894 623d 17b2 90be
000003c0: d2c8 72be 40ec 23bd 4a04 4c3e 8645 7dbe
000003d0: b0d1 c6bd 3433 30be 8392 893e 3083 a5bc
000003e0: 1d68 a03e c9ca 55be 9ebb 653e 365a 5fbe
000003f0: 45ae 963e 3d53 43be 7233 81be e0c7 323d
0.14262012 0.16214281 0.049639106 -0.18223423 -0.31590948 -0.07788497 0.20085815 -0.13404262
0.093390346 -0.3022029 -0.21431938 0.07020056 -0.0621984 -0.27892527 0.004239708 -0.11201164
0.043271124 -0.091297895 -0.07732034 -0.25675082 0.3084704 -0.28956482 0.11679253 0.03475362
-0.06467074 0.1548073 0.01853633 -0.09288548 0.17470786 0.1986371 -0.283303 0.07491785
-0.032104433 -0.1135975 0.087260276 0.14089614 -0.040803015 -0.29037127 -0.09692006 -0.24770951
-0.15487331 -0.25847378 -0.04687375 -0.3066286 0.13898373 0.037002146 -0.13559943 0.22365531
-0.21410619 -0.012896568 0.012398213 -0.29151478 -0.11955239 0.13102925 -0.27735892 0.24925372
0.28500286 0.21003118 -0.11635408 -0.13970056 -0.29841524 0.07986179 -0.27273086 0.054010987
0.07331854 -0.12910227 0.10675603 0.20528302 -0.1084059 0.11613259 0.25674805 -0.30230957
-0.15215527 -0.014929324 -0.1286689 0.1391451 0.05944112 -0.001188308 0.27899995 0.117872864
0.16892761 0.06282589 0.27616224 -0.22893465 0.18677035 0.21972069 0.06551841 -0.18043426
0.093693405 0.11366555 -0.19960573 0.1870378 -0.16558729 -0.0731201 -0.30281374 -0.0330984
-0.18316531 -0.13292882 0.04488185 -0.060860485 -0.1714427 0.2772675 0.124595106 -0.30837956
-0.24696586 0.14542359 0.10802448 0.28687057 0.06850159 -0.28779414 -0.1223156 0.03358254
-0.24810594 -0.29689056 -0.020380884 0.11154401 -0.29600218 -0.1701541 0.20675263 0.2689403
0.07262468 -0.17646156 -0.25032797 -0.22518942 0.012283713 -0.03829363 -0.07065968 0.26764706
-0.12397382 0.21141669 -0.024668038 -0.24152681 -0.09513132 -0.22832203 -0.09803812 -0.027687907
0.2076923 -0.10160184 0.26422498 -0.24219984 -0.20326833 0.083065 -0.051232457 0.25230643
-0.16851725 0.22050318 0.28552833 0.22026464 -0.235895 0.1495451 0.10063735 0.047689676
-0.122338146 -0.2557195 0.2534751 0.14856139 -0.027814567 -0.25287145 0.25980464 -0.13190393
-0.08918093 0.27371725 0.15439758 -0.10513897 -0.0815994 0.013250142 -0.2018677 0.053355157
-0.11330384 0.014582545 0.061944485 -0.20159695 -0.25768274 -0.2679599 0.123021126 -0.0041470528
0.2834969 -0.109183446 -0.1998058 -0.2986195 -0.03213501 -0.041069716 0.16679025 -0.25005135
-0.29435456 0.06786761 0.2559742 -0.17254953 0.13246536 -0.04985249 0.09836945 0.14300606
0.0019411743 -0.204979 0.01569298 0.3049985 -0.2475282 -0.2980941 0.056286037 0.11436498
-0.08445455 -0.15098223 0.058337122 0.20194408 -0.30142748 0.30214366 0.12018144 -0.055613905
0.10267374 -0.28152832 -0.017158628 -0.0383254 -0.20801684 -0.10870691 -0.016830683 0.0053710043
-0.22962266 -0.11744028 -0.29048273 -0.15399247 -0.17746519 0.17379758 0.01917544 -0.13900626
-0.27951717 0.12905392 0.16838574 -0.065811664 -0.1950921 0.19230881 0.058379263 0.087861896
-0.2580747 0.1879966 0.037395507 0.12645477 0.067441344 0.21825215 0.055317253 -0.28260872
-0.2370942 -0.040020227 0.19923511 -0.24733552 -0.097079635 -0.17207032 0.26869592 -0.020204157
0.31329432 -0.20878138 0.22434852 -0.21811756 0.29429832 -0.19074722 -0.25234562 0.043647647

rnn.bias_ih_l0 f4 [30]
00000000: 083d 7a3d 7080 6bbe 006b 313d 003c ecbc
00000010: 1854 593d b632 423e acf4 c23d 5042 60bd
00000020: 1858 5dbe 603e 393e 3832 083d fc8e e23d
00000030: 24ad c13d 7a79 1c3e 004d af3c 4914 47be
00000040: 7b79 9a3e e81e 383e 1223 acbd 27d2 31be
00000050: 5c30 d33d 61f6 0cbe 07f5 90be 2663 46be
00000060: 6eab 663e 86e2 45be 5dc0 69be 444a cabd
00000070: 107e f23d a0e8 fe3c
0.06109336 -0.22998214 0.043314934 -0.028837204 0.053058714 0.18964657 0.09519324 -0.05475074
-0.21615636 0.180902 0.033251017 0.11062428 0.09456852 0.15280715 0.021399021 -0.19441332
0.30170807 0.1798054 -0.08405127 -0.17365323 0.10311958 -0.13765861 -0.2831194 -0.1937376
0.22526333 -0.19324693 -0.22827287 -0.09877446 0.11840451 0.031116784

rnn.bias_hh_l0 f4 [30]
00000000: 217d a13e 89e3 2ebe 562e 0abe d80f 263e
00000010: fa05 ecbd b2aa 4c3e 207a e5bc a3de 883e
00000020: 80fd 893d 8efc 76be 988a 86bd 9acb 113e
00000030: 60d6 7bbe 9862 273e cead 2abe 006d 32bc
00000040: c734 9abe 8dd3 983e 950f 883e 1ed4 553e
00000050: 4cb4 a8bd ee48 cebd 3491 97bd 72a7 233e
00000060: 03aa 73be c6b4 7b3e 6e02 3b3e 97fd 903e
00000070: d0d9 66be 67b5 9a3e
0.31540778 -0.17078985 -0.13494238 0.16216981 -0.115245774 0.1998699 -0.028012335 0.26732358
0.067378044 -0.2411978 -0.065694034 0.14237824 -0.24593496 0.16346204 -0.16667864 -0.010890245
-0.3011839 0.298489 0.26574388 0.20881698 -0.08237514 -0.10072504 -0.07400742 0.15981844
-0.23795323 0.24580678 0.18262646 0.28318474 -0.22544026 0.30216524

fc2.weight f4 [8, 20]
00000000: d0b4 353d 389a 323e 28ca 1c3e 705b b83d
00000010: 3826 dbbd 30b2 953c fed1 91bd a8d8 acbd
00000020: 3c1a 08be 48c5 a73c 6817 3e3e 6ea3 1f3e
00000030: d8ad d73c 2cee 5cbe 4cfc 4ebe 0861 193e
00000040: 9c77 b3bd 9469 a33d d924 eabd 1d04 10be
00000050: 0032 0cbc 00ca 793d 8827 883d fa95 9dbd
00000060: 808f 25bd 2c4b 0f3e 3823 653d 49a6 05be
00000070: 2757 43be 3dfe cdbd c086 54bb d056 ae3c
00000080: 5c16 ba3d 3b58 54be 9287 223e 3213 87bd
00000090: 8063 3e3b 60d9 503c 00e9 043c d693 5b3e
000000a0: d890 15be bab0 623e 1daf 03be 88ed cf3c
000000b0: ff83 18be 2cfe 393e a0e9 c4bc 340b 8c3d
000000c0: 62c3 b3bd f5f2 63be a428 503e 00a2 1fbb
000000d0: 4065 f6bb da31 383e 7a75 8fbd 707b 04bc
000000e0: b408 0fbd 122e 84bd 2c66 3bbd fa5e 80bd
000000f0: fcd9 e3bd 30c4 813d c0dd bdbc 302a 533d
00000100: e8d7 a93d 92be 8cbd 20ac d53d 68f6 6f3d
00000110: a02e 93bb 38a5 d83d 8405 69bd bcc1 f23d
00000120: 39bd dabd 8ae4 13be 7291 2b3e 76f9 453e
00000130: 3c84 23be 4a64 3cbe 46f6 293e 2874 2d3d
00000140: 505d 8fbc aed6 99bd d8d4 1f3d 949f e63d
00000150: 683f 343e 465c 103e 2e2a 25be 1751 08be
00000160: 80fe 5b3e e0bd 983d 9b8a 59be a0ad 173c
00000170: 304a af3d bad0 53be 20c7 473d 0e8e c4bd
00000180: 4d09 3fbe 65ab 37be 52d6 523e 22a2 bfbd
00000190: f032 00bd f09b 9c3d a0df 273d 4f07 52be
000001a0: 3611 9ebd 70a6 c83c aa44 fdbd e0c8 883c
000001b0: 7c9b 15be 5a51 293e 08a7 813d 6278 4f3e
000001c0: 60f8 373c 1493 8e3d b050 3b3e 94a2 013e
000001d0: fab3 cfbd b44a 51bd 9031 4c3d 2a12 523e
000001e0: 30ea f73c 0621 373e 3685 5e3e c6ec 623e
000001f0: e456 4dbe c05f fd3d 7dc6 57be 0c7c 27bd
00000200: 514d 55be 9068 f9bc 548d 5d3e 7897 eebd
00000210: d4f8 3dbe d99e 03be b875 693d 48f8 443d
00000220: 30f5 8b3d a927 5cbe 6543 d8bd 32f4 08be
00000230: 0aa7 163e 4410 863d 20b5 22be 8843 623d
00000240: f02f ec3d 1ecc 0b3e 1c73 8ebd 82e7 3e3e
00000250: 70a6 0dbe d773 cdbd d859 5f3e 703d b83d
00000260: dc5d 473e d4e6 98bd 4c56 283e 70be 16be
00000270: 51fb 4cbe 602b 71bd 84d9 463e 2024 21be
0.04436189 0.17441642 0.15311491 0.09001815 -0.10700649 0.018273443 -0.07120131 -0.084397614
-0.13291258 0.020479813 0.18563616 0.15589687 0.026328012 -0.2157523 -0.20213431 0.1497842
-0.08763048 0.07979122 -0.114328094 -0.14064069 -0.008556843 0.060983658 0.06648165 -0.076946214
-0.040420055 0.1399352 0.05594179 -0.13051714 -0.19076215 -0.10058258 -0.003242895 0.02128163
0.09086296 -0.20736782 0.15872028 -0.06595458 0.0029051006 0.012747139 0.008112192 0.21443114
-0.14606035 0.22137728 -0.12859769 0.025381818 -0.14894103 0.18163365 -0.024037182 0.06838074
-0.08777501 -0.2226065 0.20328003 -0.0024358034 -0.007519394 0.17987767 -0.07004829 -0.00808607
-0.03492041 -0.064541 -0.045751736 -0.06268115 -0.111255616 0.06336248 -0.023177028 0.051553905
0.08293134 -0.06872286 0.10433221 0.0585846 -0.004491642 0.10578388 -0.056890026 0.11853358
-0.106806226 -0.1444265 0.16754702 0.19333443 -0.15968412 -0.18397632 0.16597852 0.042347103
-0.01750055 -0.0751165 0.039021343 0.11260906 0.17602313 0.140977 -0.16129372 -0.13312183
0.21483803 0.07458091 -0.2124428 0.009257704 0.08559072 -0.20685092 0.048773885 -0.09597407
-0.18655892 -0.17936476 0.20589569 -0.09357096 -0.031298578 0.0764693 0.04098475 -0.205106
-0.077181265 0.024493426 -0.12366612 0.016697347 -0.14610094 0.1653494 0.06330687 0.20260766
0.011228651 0.06961647 0.18292499 0.12659675 -0.1014175 -0.051096633 0.049851954 0.20514742
0.030263036 0.17883691 0.21730503 0.22160634 -0.20052677 0.123717785 -0.21071811 -0.040889785
-0.20830275 -0.030445367 0.21635944 -0.11649984 -0.18551952 -0.12853564 0.05699703 0.048088342
0.06833875 -0.21499504 -0.105597295 -0.13374403 0.14712158 0.06546071 -0.15889406 0.055240184
0.11532581 0.13652083 -0.06955549 0.18643 -0.13833022 -0.1003186 0.21811616 0.08996093
0.19469398 -0.07465902 0.1643917 -0.14721084 -0.20017745 -0.058879256 0.19418913 -0.15736437

fc2.bias f4 [8]
00000000: fa6b 34be 3e4b 24be 300f c5bd c83d 41bd
00000010: 141d 26be 0013 19ba f0ce 6fbd 288c 503d
-0.17619315 -0.16044328 -0.096220374 -0.04717806 -0.1622203 -0.0005839318 -0.05854696 0.050914913
