models/model_B_ppo.pth (torch, 317783 bytes, 27 tensors)

self_embed.weight f4 [64, 20]
00000000: e7df 2c3a 826c 06be 809b 06bb 0841 883e
00000010: 62c2 9b3c 8e6f 5a3e 10db 4fbc 3622 f03c
00000020: 5251 45be f896 cf3d 29c6 853d 86af 6ebd
00000030: 93f8 9bbd d5a5 d93d 1b37 aebd f8d8 afba
00000040: 4091 813c 80dc b23d a286 4fbc a005 33be
00000050: c6ed b7bd a9dd bbbd e086 5c3e 578f fe3d
00000060: 63bd 923d f3c7 de3d a176 4f3e fa7d 1c3e
00000070: 0aad 023e e405 b53d 80ce 3cbd 7225 1ebd
00000080: 5d99 113e cbc4 253d 1713 003e 5245 2e3e
00000090: 3c28 7c3e 587d 28be 3525 563e e273 063e
000000a0: 4e97 493e c1e4 f3bd ca20 b0bd 2464 423e
000000b0: ea6d 093e 831b f23d ac31 3fbe 3810 5b3e
000000c0: ea71 2b3e e4a6 acbd 963b 4bbd 19cc 553d
000000d0: 72eb 103e 28c7 413e 9f8b a43d d12d 603e
000000e0: ed39 793e 403d 8c3b a611 49bc 03ee 6f3e
000000f0: b8f1 18be f749 143e ffbe 15be cb70 53bd
00000100: a7b5 bcbd 1e0d 9fbd e097 e53c 8f9d b63d
00000110: 9056 193e c019 61bb c69d 1e3e 3540 f43d
00000120: 8162 f53c 5029 26bd 7080 29be 5bd6 75bd
00000130: 7ee0 043d 2eb5 03be f929 1d3e 838d 50be
00000140: 92b6 253e 6861 b23d 7292 0e3e 42ee a2bd
00000150: 384e 053e 56a7 f1bd 9086 393d 20d7 6dbc
00000160: 8cdd ec3d c85f 283d 98e3 af3c e03b fcbc
00000170: 34a4 21bd 1b67 4bbe 448d 4fbe 4c9a 3ebd
00000180: dc96 3dbd 0886 733d 489a de3d a807 49bd
00000190: 7eac 0ebd 4153 38be 4cb6 b53d 15e4 b9bc
000001a0: a717 083d 0410 133e dc44 243e 2c85 1c3e
000001b0: d49f a9bd 8c17 05bd 5faa cd3d b4a3 003c
000001c0: 7376 66be 3ecf 51bd f5cf f6bd 83af 33bd
000001d0: b158 c7bd 488c 263e 46a5 903c 4475 6f3e
000001e0: 76da 533d 30ee b7bd ce62 163e 8ada a2bd
000001f0: 5f1a 0d3d bd12 35be 4557 773e cd5a 18be
00000200: ca99 e8bd 60c1 64bc 3c7d c63d fac2 313e
00000210: 93df 1c3e 9183 713e 43d4 923d b1e8 e33d
00000220: 3800 193e a435 903d a08c 5b3e 548d 6d3c
00000230: 21af 2ebe 3e90 a2bd 06f4 20be 90fc 2b3d
00000240: acaf fe3d d2da 12be ecb3 3a3e 8f8b 5ebe
00000250: 60ea e43c e8b7 d23c 6870 1a3d 4499 e93d
00000260: 8c48 90bd 3a23 233e e38b 28be d064 483d
00000270: a952 5fbe ddcb 22be e873 4d3e a08e a2bc
00000280: f81b 01be d77b 703e 1470 9a3d d1a2 383e
00000290: 89bc 8a3e 0bc7 b0bd d41c 53bd 006e b73d
000002a0: 70a5 35bd 8022 a6bb a34c 5dbc 69f2 0cbe
000002b0: 21db 91bd da34 a4bb 24c2 7ebd 172b 3ebe
000002c0: 6b1e f3bc fc5c f0bd 47db cabd 67e8 353e
000002d0: 7d6c 3bbe b354 423e 1c7a 8ebd e316 483e
000002e0: c19c f9bd 5b8b ddbb 79c0 fdbd 1bfd 363e
000002f0: c247 5bbe 8032 2a3e a274 103e 8ff9 103e
00000300: b1a9 7a3e ec34 16be 2384 ddbd 0a0a 313e
00000310: 01d3 d8bc f01e cbbd bba0 30be 959f 193d
00000320: 72c1 b7bd 9755 863d 78bc 3b3e ae90 3b3d
00000330: dd44 3bbe 6dfd a8bb 000c 4bbe 79d4 da3d
00000340: 20d2 a53c 00a7 edbc 36f0 603e 3ba8 f33d
00000350: 0f3a 153e 302a 5e3e 8c49 f1bd e924 433d
00000360: 0b7f 02be e87e 423e 2e40 f6bd 805f 2fbe
00000370: 2848 2dbe e243 393e f87f 963d f4c7 233e
00000380: 33d6 54be dc3f 5fbd 424c e1bd d8db 22be
00000390: e2d0 583e 8054 abbd c019 0c3d b0cd a43d
000003a0: 053f 51be b8c8 033e 75dc eabd 0ca1 553e
000003b0: 7586 fbbd 40b9 f53b 803e f33d cc33 853d
000003c0: a8ec 4c3e 2783 463d e891 433e b29e f93c
000003d0: eadc 343e 90cd afbd 6034 43bc 7267 a6bc
000003e0: 6804 943c e076 dc3d dfc9 143e 1ca6 76bc
000003f0: 03bf 283d 0490 adbd 17af 36be c7dd 243e
0.00065946433 -0.1312733 -0.0020539463 0.26612115 0.019013587 0.21331617 -0.012686506 0.029313188
-0.19269302 0.10136217 0.06531937 -0.05827286 -0.07615771 0.10627333 -0.08506604 -0.0013416102
0.01581633 0.08733463 -0.012666376 -0.17482615 -0.089808986 -0.09173138 0.21535826 0.12429684
0.07165029 0.10877981 0.20260097 0.15282431 0.12761322 0.08839014 -0.04609537 -0.03860993
0.1421866 0.04047088 0.12507282 0.17018631 0.24624723 -0.16454065 0.20912631 0.13130143
0.19686624 -0.11908866 -0.08600004 0.18983513 0.13420835 0.11821654 -0.18671292 0.21392906
0.16742674 -0.08430269 -0.049617372 0.052196596 0.14152315 0.18923628 0.08034443 0.21892478
0.24338503 0.0042797625 -0.012272274 0.23430638 -0.14935958 0.1448134 -0.1462364 -0.05162124
-0.09214335 -0.07766174 0.028026521 0.08916771 0.14974427 -0.0034347624 0.15489873 0.11926309
0.029954197 -0.040566742 -0.16552901 -0.06001888 0.032440655 -0.12862083 0.15348043 -0.20366482
0.16182926 0.08709985 0.13923052 -0.079556 0.1301812 -0.11799495 0.045294344 -0.014516622
0.11565694 0.04110697 0.02147083 -0.03079027 -0.039463237 -0.1986355 -0.20268732 -0.046533868
-0.04628645 0.059453994 0.108692706 -0.049079567 -0.03483247 -0.18000509 0.08872661 -0.022691766
0.03322568 0.14361578 0.16041893 0.15285176 -0.08282438 -0.03249316 0.10042261 0.00785153
-0.22506122 -0.051223032 -0.120513834 -0.043868553 -0.097337134 0.1626445 0.017656934 0.23384577
0.051722012 -0.089809775 0.14686128 -0.07951839 0.034448978 -0.1768293 0.24154384 -0.14878388
-0.11357458 -0.01396212 0.09691855 0.17359534 0.15319662 0.23585345 0.07169392 0.11128367
0.1494149 0.07041481 0.21440363 0.014499027 -0.17058994 -0.07937668 -0.15718088 0.04198891
0.124358505 -0.14341286 0.18232697 -0.21732925 0.02794379 0.025722459 0.037704855 0.11406186
-0.07045087 0.15931407 -0.16459613 0.048924267 -0.21808876 -0.1589808 0.20063746 -0.0198434
-0.12608325 0.23484741 0.075409085 0.1803086 0.27096966 -0.086317144 -0.051541165 0.08956528
-0.044347227 -0.0050700307 -0.013507041 -0.13764347 -0.07121874 -0.005011183 -0.062196866 -0.18571125
-0.02967759 -0.11736485 -0.09905105 0.17764436 -0.18303104 0.18977623 -0.06956884 0.1953998
-0.121881016 -0.006760997 -0.12390227 0.1786999 -0.21414092 0.16620827 0.14106992 0.14157699
0.24478795 -0.14668626 -0.10816219 0.17288986 -0.026467802 -0.0991801 -0.17248814 0.037505705
-0.08972444 0.06559294 0.18333614 0.045792274 -0.18287988 -0.005157164 -0.19828796 0.10685057
0.020241797 -0.029010296 0.21966633 0.11897322 0.14572929 0.21695781 -0.11781606 0.047642622
-0.12743776 0.18993723 -0.1202396 -0.17126274 -0.16922057 0.18092301 0.07348627 0.15994245
-0.20784836 -0.05450426 -0.11000873 -0.15904176 0.21173432 -0.083657265 0.034204245 0.08047044
-0.20434196 0.12869537 -0.1146783 0.20862216 -0.12281505 0.00749889 0.11877155 0.0650402
0.20012152 0.04846492 0.19098628 0.03047118 0.17662397 -0.0858413 -0.011914343 -0.020312998
0.018068507 0.10764861 0.14530133 -0.015054252 0.041197788 -0.084747344 -0.17840229 0.16100226

self_embed.bias f4 [64]
00000000: 6827 663d 7e74 0abe e842 10be a709 933d
00000010: c4a0 15be f8ef 093e 959f 313d 4899 3b3d
00000020: 8fb0 c0bd 65cb bebd f212 023d 1078 ff3c
00000030: 94ec 10be 61e0 4f3d 6a17 41bc fa2e 663e
00000040: 41d7 1cbe 0281 653e 2b49 443e 8ce7 6dbd
00000050: 4b5e 5f3d 00d3 263a 748b 0f3d 5339 bfbd
00000060: afe1 b4bd c1f6 00bd d8eb 47be 9c67 343d
00000070: 8f36 21be 191a 453e ad57 69be 972f d1bd
00000080: f151 36bd d91c 2abe 2ded 1dbd da9f 4e3e
00000090: 6083 69bd 6e23 4d3e f8a4 55be e4f9 093e
000000a0: a7bb f23d 8234 bc3d cec1 e8bd c817 57be
000000b0: e8ee 1c3e a0a4 353d 0951 b13d ba20 6bbe
000000c0: 1f62 3f3e 7c48 7f3d 18a9 f73d 30aa 43be
000000d0: 1efb ad3d b12f 31bd d0ae 833e e257 37be
000000e0: 553c 17bb 0615 193e 9417 fbbb 8c47 593e
000000f0: e35b f53d 567e 45be b95e ecbd 9d59 ad3d
0.056189924 -0.13521 -0.14088023 0.071795754 -0.14612108 0.13470447 0.04336508 0.045800477
-0.09408676 -0.09316138 0.03175635 0.03118518 -0.14152747 0.050751094 -0.0117853675 0.22478858
-0.15316488 0.22412494 0.19168536 -0.05808215 0.054533284 0.0006363839 0.035045102 -0.093371056
-0.08832108 -0.031485323 -0.19523561 0.044044122 -0.15743469 0.19248237 -0.22787352 -0.10214155
-0.04451174 -0.16612567 -0.038556267 0.20178166 -0.057010055 0.20033047 -0.20863712 0.13474232
0.11852198 0.091897026 -0.1136509 -0.21005166 0.1532551 0.04434645 0.08658034 -0.22961703
0.18689774 0.062324986 0.12092799 -0.1910789 0.084951624 -0.043258373 0.2571931 -0.17904618
-0.0023076732 0.14949426 -0.007662723 0.21218699 0.119804166 -0.19286475 -0.115415044 0.08464358

animal_embed.weight f4 [64, 8]
00000000: f4d5 6cbe 6937 133e 21ed 9bbe 228a 873e
00000010: 3aea 01bd d16d 07bd 95d3 e33d 7736 a03e
00000020: e1d3 f9bd 431d b03d 316e 5c3e aba1 41be
00000030: 494d a5bd 80a8 a73e a46e c9bd 4314 a3be
00000040: 883f b53e 7a2c fd3c a34d 5bbe cbfb d8bd
00000050: 97f3 16bb 6c1a 1ebd b5af a23e 7b6b 713e
00000060: 8caa 28be db2e b13e bacc c0be 4cc9 31bd
00000070: da49 4f3e d42e 78be 2b8e f23d 71ed cbbd
00000080: ca5a b2be e8c4 6dbd be77 33be 0dd5 603e
00000090: 5638 94bc 128b 0bbe d4c1 0fbd 22e7 a3be
000000a0: 360a 0a3e b08d 6bbe 7c6d 3ebe 17d4 8cbe
000000b0: 6550 683e 55f6 3a3e da46 70be a8b0 34be
000000c0: d86d 873e 453a 76be 3c50 9e3d 23b3 e03d
000000d0: cc69 103e e44d c8bc d479 0cbe 9eb0 a13e
000000e0: ea93 113e 4bcd 863e 21df f53d dddd 5a3c
000000f0: 9b94 b93d 3af6 bcbd 4a5a 603e 3e93 db3d
00000100: 29d7 a4be 0dcd 6d3e 60e7 373d ea73 a23e
00000110: 8ff4 44be c751 13be 9fbb 6e3e dd21 8abe
00000120: 9182 213d f8e0 2fbe 0381 fabd 86ea 7a3d
00000130: 7600 43be 8890 16bd 7fb9 95be 656b adbe
00000140: f374 a93e 65b0 293e f1f0 8f3e c078 703e
00000150: 2c77 c03d d2f6 4abe 9ff4 19be 32d5 68be
00000160: e44b 0b3e db66 91be 5609 9e3e de52 823e
00000170: 785c 69be 2a9e 8a3d 049e 51be 1b14 9e3d
00000180: 2760 9d3b 2ce3 95be 1075 d13d 20f5 a2be
00000190: 6182 97be ddd5 9ebe 4580 ad3d 6345 6c3e
000001a0: b01a 21bd b990 aa3e 6e00 5b3e 586e aabe
000001b0: edfa cbbc 8678 9fbe cbb2 e6bd 6fba 26bd
000001c0: 11cd 27be 6772 1dbe 6166 8f3e b1dd ad3e
000001d0: 173a 12bd 2b7c 40be 0874 a03e 336a 49be
000001e0: 2674 973e e0d2 273c a87b f7bd 8461 a33e
000001f0: 7076 1ebe 9d41 4fbe a5db febb 1eee bd3e
00000200: 0e81 953e 04a8 8bbe 07b2 20be a0fc 3cbe
00000210: 64b8 b4be 9d5e 253e 1db3 563e 2b02 c53d
00000220: b3b4 2d3e 76ea a1be 4b08 95be b3c9 0c3e
00000230: a984 2dbe 4ff3 65be 837d b1be 48b9 0bbd
00000240: bc0c b2be 3a07 843e 5bc6 953e 7afc 523d
00000250: 14f8 b23e 67cb 303e 9db7 443c 411f ee3d
00000260: 4508 bc3d 9205 94be d146 c23c c762 6e3d
00000270: f563 8ebe e466 d93c d142 22bd 8b33 8ebd
00000280: f3e2 e13d 7c1f 98be 627e c33e d4d8 603d
00000290: 40fd 12be 2ebe 853e d6bf 98be 4409 8b3e
000002a0: b4a1 9fbd 18c0 4b3d 0819 b9bc 5440 e1bd
000002b0: 112f 613e 5854 603d c0a5 8f3e 1ce3 88be
000002c0: 83b0 c8bd 5e7a aa3d 8aba 68be 2202 94bd
000002d0: e0cf 3f3e d0ed 373d 1cfc 02be c938 91bc
000002e0: 733a b43d ae0c 6abe eec7 ddbc f863 a3be
000002f0: 974e b63d 292b 69be 071b 62bd d5f6 be3d
00000300: cdb7 5f3e 0e17 773e ffcb 4a3d 05c8 7e3d
00000310: 8dba 55bc 82d4 fabd 7459 44bc c219 4cbe
00000320: 0328 93be 0a23 f3bd 371e 8f3d b599 e8bc
00000330: 2b7c fd3d c01c 84be d95c 053e 3e0e b93e
00000340: 9ae4 333e b3ba 9fbd 5253 7abe 7ed1 9bbe
00000350: 82a1 443e e5aa 9d3e a2c5 b4bd 527d d3bb
00000360: 90b1 70be 7ff7 953e baec a3be ad12 8fbb
00000370: 3cd3 02be 08e3 333e 8e04 873d b906 0b3e
00000380: 64cb 1f3e 203c 42be 834c 933e 360c 9c3e
00000390: 157b d0bc b53c 8c3e 21f9 0bbe 8993 6d3e
000003a0: 2607 81be 7191 6f3e 7cf2 5dbc e583 c0ba
000003b0: d285 313e 1011 ecbd 79e5 a8be a382 303d
000003c0: 426f 9dbc b686 8cbe cd9b 1fbd dba4 4d3e
000003d0: 4633 b0be 5bf9 a53e 8008 b13b 3f79 9a3e
000003e0: 069e 413e f7c7 99be b72e f63d b931 11be
000003f0: d59a 84be 1dcf a33e 1ae7 843e 7d24 e6bd
-0.23128492 0.14376606 -0.30454352 0.26472574 -0.031717516 -0.033063713 0.111243404 0.31291553
-0.12198616 0.08599331 0.2152641 -0.18909328 -0.080713816 0.32745743 -0.09835556 -0.31851396
0.35400033 0.030904997 -0.21416335 -0.10594901 -0.0023033374 -0.038599417 0.3177468 0.23576157
-0.16471308 0.3460606 -0.37656194 -0.043404862 0.20243016 -0.24236614 0.11843523 -0.09957398
-0.34834892 -0.058049113 -0.17526147 0.21956272 -0.01809327 -0.1362727 -0.03509696 -0.32012278
0.13480458 -0.23003268 -0.18596452 -0.27505562 0.22686918 0.1825803 -0.23464528 -0.17645514
0.26450992 -0.24045666 0.07730147 0.109716676 0.14102858 -0.024451204 -0.13718349 0.3158006
0.14216581 0.263285 0.12005449 0.01335856 0.09061547 -0.092266515 0.21909443 0.107214436
-0.32195404 0.23222752 0.04489839 0.3172906 -0.19233917 -0.14386664 0.2331376 -0.2697896
0.03943116 -0.17175663 -0.12231638 0.061258815 -0.19043145 -0.03675893 -0.29243085 -0.33870998
0.33097038 0.16571195 0.2811351 0.23483562 0.0939773 -0.19820717 -0.15034722 -0.22737578
0.13603169 -0.28398785 0.30866498 0.25453848 -0.2278918 0.06768449 -0.20470434 0.077186786
0.004802722 -0.2927488 0.10227406 -0.3182764 -0.2959166 -0.3102254 0.08471731 0.23073344
-0.03933209 0.3331354 0.21386883 -0.3328731 -0.024899924 -0.3114664 -0.11264571 -0.04070514
-0.1638682 -0.15375672 0.28007796 0.339582 -0.03569993 -0.18797366 0.31338525 -0.19669418
0.29580802 0.010243148 -0.120841324 0.31910336 -0.15474868 -0.20239873 -0.0077776485 0.37095731
0.29200023 -0.27276623 -0.15692912 -0.18455744 -0.3529693 0.16149373 0.20966764 0.09619554
0.16963463 -0.31624192 -0.2910789 0.13748817 -0.16945137 -0.22456096 -0.3466607 -0.034112245
-0.3477534 0.25786763 0.29252896 0.05151031 0.34954894 0.17265092 0.012006667 0.11627055
0.09181265 -0.289105 0.023715409 0.05819967 -0.27810636 0.02653832 -0.039614502 -0.06943425
0.11029615 -0.2971152 0.3818236 0.054894283 -0.1435442 0.26121658 -0.2983386 0.27155507
-0.07794514 0.04974374 -0.022594944 -0.10998598 0.2199061 0.054767936 0.28056145 -0.2673577
-0.09799292 0.08324121 -0.22727409 -0.07226969 0.18731642 0.04490453 -0.12791485 -0.017727273
0.08800211 -0.228564 -0.027072873 -0.31912208 0.089017086 -0.2277037 -0.055201557 0.09324423
0.21847458 0.24129888 0.049510952 0.062202472 -0.013044965 -0.12247564 -0.011984218 -0.19931701
-0.28741464 -0.118719175 0.06988185 -0.028393606 0.12377199 -0.25803185 0.130237 0.36143678
0.17567673 -0.07799282 -0.24445847 -0.30433267 0.19202235 0.30794445 -0.08826758 -0.0064541483
-0.23505235 0.29290387 -0.32016546 -0.00436624 -0.12775892 0.17567074 0.065926656 0.13576783
0.15604931 -0.18968248 0.2876931 0.30478066 -0.025449315 0.27390066 -0.13669254 0.23200811
-0.25200766 0.23395325 -0.013546582 -0.0014687745 0.17336205 -0.11526692 -0.32987574 0.043093335
-0.01921809 -0.27446526 -0.038966943 0.20082419 -0.3441412 0.32416806 0.0054026246 0.30170628
0.18907937 -0.30035374 0.12020629 -0.14179124 -0.25899377 0.31993952 0.25957566 -0.11237428

animal_embed.bias f4 [64]
00000000: 1955 9dbd 72e9 993e b419 29bb 25ff 1dbe
00000010: 88a7 88be d54c 8b3d 6619 243e abdd 543e
00000020: ea17 3ebc 4e83 8a3d 37a7 0b3e b7d7 6bbe
00000030: 5186 593e 461a ebbc 3aac 78be 6c0f 9f3d
00000040: 8a12 5e3e 681d bcbe 3f59 233e b4b2 babe
00000050: 1baf f4bd 2165 53be 57e4 6b3e 2213 29be
00000060: 6002 c4be d0ac 15bb 2ec9 a63e ff68 6ebe
00000070: 51c5 87be 10dd 46be abc9 d5bb bf56 08be
00000080: d032 893e d487 29be 5b7c 38be bf6e 953d
00000090: 2b62 9cbe d96d a63e 3588 a2be 1542 38bd
000000a0: bf17 5abe 6067 36be 37c2 393e 5b0e 843e
000000b0: 1933 53be da67 55be 9e4f 62be de8a c0be
000000c0: 7479 513c 9d34 b0be c5f2 09be 6ff6 20be
000000d0: d35d 5fbe 4b57 95be d321 8abe eace 863d
000000e0: 7194 b53c 5ea7 0fbe 2225 9c3e 5f0e 3b3e
000000f0: b1e8 8c3e a847 143e c5ee 763e 6f69 f9bc
-0.07682247 0.30060917 -0.0025802674 -0.15429361 -0.26690316 0.06801764 0.16025314 0.20787685
-0.011602381 0.06763326 0.13638006 -0.23031507 0.21242644 -0.028699052 -0.24284449 0.07766613
0.2168676 -0.36741185 0.15952013 -0.36464465 -0.11947461 -0.20644046 0.23036323 -0.16511205
-0.38283062 -0.00228386 0.32575363 -0.2328224 -0.26517728 -0.19420266 -0.006524285 -0.13314341
0.2679658 -0.1655572 -0.18016188 0.07296514 -0.30543646 0.32505682 -0.31744543 -0.044984896
-0.21298121 -0.17812872 0.18140493 0.25792202 -0.20624961 -0.20840397 -0.22100684 -0.37605947
0.012785304 -0.3441514 -0.13471515 -0.15719007 -0.21813135 -0.29168162 -0.2697893 0.065824345
0.022165509 -0.1402869 0.3049708 0.18267201 0.2752128 0.1448046 0.24114521 -0.030445782

animal_transform1.weight f4 [64, 64]
00000000: b421 17bd 2da2 fe3d e03a 023e 7e49 dc3d
00000010: 3a16 49bd 580d 95bd 13f6 89bc 12bb ee3d
00000020: 9adc 333d 2a67 90bd f2eb de3d bf71 653d
00000030: 7b4b ef3d 7cf0 d23d a94c a63d c59e 86bd
00000040: d160 1f3e d031 83bd 0bc6 743d 74fb bebd
00000050: 21d9 283d 2db8 07be 2991 1fbd 3822 05bd
00000060: c46f 06bd 70c5 c93d 74d3 bc3d 74fa cdbd
00000070: 5980 07bd edc4 733d 1236 cfbc 2b58 7f3d
00000080: d4a8 73bd 4abf 9b3d f9d1 e0bc fdd0 0d3d
00000090: 8189 49bd e973 d33d a0bf 90bd 335e 01bd
000000a0: 8d0b 81bb b356 ddbd 218f 4e3e a28b 273d
000000b0: 0f86 22be 454a 16bd 4a42 1d3d ece1 81bd
000000c0: 39d3 fe3d 9ab0 233d baaf f53c 3119 183a
000000d0: b05f d4bd 6ff3 08be df27 833d 0e5d c5bd
000000e0: d27c 6cbd d45e 273d 0e88 d2bc c104 ce3d
000000f0: 3a0a c53c 969e 233e c094 0a3d e299 f8bd
00000100: cf1f 5abd 4e1e 203d 6c9c 20bd 929a a13c
00000110: 3ce2 223d 2db7 6bbd 7323 aa3d 2fde cdbd
00000120: 94b4 e03d 4448 f7bc 2771 bbbc 640c ad3d
00000130: 6e9f dd3d 57c8 86bd 4dc7 fb3c 04d1 b73c
00000140: ee3b 013d e0d7 e03c d60c e3bd b018 093d
00000150: 2a97 0abd 9669 043d 89a0 5b3d 4dd7 0c3d
00000160: 372d ccbd 1eca 863d 9384 97bd 4e51 81bd
00000170: f452 39bd 2695 a1bd d3ed b7bd f6f2 af3d
00000180: 5079 e7bd 29ba d0bd 1e9a e03d 2708 f33b
00000190: 9ab8 a9bd 3b41 c1bc a2fd d9bc 49fd bc3d
000001a0: 5688 df3d b010 0cbc b4f4 013e c0f3 d4ba
000001b0: 2f2d 22bc ae3a bd3d 2f66 843d 5efc a63d
000001c0: 9d29 a4bd d83d 46bd a9e2 c73d a40a cdbd
000001d0: d4c1 d83d b7ff afbd c8c0 833b 2d2c 233d
000001e0: c927 bdbc ce0b 3c3b 33df dfbd deeb 07bd
000001f0: 94b8 a93d 89bc 7abd c3bc 753c d9ef e2bd
00000200: 138b 0e3d b9ea f9bd d3c2 46bd b8c9 b6bc
00000210: 6dc4 8f3d bb22 8fbd d38c 743d 7e64 bdbc
00000220: 7b13 ac3d 4f5b 843d 527b dabd 527c a93d
00000230: 512c c63c 859d 953d 7160 da3c 57db ca3d
00000240: 67f2 083d a4a4 c43c 3dfc a63c badb 0d3d
00000250: 3058 be3d c5b0 bb3d f667 babd 461b b7bd
00000260: 80cd 053e 7bb8 873d b131 b03d 6083 d83c
00000270: 88ff b13d 6806 babd 77b6 e93d c6da 043e
00000280: 3dae d93d 9ffd 96bd 5054 4bbd 9249 08be
00000290: 10e2 4cbd c41b 633d bf62 b4bd a221 6a3d
000002a0: 776c f2bc 1b56 95bd c11c f6bd c52c 33bd
000002b0: 68a7 9ebd 2d43 2a3d 3069 11bd a712 0abd
000002c0: 5ce0 4f3d 3f60 dd3d 2d54 9a3d 2a1e 77bc
000002d0: 2a51 053e 8cc5 97bd 7f23 aebc eb43 9ebd
000002e0: 48c1 28bc c854 af3d 2d38 90bd fd4f 15be
000002f0: e335 1e3d 5ff2 1c3c fe10 ebbc 3932 f0bc
00000300: f4e2 dc3d 39d0 b43d 8d47 aa3c 6e37 ecbb
00000310: a2ec dc3d 96ea 5b3d 07bc 01be b94d bf3d
00000320: 7efd 53bd 3963 1a3e f7ae 4d3c 6c8e 2d3d
00000330: 77e5 eb3d 63c6 dc3c 6c0c ee3d 41dd 853d
00000340: b4fd 1e3d 83c4 96bc 4143 223c 1c40 243d
00000350: e021 133c 67ec 2bbc 2fd6 e5bc 012b 9bbd
00000360: 5b8a 043e 91d9 a53d fb68 b5bd dd01 d23d
00000370: 0131 193d 4184 d73d f3e6 b6bd e9de 95bd
00000380: 5bd8 623d 6c5a 15bd 9308 13bd 1901 2e3c
00000390: 24a6 5bbd de9c e2bd fb8e 71bd fbb2 013e
000003a0: 3c00 fc3c 0a72 acbd 5313 a23d 4d7b c33d
000003b0: 0a88 953d a63c 043e 6d4d e03d dedf 95bd
000003c0: 855e 623c 038d b73b c178 413d 7fbe 30bd
000003d0: c132 9fbd 97e6 ff3d e1e1 22bc f5f9 17bc
000003e0: 49bb 67bc 33d8 593d 4042 a23c 8deb 08be
000003f0: ddbb 913d d903 903d b325 833c 9292 52bd
-0.036897376 0.12433276 0.12717772 0.10756205 -0.049093463 -0.07277936 -0.01684097 0.116567746
0.043911554 -0.07050927 0.10884847 0.05601668 0.11684319 0.10299775 0.081200905 -0.06573252
0.15564276 -0.06405985 0.05975918 -0.093253046 0.041222695 -0.13253851 -0.038956795 -0.032503337
-0.03282143 0.09852111 0.09220019 -0.10057536 -0.033081386 0.059513975 -0.025294337 0.062339943
-0.05948718 0.07604845 -0.027443873 0.034623135 -0.0492034 0.103248425 -0.070677996 -0.031583976
-0.0039381445 -0.10807552 0.20171787 0.04090465 -0.15871452 -0.036691923 0.038393296 -0.06341919
0.12442631 0.039963342 0.02999102 0.00058020937 -0.103698134 -0.13374113 0.06404089 -0.096368894
-0.057736225 0.04086192 -0.025699642 0.100595005 0.024052728 0.15978464 0.033833265 -0.12138726
-0.05325299 0.0390914 -0.039211676 0.019727025 0.039766535 -0.057547737 0.08307543 -0.10052144
0.109719425 -0.030185826 -0.022881104 0.08449629 0.108214244 -0.065811805 0.030734682 0.022438534
0.031551294 0.027446687 -0.11086433 0.03347081 -0.033835568 0.032327257 0.053619895 0.034385014
-0.099695615 0.065815195 -0.073983334 -0.06314336 -0.045245126 -0.07889776 -0.08980908 0.08591263
-0.113024354 -0.10191757 0.109668955 0.0074167433 -0.08287163 -0.023590675 -0.0266102 0.09227998
0.10914676 -0.0085489005 0.12691003 -0.001624696 -0.009898468 0.09239708 0.064648025 0.08153604
-0.080157496 -0.048398823 0.09760029 -0.10011795 0.10583845 -0.085936956 0.004020784 0.03983705
-0.02309026 0.002869356 -0.10931244 -0.033183925 0.082871586 -0.061214957 0.014998618 -0.110809036
0.0348006 -0.12202973 -0.048525643 -0.022312984 0.07019887 -0.06989046 0.059704613 -0.023119207
0.08402153 0.06462728 -0.10668053 0.08275665 0.024191054 0.07305435 0.026657315 0.09905117
0.033434298 0.024004288 0.020383948 0.034633376 0.09294164 0.091645755 -0.0910186 -0.08940749
0.13066673 0.06626984 0.08603228 0.026429832 0.08691317 -0.09083253 0.114117555 0.1297408
0.106289364 -0.07372593 -0.049640954 -0.13309315 -0.050020278 0.0554464 -0.08807897 0.05716098
-0.029592736 -0.07291814 -0.12017203 -0.043743867 -0.07746774 0.04156797 -0.035500705 -0.033709195
0.050751075 0.10809373 0.075355865 -0.015082875 0.13019243 -0.07410726 -0.02125716 -0.07727798
-0.010299988 0.085610926 -0.07041965 -0.14581294 0.03862561 0.00957927 -0.028694626 -0.029320823
0.107854754 0.08828778 0.020786071 -0.007208756 0.107873216 0.053690515 -0.12669383 0.09340996
-0.05175542 0.15076913 0.012553922 0.042372152 0.11518376 0.026950067 0.11623463 0.065363415
0.03881617 -0.018404251 0.00990373 0.040100202 0.008980244 -0.010493374 -0.028056232 -0.07576562
0.12943403 0.08098138 -0.08857914 0.10254262 0.03740025 0.10523272 -0.08930769 -0.07317907
0.055382114 -0.036463186 -0.03589685 0.010620379 -0.05362524 -0.11065076 -0.058974247 0.12665932
0.03076183 -0.08420189 0.07913842 0.09545002 0.07301338 0.1291376 0.10952268 -0.0731809
0.0138164805 0.0056015267 0.0472343 -0.04315042 -0.077733524 0.124951534 -0.009941549 -0.009275903
-0.014143773 0.0531847 0.019806981 -0.13371105 0.0711591 0.07031984 0.016009187 -0.05140931

animal_transform1.bias f4 [64]
00000000: 0418 053e ade1 64bd ef42 b9bb 6745 a1bd
00000010: 3b66 7cbd eacd 083e d11f 44bd 73d3 61bd
00000020: ca96 bf3d dc9f 99bd dbe1 f13d c5a7 cb3d
00000030: ad3f febc 3ee5 933c 0ddb b6bc 88d6 9dbd
00000040: aba0 12bd 82a0 82bd 1bed 8fbd 4afb 993b
00000050: 5afd 6f3d 74a0 afbd 1a25 d63d e2f4 b9bd
00000060: 73b6 f8bd 3180 013e e455 f3bc ab9e 763c
00000070: e94d c13d db1f 7abd 3adf ab3d c551 7abd
00000080: 52cb afbd cdc5 bcbd 5b8b a03d 3878 03bd
00000090: 64bb c13d d81d 833c 1f58 00bd 1fc1 ad3d
000000a0: 3ae1 40bc b345 223d 3908 263e 8a4d f63d
000000b0: 478f 5dbd 4b70 57bd da58 0c3e cc51 173e
000000c0: 5900 a13d e350 0abe 3e15 4b3c b3af cd3d
000000d0: ee7b c63d c5b5 153e a3cd 12bd b808 a13d
000000e0: 732f 563d 2e7e c0bd b6b0 5fbd a631 ccbd
000000f0: 66ec 333d 9077 273d 04c7 ee3d 1b5d acbc
0.12997442 -0.055879284 -0.005653731 -0.078745656 -0.061620932 0.133598 -0.047881905 -0.055133294
0.093549326 -0.07501194 0.11810657 0.09944109 -0.031036222 0.018053647 -0.022321248 -0.07706934
-0.035797756 -0.06378271 -0.07027646 0.0046991454 0.058591224 -0.08575526 0.10456295 -0.09079911
-0.121441744 0.12646557 -0.029704042 0.015052478 0.09438688 -0.061065536 0.083921865 -0.061113138
-0.08583702 -0.09217415 0.0783908 -0.03209707 0.0945957 0.016005442 -0.03133404 0.084841006
-0.011772448 0.03961725 0.16214074 0.12026508 -0.054091718 -0.052597325 0.13705769 0.14777297
0.078613944 -0.13507418 0.012395201 0.100432776 0.096916065 0.14620121 -0.03584064 0.07862991
0.052291345 -0.09399067 -0.054611884 -0.09970407 0.04392662 0.040885508 0.11659053 -0.02104049

animal_transform2.weight f4 [64, 64]
00000000: eecf c13c a0e9 c7bd a11d 673d 217e c3bd
00000010: 7d05 c9bd d2f9 3e3d e861 b63d 6884 433d
00000020: 8c69 2e3d c034 e93d be0c 76bd cda4 a9bc
00000030: 1f83 a2bc 9fea b83c cfbb b5ba f7d7 06bd
00000040: bb8f 933c d894 e43d 039a 9dbd 65c3 efbb
00000050: 1ac7 d0bd 00ac dbbd 015d 223c 3798 f6bc
00000060: 5e72 003e 1db4 a43d d16e 8c3c 727d 04bd
00000070: 3964 3abc 3c85 81bc f3d7 4ebb 5fc8 eb3d
00000080: 343d 3ebd 139e b43d 49b6 d93d fedc a53d
00000090: 1507 dbbc a46e fb3d fae7 abbd cf71 083e
000000a0: 6af5 84bc dd6e 783d ac66 0abd bcf5 02bb
000000b0: 38cd 703d 8f97 efbd 8a7a babc 07ef 183e
000000c0: 414a 62bd bff2 ad3d ddc7 ac3d cd3a c0bc
000000d0: 57dc 5c3b 2ec4 e53d 545e ec3d ad8c 623c
000000e0: c878 66bd d9f9 4cbb b578 143d 0298 e13d
000000f0: dd81 1dbd ab8b 1cbd d197 a53d 410c f23d
00000100: 2bfc d5bd 624c 70bd b096 673d 1eea 933d
00000110: f593 d5bd 395c 4bbd 2589 873d 8a84 b1bd
00000120: 97bb 0bbd 95b5 bc3d 4739 dbbd 87fd 44bd
00000130: 290f e03d 58d7 e6bd f713 efbd 7763 9d3d
00000140: f714 e8bd ec82 d93d 6483 46bc 16d3 c13d
00000150: 286b bf3d 935e 003d d36b 36bd 9ae6 6cbd
00000160: 0285 813d d949 8abd c9c5 afbd 0291 883d
00000170: 1acc 563d d257 00be 00ff 683d cf62 453d
00000180: f66f ecbd 7e54 343d 4339 31bd 8e53 8c3d
00000190: a9ff 7abd 6677 eb3d 3bcb 80bd ec6a a8bd
000001a0: a23c e2bc f280 b03d 9f70 a4bd 2e27 02bd
000001b0: 2f7f b9bc b91a b33d 0d79 363d 0f29 883c
000001c0: 1e28 94bd 640d 90bd 4ea4 93bd ce4c 01bd
000001d0: e927 0ebd 25fa 803c d3ee 2dbd ccc9 97bd
000001e0: af09 b4bd 34ed f3bd 88cb 55bc 0c7c 70bd
000001f0: f91a ca3d c8a1 b2bd 7c8b 773c e003 16be
00000200: 9029 0dbe 8157 c8bd ece3 b7bd 820b 443c
00000210: 53b4 0abe 2380 183d f1fb d1bd 4d6c aebd
00000220: fd0c 033d cdb3 d5bd 11bf 9fbd 10f2 a23d
00000230: 796e b73d 26c2 48bd 1c80 ee3c a17c 27bd
00000240: 7522 a0bd a0cb 043c 8c26 333d c81e 773d
00000250: 3efb 1dbd abaf 4b3c bd5a 2b3d 0cef 5bbd
00000260: 0a84 f9bd 9964 c1bd 6540 803c 5a3a 94bd
00000270: fa3a b9bd 01f3 b5bc 24b3 80bd f863 3b3d
00000280: 68a8 053d 9cb0 e2bd 1b34 ebbd 6a97 c5bd
00000290: 1bc4 3dbd 60ff d1bd d3df e3bd f77a fa3c
000002a0: 595c d2bd c3d9 193d 9854 723d 8db7 3c3b
000002b0: eab2 75bd 0d0d e43d 74ee 1bbd 06ea d2bd
000002c0: 3979 c7bb 36c8 853d 740f c7bd a4d7 10bd
000002d0: a567 f0bd b0be 89bd 1553 0b3d ea75 9b3c
000002e0: 9941 c4bd 4a52 d43c d711 89bd fce6 8abd
000002f0: 8271 a6bd fe46 f5bc a552 a5bd 02c2 15be
00000300: bf80 123e 0682 13bd 6329 023e b3b8 12bd
00000310: d5b9 5fbd d378 05bd 4654 fabc cb9d 413d
00000320: b0ee 893c 5ce1 04bc f240 7abd 5355 bebc
00000330: b7ba 08bd 2c9a b43d 6caf 1d3d 8aeb ca3d
00000340: b5cd ad3d a86b d7bc 232e 1e3d 356a 0f3d
00000350: 0c15 8cbd 8792 3d3d 32cb 7f3d 2297 923d
00000360: 9dfb e4bd 1d75 823c fea6 3d3d f03e 133e
00000370: d7f7 ae3d ae24 b73d 3117 41bc 7d3f 853d
00000380: 966e ca3d b883 a4bd ffb5 973d a8bd 763d
00000390: 47e3 eb3c 9821 2fbd ec78 46bd e7f6 b93d
000003a0: 4f14 f13d 8d33 953c bbbb d83d 91b4 d53c
000003b0: 6fae 96bc b1df 5cbd 19de f13d ca18 fe3c
000003c0: c311 4c3c 1fb7 ce3c 5358 4fbd fe9b 8fbd
000003d0: d8ad 873d 0c8d e83c 375a bc3c bda8 ce3d
000003e0: 8b9f cd3c e5b2 0e3d 4068 ad3d 84cb 17bd
000003f0: ae37 723d d989 083e acf9 ec3d 3cf7 d33c
0.023658719 -0.09761357 0.05642474 -0.095455416 -0.098155 0.046624966 0.08905393 0.047733694
0.042581126 0.113870144 -0.060070746 -0.020708466 -0.019837914 0.022572814 -0.0013865175 -0.032920804
0.018012872 0.11161202 -0.07695391 -0.007316994 -0.101942256 -0.10726166 0.009909869 -0.030101879
0.12543628 0.080421664 0.017142685 -0.032346196 -0.011376434 -0.015810601 -0.0031561821 0.11512827
-0.046445087 0.08819213 0.10630471 0.080987915 -0.026736775 0.122769624 -0.083938554 0.13324665
-0.016230304 0.060652602 -0.03378932 -0.0019982895 0.05878946 -0.116988294 -0.02276351 0.14934932
-0.055246595 0.08493566 0.084365584 -0.023465538 0.0033700669 0.11219059 0.11541429 0.013827485
-0.05626753 -0.003127685 0.036247928 0.11015321 -0.038453925 -0.038219135 0.08085597 0.118187435
-0.10448488 -0.058666594 0.05654019 0.07222389 -0.10428611 -0.049648497 0.06617955 -0.08667858
-0.034114446 0.092143215 -0.10704284 -0.048093345 0.109403916 -0.11271542 -0.1167373 0.07684987
-0.11332124 0.106206745 -0.012116287 0.094640896 0.0934661 0.031340193 -0.044536423 -0.057837106
0.06324197 -0.067523666 -0.085826464 0.06668283 0.05244074 -0.12533501 0.056883812 0.048189934
-0.11544792 0.04402589 -0.0432675 0.06851874 -0.061278973 0.11497383 -0.06288763 -0.08223519
-0.027616803 0.08618344 -0.08029293 -0.031775646 -0.022643654 0.08745331 0.044549037 0.01662114
-0.07234214 -0.07033804 -0.07209073 -0.031567387 -0.03470603 0.015744278 -0.04246409 -0.074115366
-0.087909095 -0.11910477 -0.013049014 -0.05871205 0.09868426 -0.087222636 0.015108939 -0.14649916
-0.13785386 -0.09782315 -0.089790195 0.011965634 -0.1354535 0.037231576 -0.10253132 -0.085167505
0.03199481 -0.10434685 -0.07800115 0.07956326 0.08956618 -0.04901328 0.029113822 -0.04089034
-0.07819072 0.008105189 0.043737933 0.06033209 -0.03856968 0.012432019 0.04183458 -0.05369477
-0.121833876 -0.094430156 0.015655706 -0.07237692 -0.09044452 -0.0222106 -0.06284168 0.045749635
0.032631308 -0.11068842 -0.11484548 -0.096480206 -0.0463296 -0.10253787 -0.111266755 0.030576212
-0.1027152 0.03756119 0.059162706 0.0028795928 -0.05998508 0.11135302 -0.038069203 -0.10298543
-0.006087449 0.06532328 -0.09719744 -0.0353619 -0.117385186 -0.06725824 0.03401478 0.018977124
-0.09582824 0.025918145 -0.06692856 -0.06782338 -0.08127119 -0.029941078 -0.08072404 -0.1462479
0.14306925 -0.036012672 0.127111 -0.035820674 -0.054620583 -0.03258593 -0.030557763 0.047269624
0.016837448 -0.0081103705 -0.061097093 -0.023234045 -0.03338119 0.088184685 0.038497373 0.09908207
0.08486501 -0.026296452 0.03861822 0.035013396 -0.06839952 0.046282317 0.06244964 0.071577325
-0.11180804 0.015924985 0.046301834 0.14379478 0.085433654 0.08942543 -0.011785314 0.0650625
0.09884374 -0.08032936 0.0740776 0.060239464 0.028794898 -0.042756647 -0.048455164 0.09080296
0.11771452 0.018213058 0.10582682 0.026087077 -0.018393723 -0.053924266 0.1180994 0.03101768
0.012455407 0.025233803 -0.050621342 -0.07012175 0.06624955 0.028387569 0.022992237 0.10090778
0.02510049 0.034838576 0.0846715 -0.037059322 0.05913513 0.13333835 0.11571059 0.025874726

animal_transform2.bias f4 [64]
00000000: c264 3b3d af1c 23be d509 bd3b 2be2 c2bc
00000010: 72b5 ccbd 288a c23d b2d9 16bd 7474 d03d
00000020: 73e0 ff3d fcf1 8ebd bc88 2f3d 306a a9bd
00000030: 2946 863d 993c 9fba bd8e 013e 3e66 d3bd
00000040: 3147 6b3d 993c d1bb 1e04 a83d 3206 83bc
00000050: a0be cb3d ca76 b1bd 9395 c9bd 0e1a 613d
00000060: 27bd a03d cf51 a33c e104 05be a583 41bd
00000070: a7b2 bb3d b0de 59bd ee21 54bb 4bce ef3d
00000080: 7d9f 273e 5c0c 9a3d 31d1 0dbe 300a a43d
00000090: 41af 8fbd 0dad a73d 9f43 9ebd fa24 eebd
000000a0: 682b 1c3d ad2c 8cbd bf66 c63d 72f2 c63d
000000b0: ff6a 863c 5801 8fbd f408 de3c 1389 3c3d
000000c0: 1e58 193e a7da c33d 4971 dbbd 047d 713c
000000d0: 1f7e 9bbd edac c63b 0dc4 3c3d 3aec 0bbe
000000e0: 6edc b23d 3de0 0bbe 8ce9 403d 449e 82bc
000000f0: 3847 933d 2d5a 2a3e 1852 0f3d e534 d3bd
0.045750387 -0.1592891 0.0057689943 -0.023789486 -0.099955454 0.094990075 -0.036828704 0.10178462
0.12493982 -0.069797486 0.04285501 -0.08272207 0.06556351 -0.0012148797 0.12652107 -0.103222355
0.05744094 -0.0063853976 0.0820391 -0.015994165 0.09948468 -0.08665235 -0.09842982 0.05495649
0.07848578 0.01993647 -0.12990142 -0.047244687 0.091649346 -0.053190887 -0.0032368856 0.11709269
0.16369434 0.075218886 -0.13849331 0.080097556 -0.07015849 0.08187304 -0.077277415 -0.116281465
0.038127333 -0.06844459 0.09687566 0.097142115 0.016408442 -0.06982678 0.027103879 0.04602916
0.1497502 0.09563189 -0.10714967 0.014739279 -0.07592415 0.006063095 0.046085406 -0.13664332
0.0873345 -0.13659759 0.047097728 -0.015944608 0.07191318 0.16635962 0.0349904 -0.10312823

attention.query.weight f4 [64, 64]
00000000: 155c e53d 45ec 45bd f682 a1bb 65f0 85bd
00000010: ed51 c93d d9be dc3d a5a8 003e bf11 93bd
00000020: 05d3 17bd 768f 923c 0fc3 49bc 33c4 8ebc
00000030: 01b1 acbb 3605 79bc c690 a1bd 9dec b1bd
00000040: 0aee 7ebd 130e 89bd 17b6 9cbd 74d5 943d
00000050: a2ea 87bd b362 b1bd 1886 d43d bdd6 d4bd
00000060: 28fa 1fbd 9e3b eb3d 7639 333c cfa9 823c
00000070: c208 8bbd 3f78 063d a27f 6dbd ace8 a5bd
00000080: e14c 173a fee5 063e d933 b9bd 7e29 b4bd
00000090: 17bd 183d 7ede 30bd 92a7 753d f93d 1b3d
000000a0: 23aa f43c 96aa 0f3d 5fab acbd 7eaa 123d
000000b0: 9b30 c3bd f187 c63d bbb9 c43d 5119 f43c
000000c0: fdf4 4ebd 7a39 a3bd 4629 a4bd 120a 70bd
000000d0: 7fc7 06be ad70 a33c 7661 c6bd adda a93d
000000e0: d8ee c7bd 960c 573c 24ef ea3d 59cd 7f3c
000000f0: c67e a8bd 8f89 8d3d 2f6f a6bd 0262 e13c
00000100: b844 383b 8dd8 3dbd aa02 903d e77c 5f3d
00000110: 9290 ea3c 5f07 1bbe 192f a0bd 561f 0dbe
00000120: 389e 96bc acaf 323d 5f75 603d a640 e7bd
00000130: f81a febd 9c7c 96bb ac83 083c a2d3 113c
00000140: d62b 0bbd cb4f 003d 9f03 023d 4856 07bd
00000150: 5c14 c0bd cc56 c1bc 0c31 bd3d 022f a63d
00000160: a52c 05be beb5 8b3d 5f62 31bc 006e 0e3c
00000170: e468 bd3d 2e73 2ebb b976 853d e474 10bc
00000180: 891d a33d 5dae 3a3b c4c9 c83d ad85 bcbd
00000190: f4de 183d ff05 72bd bf42 cb3d 7316 fa3d
000001a0: ce34 a3bd 856e b93c 9bfc 8fbd 0f1e 9bbd
000001b0: 44da d53d a237 923b 204f 4bbd 9c43 c2bd
000001c0: 53d5 0fbd ac29 bdbd f9cf 0e3e 2c4b 073e
000001d0: 459d df3d 3957 043e 1ba8 5f3d 31cc e23d
000001e0: 6771 033c c900 403d 3805 2aba f8ad 013e
000001f0: b974 043e d3ac 743d 118f 8d3d d0dc af3d
00000200: db3b 77bc e856 8c3d 9c81 573b 10d6 ccbd
00000210: 93c8 7fbd 38d1 883d 2dc2 82bc 4e67 98bd
00000220: 476b e13d 5b2a edbd 2042 113e 0756 cf3d
00000230: bf66 3ebd 6dd1 8a3c c0b2 16bb 11da e53b
00000240: c5aa 863d 62e9 68bc 9971 db3d 0349 4ebd
00000250: c8e1 d5bc 1313 da3d f252 c4bd 17db 11bd
00000260: 9294 9a3d c277 c73d 535a f0bd 8b56 6b3d
00000270: 1b9d 8f3d 6730 0abe 9b91 9c3d eaaf b53d
00000280: 4c75 35bc 2750 133d d826 883d cd5b e53b
00000290: 3bb8 953d 29a2 b8bd 5225 b3bd 0dd6 673b
000002a0: df78 333d 54b4 afbd 4f65 fdbc 9c14 11bd
000002b0: 3f78 fdbd ea56 d43c 0e6f efbd ee48 c53d
000002c0: 4a4d a1bd 3aa2 00bd 8c6b 4dbc 103b 823c
000002d0: 6143 dbbd 8b7d bbbd 3190 773d 4fea 01be
000002e0: 45ea 363c 1316 4cbd 0a0c f93d 3fa0 9abb
000002f0: a56e 51bd 1c7f d83d 1a02 ff3d f1e9 7ebd
00000300: 2a57 eb3d 2ab3 a6bd 27e9 d9bd 56dc 89bd
00000310: 3062 bc3d b22f 433d 44f1 b3bd 72c9 dd3d
00000320: 0d86 9d3d a90b c53d 3b0e f23d 58ad 99bd
00000330: 8597 b03d 09e6 00be b860 e8bd c175 d63d
00000340: 92d1 903d ecce 873d e09a 9f3d 2f22 4cbd
00000350: aace c4bc c25c d4bd e14f 203d 7235 2ebc
00000360: 57be c63d 28ef 9e3d 6d64 9bbd 2390 2d3d
00000370: 9ed7 37bd 5f6d aa3c 6cce a23d 4fe3 2f3d
00000380: 9f69 cabd 8333 80bd 814d 8d3c 5e92 abbd
00000390: c962 e23c ae50 8b3c b8ce d1bd 88ca 6cbd
000003a0: 0aae 973d 9eb1 5cbd 599c 083d 476e cfbd
000003b0: e60d 833d f1df 83bd f774 8bbd 562d b8bd
000003c0: 0e5e cfba e543 4fbc 77f7 c83c 0784 b4bc
000003d0: f855 063d 6a99 d0bd fc2c ca3d e4a4 fcbd
000003e0: d9ee b0bc 37a5 c4bd 8922 a3bd b671 b73c
000003f0: 4d94 e8bd f09c d23d 22b3 dc3c b013 f9bd
0.11199204 -0.048321027 -0.004928942 -0.06539992 0.09830079 0.10778589 0.12564333 -0.07181119
-0.03706648 0.017890673 -0.012314572 -0.01742754 -0.005270124 -0.015198996 -0.078889415 -0.086877085
-0.06223873 -0.066921376 -0.076519184 0.072672755 -0.066365495 -0.086614035 0.10377139 -0.103925206
-0.039056927 0.114859805 0.010938993 0.015950112 -0.0678878 0.03282952 -0.05798305 -0.08101019
0.0005771649 0.13173673 -0.09043092 -0.087969765 0.037289705 -0.043180935 0.05997426 0.0379009
0.029866284 0.035074793 -0.08431124 0.035807125 -0.09530755 0.096938975 0.09605738 0.029797228
-0.050526608 -0.07969947 -0.08015685 -0.058603354 -0.13162039 0.019951189 -0.09686558 0.08293662
-0.09762353 0.013125559 0.11471394 0.015612924 -0.08227305 0.06911003 -0.08126675 0.027512554
0.0028117131 -0.046349097 0.07031758 0.054562476 0.02863339 -0.1513953 -0.07821483 -0.13781485
-0.018385991 0.043624565 0.054799434 -0.112916276 -0.12407488 -0.0045924913 0.008332174 0.008900555
-0.033977352 0.031326097 0.031741735 -0.03304127 -0.09378883 -0.023600958 0.092378706 0.08114435
-0.13005312 0.06821774 -0.010826676 0.008693218 0.09248522 -0.0026618945 0.06516785 -0.008816931
0.07964618 0.0028485276 0.09804109 -0.09205184 0.037322 -0.05908775 0.0992484 0.12211313
-0.07969056 0.022635708 -0.070306025 -0.075740926 0.104420215 0.0044621984 -0.049636006 -0.09485552
-0.03511555 -0.09236464 0.13946523 0.1321227 0.10918669 0.12923898 0.054603677 0.11074103
0.008022643 0.04687575 -0.0006485763 0.1266402 0.12935151 0.05973513 0.069120534 0.085870385
-0.015089954 0.068525136 0.003288365 -0.10001767 -0.06244714 0.0668053 -0.01596173 -0.07441579
0.1100679 -0.11580344 0.14185381 0.1012383 -0.046484705 0.016945565 -0.0022994727 0.007014521
0.065755405 -0.014215799 0.107150264 -0.0503626 -0.026108637 0.10648169 -0.09586133 -0.03560933
0.07547869 0.09739639 -0.11735978 0.05745558 0.07012387 -0.13495027 0.076449595 0.088714436
-0.011075329 0.03596511 0.06648034 0.006999469 0.0731053 -0.090153046 -0.08747353 0.0035375387
0.043816444 -0.08579317 -0.030932097 -0.035420045 -0.12376451 0.02592035 -0.11691104 0.09633051
-0.0787607 -0.03140471 -0.012537848 0.015897304 -0.10706211 -0.09154805 0.060440246 -0.12687038
0.011164253 -0.04982574 0.121604994 -0.00471881 -0.05113091 0.10571119 0.12451573 -0.062234823
0.114912346 -0.081396416 -0.106401734 -0.06731479 0.09198415 0.047652908 -0.08786252 0.10829438
0.07691584 0.096213646 0.118191205 -0.07503766 0.0862265 -0.12587751 -0.11346573 0.104716785
0.07071222 0.06631264 0.07793212 -0.049837288 -0.024024326 -0.10369255 0.03913868 -0.01063286
0.09704273 0.07760459 -0.07587514 0.042373788 -0.044883363 0.020804105 0.07949528 0.042941388
-0.09883427 -0.06259825 0.01724887 -0.08377527 0.027634995 0.017006245 -0.102445066 -0.057810336
0.07406242 -0.053880326 0.03335223 -0.101284556 0.06399135 -0.06439198 -0.06809419 -0.08993022
-0.0015820877 -0.012650465 0.024532063 -0.022035612 0.03279683 -0.101855114 0.09871861 -0.12336138
-0.021598266 -0.09601825 -0.079655714 0.022393089 -0.11356411 0.1028384 0.026940886 -0.12161958

attention.query.bias f4 [64]
00000000: c050 afbd eed0 5b3d 5ff7 25bd 449f acbd
00000010: c5a8 29bc f55b b7bd 3725 80bd cf6a e3bc
00000020: f9c1 b53c 78c4 493c 5428 c93b 03dd 80bd
00000030: 3d4e e4bd f643 26bd 0a83 8d3d b9ce 10bd
00000040: f625 003e 9b04 ab3d e8c0 773d 4672 483d
00000050: 62c1 2e3d a359 80bd 8502 593d f9b8 bb3d
00000060: 8248 0abd 3d40 e6bd 106e 023e c84f 0abe
00000070: 1b29 f2bd ec45 2dbd 9ff2 08be 6098 dc3d
00000080: 1216 b63c 946d 6a3d 4e36 ad3b d080 a1bd
00000090: c3b5 c7bd 7d7e bb3d 2353 153d dcbb 06be
000000a0: 34f5 3fbd 59d9 c3bd fccc 65bb 4b69 a5bd
000000b0: 0364 a2bd 5a28 d93b 5627 c1bd 340d e43a
000000c0: 1420 9e3d 9635 033d fc00 afbc 2cce 0cbd
000000d0: f3e9 58bd 0851 1fbd b6d5 07be f28e 003e
000000e0: de1f ad3d 1372 803d bef0 ab3d fddf 963d
000000f0: 14e2 e6bd e6ca 9d3d e42f f03b 2add a23d
-0.08560324 0.053666048 -0.040519115 -0.08428815 -0.010355179 -0.08953086 -0.06257098 -0.027760891
0.02218722 0.012314908 0.0061388407 -0.06292155 -0.11147735 -0.040592156 0.06909759 -0.035353396
0.12514481 0.08350488 0.060486704 0.048937105 0.042664893 -0.06267097 0.05298092 0.0916614
-0.033760555 -0.11242721 0.12737298 -0.13506997 -0.118242465 -0.04230301 -0.13373803 0.10771251
0.02222732 0.057233408 0.0052860146 -0.07885897 -0.09751465 0.09154985 0.03645624 -0.131576
-0.046864703 -0.0956294 -0.0035064807 -0.08076724 -0.07929232 0.0066271247 -0.09431331 0.0017398954
0.07720962 0.032033525 -0.021362774 -0.03437631 -0.052957486 -0.038895637 -0.13265118 0.1255453
0.08453344 0.06271758 0.08395527 0.07366941 -0.1127359 0.077047154 0.0073299278 0.0795234

attention.key.weight f4 [64, 64]
00000000: be3d bd3d cdaa 75bd aa8d d13d 5af1 73bd
00000010: abc4 16bd a708 4abd 1553 323c da4f f93c
00000020: 3084 1a3d 64b0 573c 3a75 cc3d 38c3 703d
00000030: 94f4 153d 82d0 a33d 8203 34bb 21a2 ee3d
00000040: bf04 bd3d 1915 b23d 50c3 d6bd 532c a03d
00000050: 486f 893c 60f5 6cbd 0375 b83b 5a49 10bd
00000060: 5b15 253c 0d69 e9bd 1db3 86bd ad64 b53c
00000070: dcf6 8dbd 8d5e e13d 56f9 223b 2080 2e3d
00000080: 770d 9a3d f7da 353d 6f2a d53c 5261 fdbd
00000090: 7e09 2ebc 098d a23d 662e 6e3c b358 9c3d
000000a0: 64ed b73d adb6 79bd 3dc5 97bc 0b80 85bd
000000b0: d108 5abd 5eda 1dbc 03bc 8f3b f7a8 03be
000000c0: 04a2 7ebd 34c1 28bd d730 79bd ef40 78bc
000000d0: 96f8 783c 44d5 a6bc e9d5 103d 6e51 353d
000000e0: a46c c23c 815d 613d 1e26 e83a 0eaa bc3d
000000f0: 8166 e0bd dfec be3d 83d1 8cbd cda2 763d
00000100: c05c fe3d 1b63 2ebd 4411 953a b500 2a3d
00000110: 6d5d f4bd ff5b 93bd f03d b33d e460 f73c
00000120: 0f53 c4bc b22d c6bc f073 723d fa01 553d
00000130: 94dc 8dbc f72d 82bd 5819 95bc 92cb 9abd
00000140: f278 3bbd eaf6 973d c101 953d ed99 57bc
00000150: a94b 1c3e 08c7 843a 3789 a53d 6a62 a13d
00000160: 24b2 0a3e 4da4 c03d 6755 afbc ccb0 04bd
00000170: 8f77 923c 4328 adbd 7fff b73d 37b8 33bc
00000180: e9d4 673d d0e8 ea3d a060 8abd dbe9 f1bb
00000190: fd47 273d f2d0 a43d 902d a0bc a75c 2dbb
000001a0: a400 9cbb 660a 9cbd 582d 0fbd 043d fbbc
000001b0: 61d5 cb3c 68bd 20be ef8f 0ebe 23a3 0ebd
000001c0: 44f8 fcb8 ab41 00bc 3c59 22be 0f7a 7f3b
000001d0: 9856 81bd 2fb6 583d 270a e63d 8a1e f5bc
000001e0: 75f1 b23d 8fce 1a3d d057 f53d 15c4 eebd
000001f0: 2461 ebbd 3206 20bd 8e51 543d b5e7 4dbd
00000200: 591d 0bbd 8b2b abbc 89f3 0ebd b0be a43d
00000210: 4f97 073e b12a 0d3d 3dc4 d6bd 147f 01be
00000220: 388f 9dbd 36d0 773d 5dbb c8bc ce1a 953b
00000230: ac01 afbd 615d 023d b66a 623b a918 e4bc
00000240: 1c91 9a3d d103 ec3d da46 7f3c 9461 05bd
00000250: ae05 dabd 1d45 55bd 85d5 e73c 0860 e33c
00000260: 74e2 2dbd ab34 babd c232 053e 123a 58bd
00000270: 31f1 25bd 87e3 093e 3bdb 04be 0547 bebc
00000280: 1fd7 41bd 8e11 7bbc b740 e93d bb91 073e
00000290: f2cf 8dbc 7ee8 8fbc 3bc1 553d 5846 003e
000002a0: ff37 fdbd bf81 783d bf3d 81bd 7fc8 b23d
000002b0: 8418 c63c 3cad 11bd 43c1 7ebd 5fbb e5bc
000002c0: fbb5 77bd d5de 653d 5736 263e 5c63 8f3d
000002d0: b4bb 483d af2a 94bd e819 d73d 400d f63b
000002e0: e91b 8fbd da66 023e 240c 02be 43a1 f2bd
000002f0: 6c71 22bc d2c5 d7bd 758e 133c fbb9 8f3d
00000300: 3383 9abd c80f 1b3d f2fb 993d 1ce8 7f3c
00000310: b014 c7bd d690 b53d 3396 a0bd 6116 d43c
00000320: 469f fcbd 5a19 d2bd 209f 09be eb9a 99bd
00000330: c539 d33d 8e6f df3c 8ee7 81bd 43ad d43d
00000340: d35d 97bd ed61 a43d df9f 333d bc7c c63d
00000350: 2817 ffbd d759 d9bd 5c07 e83d d77b 0c3d
00000360: 3b00 7abc e47d bbbd f512 e4bd 6313 b53d
00000370: 5b3c debd 694a d2bd c7b9 57bd 6a1e b43d
00000380: f547 57bb 00d2 c0bc ae2c e63d e24b f13d
00000390: 398b e7bd 74d7 4cbc ad3b 0bbd 11d4 5a3c
000003a0: 7702 b3bd fb44 003e e9c3 01bd 2fe2 2b3d
000003b0: aef7 ccbc dc54 e63d 364c c13d ec72 06bd
000003c0: e53a 62bd 262c 02bd 27ab 113e dfdf a8bd
000003d0: b625 ad3d 5c41 683d 3f66 7fbd 7545 f33d
000003e0: e73d a4bd 9989 fb3d d49d 0e3d 6aea 373d
000003f0: 9c3d d9bd a619 2fbb 652e 353b e0dc a73d
0.09240292 -0.05997734 0.102320984 -0.059556343 -0.03680865 -0.049324658 0.010884066 0.030433584
0.03772372 0.013164613 0.09983297 0.058779925 0.0366102 0.07998754 -0.002746791 0.116520174
0.09229421 0.0869543 -0.10486472 0.07820954 0.016776696 -0.057851195 0.0056291833 -0.035226204
0.010075892 -0.1139699 -0.06577132 0.022142733 -0.0693185 0.11004362 0.0024867854 0.04260266
0.075220995 0.044398274 0.02602121 -0.12372078 -0.01062238 0.079370566 0.014537429 0.076341055
0.089808255 -0.06096523 -0.018526668 -0.06518563 -0.053231064 -0.009634582 0.0043864264 -0.12857424
-0.06216623 -0.041199878 -0.060837593 -0.0151522 0.015195986 -0.020365365 0.03536025 0.04426711
0.023733445 0.055020813 0.0017711555 0.09212123 -0.10957051 0.09322523 -0.06875899 0.060213853
0.124200344 -0.042574983 0.0011372943 0.04150458 -0.11931882 -0.07195281 0.08752048 0.030197568
-0.023965387 -0.024191711 0.059192598 0.052003838 -0.017317094 -0.06356423 -0.018200561 -0.07558359
-0.04576964 0.07420142 0.07275725 -0.013159257 0.15263237 0.0010130117 0.08082812 0.07880099
0.13544518 0.09406338 -0.021403028 -0.03239517 0.017879276 -0.08454945 0.08984279 -0.010969213
0.05659953 0.11470187 -0.06756711 -0.007382614 0.040840138 0.08047666 -0.019552976 -0.002645293
-0.0047608186 -0.07619171 -0.034955353 -0.030668743 0.02488202 -0.15697253 -0.13922094 -0.034823548
-0.000120625395 -0.007828156 -0.15854353 0.0038982665 -0.063153446 0.05290812 0.11232405 -0.029921789
0.087374605 0.037794646 0.119796395 -0.116584934 -0.114931375 -0.03906841 0.05183559 -0.0502698
-0.033963535 -0.020894786 -0.034900222 0.08044183 0.13241313 0.03446454 -0.10486648 -0.12646133
-0.076933324 0.0605013 -0.024503404 0.0045503145 -0.08545241 0.031827334 0.0034548468 -0.02784379
0.07547209 0.115241654 0.015580857 -0.03256376 -0.106456146 -0.052067865 0.028300056 0.027755752
-0.04245229 -0.09092077 0.13007644 -0.052789755 -0.04051322 0.13465701 -0.12974255 -0.023227224
-0.047324296 -0.01532401 0.113892965 0.13239186 -0.01731107 -0.017566916 0.052186232 0.12526834
-0.12364196 0.06067061 -0.06310605 0.08729648 0.024181612 -0.0355656 -0.062196027 -0.028043447
-0.060476284 0.056120712 0.16231667 0.07001373 0.049007133 -0.07234704 0.10502988 0.0075089037
-0.06987745 0.12734547 -0.12699944 -0.118471645 -0.009914737 -0.10535778 0.009006132 0.07017895
-0.075445555 0.037856847 0.07518758 0.015619304 -0.09720743 0.08865516 -0.07841148 0.025889577
-0.123350665 -0.10258742 -0.13439608 -0.075002514 0.10313753 0.027274873 -0.06342994 0.103846096
-0.073909424 0.0802649 0.043853637 0.0969176 -0.124555886 -0.10612839 0.11329529 0.03429779
-0.015258844 -0.09154871 -0.11136428 0.08841588 -0.10851356 -0.10268099 -0.052667405 0.087948635
-0.0032849286 -0.023537636 0.11238991 0.117820516 -0.113058515 -0.01250254 -0.033992458 0.013356225
-0.087407045 0.12526314 -0.031680975 0.041963752 -0.025020447 0.112466544 0.09438364 -0.03282444
-0.055231947 -0.031780384 0.14225446 -0.08245825 0.084544584 0.056702957 -0.06235337 0.11878482
-0.080196194 0.12282104 0.034818485 0.04490129 -0.10607454 -0.0026718169 0.0027646061 0.081964254

attention.key.bias f4 [64]
00000000: 338f bc3d 323c cabd 920c e03d 12b3 40bd
00000010: 08d5 f23c 6a9c f5bd 2f45 8c3d 2343 08bd
00000020: 105f 0abd bae6 9d3d b7e8 a1bd c066 19bd
00000030: cfbc dd3d 74fb 0bbd 1442 babd 8b4d 883d
00000040: 4826 9c3d 9b41 c83d 0d34 f7bc fa38 d53b
00000050: a726 12bc db07 00be 3f1b d03c c215 743d
00000060: 69ea aebd 5283 443d c1d6 bdbb e1ac 5f3d
00000070: 7155 7cbd 682f 2dbd 30cb 013c 3aab debd
00000080: 288f 233c 537e d9bb 05a8 9f3d eca8 cc3d
00000090: 3d03 f9bd 67a5 59bd e1d0 f83d e319 e1bd
000000a0: 0fb4 8f3d 412c b73d ecd2 b53b 5369 7b3d
000000b0: d9de 2fbd ca79 2fbd 1cf3 ef3c 34ff 75bd
000000c0: 1669 18bd b623 29bd d99d e83a 457d 3f3c
000000d0: 6e76 bebd 8a48 a3bd 2431 30bd 46a7 50bd
000000e0: c904 d23c e007 9fbd e430 da3d e012 bf3c
000000f0: 272b a23d ade3 2bbd 8e43 933d 2313 9e3d
0.092070006 -0.098747626 0.109398976 -0.047045775 0.029642597 -0.11992724 0.06849133 -0.03326715
-0.033782065 0.07710023 -0.07905715 -0.037451506 0.10827028 -0.03417535 -0.09094635 0.06655415
0.07624489 0.09778138 -0.030176187 0.0065070363 -0.008920348 -0.12502997 0.025403617 0.059591062
-0.08540804 0.0479768 -0.005793423 0.05460823 -0.06160492 -0.04228154 0.007921979 -0.108725026
0.009982862 -0.0066373735 0.07795719 0.09993157 -0.12158821 -0.053136256 0.121492155 -0.109912656
0.07016765 0.08943988 0.0055488255 0.061379742 -0.042937133 -0.042840756 0.029290728 -0.060057834
-0.037209593 -0.041293822 0.0017747238 0.011687581 -0.092999324 -0.0797282 -0.043015614 -0.050940774
0.025637047 -0.07765174 0.106538564 0.02332443 0.07918387 -0.041965175 0.071906194 0.07718494
