models/model_B_ppo_ep10.pth (torch, 317953 bytes, 27 tensors)

self_embed.weight f4 [64, 20]
00000000: 8aa4 0238 b240 07be 809b 06bb bdd0 873e
00000010: bfbd 943c e987 593e 10db 4fbc 931d e93c
00000020: 5251 45be f896 cf3d e964 833d d404 69bd
00000030: a53f 9dbd e97a d63d ba90 afbd 4a51 0cbb
00000040: ce17 753c 80dc b23d 36dc 6abc 8730 31be
00000050: 0c28 b9bd 946f bdbd e086 5c3e 45e0 fc3d
00000060: 510e 913d b703 dd3d a176 4f3e 72a6 1b3e
00000070: 0aad 023e e405 b53d 0673 41bd e298 18bd
00000080: 49f7 103e 7b82 1f3d 04e2 fe3d e77d 2d3e
00000090: 9c50 7b3e 587d 28be 7695 543e aa10 083e
000000a0: 79fc 483e 2a67 f5bd ca20 b0bd e892 413e
000000b0: ae9c 083e 6862 f03d ac31 3fbe fc3e 5a3e
000000c0: ea71 2b3e e4a6 acbd b8bb 4fbd 4eee 5a3d
000000d0: 9c49 103e d839 403e 1354 a33d 2b6e 5f3e
000000e0: 9268 783e 403d 8c3b 9d68 5fbc f859 713e
000000f0: 8cda 19be 41e3 123e ffbe 15be 7066 59bd
00000100: 78b0 bfbd 3517 a4bd e097 e53c bea2 b33d
00000110: 9056 193e c019 61bb 8fe1 1c3e 6522 f13d
00000120: b8d7 073d 13a3 23bd d958 2abe 27eb 7ebd
00000130: b3d5 fd3c 2eb5 03be 41ba 183e 89d0 50be
00000140: 92b6 253e 6861 b23d 7292 0e3e 42ee a2bd
00000150: 384e 053e 56a7 f1bd 9086 393d 20d7 6dbc
00000160: 8cdd ec3d c85f 283d 98e3 af3c e03b fcbc
00000170: 34a4 21bd 1b67 4bbe 448d 4fbe 4c9a 3ebd
00000180: dc96 3dbd 0886 733d 489a de3d a807 49bd
00000190: 4bde 10bd 15ff 38be 4cb6 b53d 1eb4 c0bc
000001a0: a0af 043d dd3e 123e dc44 243e 2aab 1b3e
000001b0: d49f a9bd 8c17 05bd 2be7 ca3d ba79 2d3c
000001c0: 31fc 66be 4d39 58bd 5fd7 f7bd 86b3 36bd
000001d0: b60c c9bd 488c 263e 771a 7f3c 5ce2 6f3e
000001e0: c055 543d 945b b7bd ce62 163e ed67 a3bd
000001f0: 8cff 0b3d 180b 36be 4557 773e 84a1 18be
00000200: ca99 e8bd 60c1 64bc 4867 c43d 81da 333e
00000210: ae3f 193e 80bb 6f3e 449f 923d c685 e23d
00000220: 7fb9 183e a435 903d 2524 5b3e afff a03c
00000230: 21af 2ebe 3e90 a2bd 06f4 20be 90fc 2b3d
00000240: acaf fe3d d2da 12be ecb3 3a3e 8f8b 5ebe
00000250: 60ea e43c e8b7 d23c 6870 1a3d 4499 e93d
00000260: 8c48 90bd 3a23 233e e38b 28be d064 483d
00000270: a952 5fbe ddcb 22be e873 4d3e a08e a2bc
00000280: 2ecc 01be 9095 6f3e 1470 9a3d 4bb0 373e
00000290: 4843 8a3e 4ec2 b2bd d41c 53bd fb88 b53d
000002a0: 70a5 35bd 8022 a6bb fd1d 72bc ee3f 0bbe
000002b0: 2831 93bd 8624 d8bb 31d4 80bd 9e12 3fbe
000002c0: c3b2 fabc fc5c f0bd 54ec cebd b6e0 373e
000002d0: 1ac0 3bbe 7496 413e 1c7a 8ebd 0272 473e
000002e0: 84e6 fabd dd70 fbbb 79c0 fdbd 3a58 363e
000002f0: c247 5bbe 8032 2a3e d836 0f3e 0b0b 123e
00000300: e774 7a3e 3e8d 17be af73 dfbd 8833 303e
00000310: 0bfa ddbc f01e cbbd 878f 33be 28a1 1f3d
00000320: 1bfc b5bd d169 8b3d 78bc 3b3e 1c2c 423d
00000330: 019e 39be 3091 65bb 000c 4bbe 3222 de3d
00000340: 20d2 a53c 00a7 edbc 336c 613e ee52 f93d
00000350: 978d 153e 8c2d 603e ea41 ecbd 2b27 4a3d
00000360: 2fd8 00be e87e 423e 2e40 f6bd cad9 2cbe
00000370: 2848 2dbe e243 393e f87f 963d f4c7 233e
00000380: 33d6 54be dc3f 5fbd 424c e1bd d8db 22be
00000390: e2d0 583e 8054 abbd c019 0c3d b0cd a43d
000003a0: 053f 51be b8c8 033e 75dc eabd 0ca1 553e
000003b0: 7586 fbbd 40b9 f53b 803e f33d cc33 853d
000003c0: e243 4c3e 9f05 433d e891 433e 5055 f23c
000003d0: bef3 333e a4b3 b1bd 6034 43bc d4b0 adbc
000003e0: 6804 943c e076 dc3d 588f 133e fd7f 5ebc
000003f0: 3844 263d 1dc1 b0bd 4865 37be 0dff 233e
3.1147654e-05 -0.13208273 -0.0020539463 0.26526442 0.018156884 0.21243252 -0.012686506 0.028456485
-0.19269302 0.10136217 0.064157315 -0.05688937 -0.07678155 0.10472662 -0.08572526 -0.0021410757
0.014959289 0.08733463 -0.014334729 -0.17303668 -0.090408415 -0.092497975 0.21535826 0.123474635
0.07082809 0.10791724 0.20260097 0.15200213 0.12761322 0.08839014 -0.047228836 -0.037255175
0.14156832 0.038942795 0.12445453 0.16942559 0.24542469 -0.16454065 0.2076014 0.13287607
0.1962756 -0.119825676 -0.08600004 0.18903697 0.13341019 0.117375195 -0.18671292 0.21313089
0.16742674 -0.08430269 -0.050716132 0.05344992 0.1409058 0.18772066 0.0797502 0.2181937
0.2425864 0.0042797625 -0.013635782 0.23569477 -0.15024775 0.14344503 -0.1462364 -0.053076208
-0.093598306 -0.08012239 0.028026521 0.08771275 0.14974427 -0.0034347624 0.15320419 0.11774138
0.03316471 -0.03995044 -0.16635455 -0.062235978 0.030985689 -0.12862083 0.149148 -0.2039205
0.16182926 0.08709985 0.13923052 -0.079556 0.1301812 -0.11799495 0.045294344 -0.014516622
0.11565694 0.04110697 0.02147083 -0.03079027 -0.039463237 -0.1986355 -0.20268732 -0.046533868
-0.04628645 0.059453994 0.108692706 -0.049079567 -0.035368245 -0.18066056 0.08872661 -0.023523387
0.03239405 0.14281793 0.16041893 0.15202013 -0.08282438 -0.03249316 0.09907373 0.010588104
-0.22557141 -0.05278902 -0.12101626 -0.0446048 -0.098168775 0.1626445 0.015570275 0.23426193
0.05183959 -0.08953014 0.14686128 -0.07978807 0.034179255 -0.1777767 0.24154384 -0.14905363
-0.11357458 -0.01396212 0.09590012 0.17563821 0.14965698 0.2341137 0.07159284 0.110606715
0.14914511 0.07041481 0.21400507 0.01965317 -0.17058994 -0.07937668 -0.15718088 0.04198891
0.124358505 -0.14341286 0.18232697 -0.21732925 0.02794379 0.025722459 0.037704855 0.11406186
-0.07045087 0.15931407 -0.16459613 0.048924267 -0.21808876 -0.1589808 0.20063746 -0.0198434
-0.12675545 0.23396897 0.075409085 0.17938344 0.27004457 -0.08728467 -0.051541165 0.088640176
-0.044347227 -0.0050700307 -0.014777658 -0.13598606 -0.0718711 -0.006596151 -0.06290472 -0.18659446
-0.030602818 -0.11736485 -0.1010367 0.17956814 -0.18335 0.1890505 -0.06956884 0.19477084
-0.122509986 -0.0076733665 -0.12390227 0.17807093 -0.21414092 0.16620827 0.13985765 0.14262025
0.24458657 -0.14799973 -0.10910737 0.17207158 -0.027096769 -0.0991801 -0.1753522 0.03897205
-0.08885976 0.06807292 0.18333614 0.047405347 -0.1812668 -0.0035029165 -0.19828796 0.10846366
0.020241797 -0.029010296 0.22013931 0.12174021 0.14604793 0.21892375 -0.115360096 0.04935376
-0.12582467 0.18993723 -0.1202396 -0.16879955 -0.16922057 0.18092301 0.07348627 0.15994245
-0.20784836 -0.05450426 -0.11000873 -0.15904176 0.21173432 -0.083657265 0.034204245 0.08047044
-0.20434196 0.12869537 -0.1146783 0.20862216 -0.12281505 0.00749889 0.11877155 0.0650402
0.1994777 0.047612783 0.19098628 0.029581696 0.17573449 -0.08676842 -0.011914343 -0.021202482
0.018068507 0.10764861 0.1441015 -0.0135803195 0.040592402 -0.086305834 -0.1790973 0.16015263

self_embed.bias f4 [64]
00000000: 16a5 623d 064c 0bbe 2414 11be d60e 903d
00000010: c4a0 15be f615 093e c284 303d 4899 3b3d
00000020: 9495 c2bd 2815 c0bd 5eae 083d 1078 ff3c
00000030: c0d5 11be da6b 4c3d 904e 4fbc 1653 653e
00000040: d9b4 1dbe 020a 643e e7de 433e 6271 71bd
00000050: 69d8 5b3d 00d3 263a a3e1 0d3d ead3 c0bd
00000060: eb8a b6bd cfc5 04bd d8eb 47be 9c67 343d
00000070: 41ff 21be 3c28 443e ad57 69be 9909 d3bd
00000080: 779e 39bd faf9 2abe 0071 1cbd 2dd1 4d3e
00000090: 6083 69bd 8f31 4c3e f8a4 55be 6667 093e
000000a0: 5515 f13d 8234 bc3d d523 e9bd c817 57be
000000b0: e8ee 1c3e 5e10 323d ebaa af3d ba20 6bbe
000000c0: 6f87 3e3e e7dd 7b3d 18a9 f73d 30aa 43be
000000d0: fb60 ac3d 7c82 32bd dd4a 833e e257 37be
000000e0: 18b2 48bb 8e31 183e 5455 0abc 0f64 583e
000000f0: 3d88 f33d 567e 45be 33be edbd 14b0 ab3d
0.05533322 -0.1360322 -0.1416784 0.0703408 -0.14612108 0.13387284 0.043095358 0.045800477
-0.09501186 -0.09379035 0.033369415 0.03118518 -0.14241695 0.049907543 -0.012653008 0.22394976
-0.15401019 0.22269443 0.19127999 -0.05894602 0.05367318 0.0006363839 0.034639012 -0.094154194
-0.08913215 -0.032415207 -0.19523561 0.044044122 -0.15820028 0.19155973 -0.22787352 -0.10304565
-0.04531714 -0.16696921 -0.038193703 0.20099325 -0.057010055 0.1994078 -0.20863712 0.1341835
0.11771647 0.091897026 -0.113837875 -0.21005166 0.1532551 0.04347264 0.08577522 -0.22961703
0.18606351 0.06149092 0.12092799 -0.1910789 0.08416935 -0.04358147 0.25643054 -0.17904618
-0.003062373 0.14862654 -0.008443195 0.2113192 0.1189122 -0.19286475 -0.11608543 0.083831936

animal_embed.weight f4 [64, 8]
00000000: 591c 6dbe 1f00 133e 2311 9bbe 47c1 863e
00000010: fc73 02bd 587d 06bd 855e e33d 8854 a03e
00000020: f9b6 f9bd e712 b03d 446a 5a3e 4f04 40be
00000030: 9676 a5bd f568 a73e 0667 c9bd ce53 a3be
00000040: a047 b53e de46 fc3c 3492 5cbe 7bbd d5bd
00000050: ef0d 1dbb a8e3 1ebd cca6 a23e 2639 713e
00000060: bad9 28be 5601 b13e 2c4b c0be 8859 37bd
00000070: 3b2c 4f3e 7fd9 77be f2ef f13d ca42 cbbd
00000080: 195c b2be 376c 6dbd 3f9b 31be d5f0 5e3e
00000090: 092b 93bc cb25 0bbe 3a73 0fbd 7db4 a3be
000000a0: aa3c 0a3e 8aa1 6bbe 877d 3ebe 8c7f 8cbe
000000b0: ea4a 683e 85d0 3b3e 0a39 70be 78d6 33be
000000c0: ae89 873e db1d 76be 485a 9a3d 1be0 e33d
000000d0: 7877 103e d49b cabc 1851 0cbe c08b a13e
000000e0: 407e 113e ecb8 863e 35bc f13d c27a 773c
000000f0: bc1e b93d 9ef7 bdbd ac34 603e da91 da3d
00000100: 18f8 a4be ba8c 6d3e de6d 3c3d 3f18 a23e
00000110: 4a15 45be b3b7 13be f895 6e3e d254 8abe
00000120: 486e 213d 9ad0 2fbe 1054 f7bd 0d18 743d
00000130: fdec 42be d2de 15bd 48b0 95be 3055 adbe
00000140: 6281 a93e 6bb9 293e d528 8f3e dbf1 713e
00000150: b464 c03d 6166 4bbe 8feb 19be c144 69be
00000160: 3543 0b3e 765f 91be 4d23 9f3e 006b 813e
00000170: 6e3d 69be 2a93 8b3d de97 51be 1b09 9f3d
00000180: 86f8 9b3b dfeb 95be c2d2 cd3d 7f24 a2be
00000190: b596 97be e322 9fbe fd68 ad3d 56ab 6b3e
000001a0: c818 22bd 157c aa3e 12c3 5c3e 9a0c abbe
000001b0: affc ccbc 975a 9fbe ed0e e7bd dbca 25bd
000001c0: dc4e 28be 5fa1 1dbe cca1 8f3e 170b ad3e
000001d0: 283e 13bd 0a7c 40be c647 a03e 126a 49be
000001e0: 6682 973e 5dbf 273c 5d0f fbbd 081f a43e
000001f0: ab7b 1ebe 5997 4fbe 420f febb 42c3 bd3e
00000200: d598 953e 7fa3 8bbe 7312 22be c148 3bbe
00000210: f8b4 b4be 68ff 243e c5ce 563e c043 c43d
00000220: 51be 2d3e 12d8 a1be 4d21 94be a5db 0a3e
00000230: 5354 2dbe 4a79 65be 9a6e b1be 4dd1 09bd
00000240: 3f03 b2be be03 843e d6e1 943e 5cd8 593d
00000250: 89ef b23e 3070 303e 78ef 443c e368 ed3d
00000260: 7bfa bb3d 9bfd 93be 9f3a d33c 53ee 663d
00000270: e956 8ebe 65db dc3c bd16 22bd 6e56 8dbd
00000280: bbc2 e13d 7c18 98be c82f c43e 2902 5a3d
00000290: cfe7 12be bdf9 853e 1cbe 98be d344 8b3e
000002a0: ead0 9fbd c8b5 4b3d d901 adbc d24c e4bd
000002b0: 503c 613e f226 623d 229c 8f3e caa8 88be
000002c0: 9e64 c8bd a29d aa3d 2866 6abe ae8d 90bd
000002d0: e2cc 3f3e ec43 363d 4ce0 02be 948c 94bc
000002e0: dd11 b13d 195a 6bbe e0fc d0bc c29d a3be
000002f0: 0897 b33d ca6a 69be 144a 68bd 9277 be3d
00000300: c5c4 5f3e 3633 773e 4638 523d 20b5 773d
00000310: 52f3 52bc f5b5 f9bd 98df 42bc 7c8a 4bbe
00000320: e0d4 93be 343a f5bd 0c11 8b3d 53ca e3bc
00000330: 19dd fa3d c2a1 84be de60 043e 3c89 b83e
00000340: 722d 343e 7c89 9fbd 3cae 7bbe ec18 9bbe
00000350: 49ab 443e 0483 9d3e a151 b4bd 4c76 ddbb
00000360: 2ac1 70be edf3 953e fbe6 a2be a66b c4bb
00000370: 22be 02be d746 343e f806 873d 886a 0b3e
00000380: 3610 1f3e 5558 42be c629 933e 7692 9b3e
00000390: 10c6 d2bc 61b7 8b3e b25b 0cbe d488 6c3e
000003a0: 7717 81be 749c 6f3e 9fe4 44bc 0c52 51bb
000003b0: 6795 313e 2354 ebbd 3fe8 a8be 86fc 313d
000003c0: 0fae 9fbc c08c 8cbe c44d 1dbd d21d 4c3e
000003d0: f03d b0be ddb0 a53e 0a43 ad3b c130 9a3e
000003e0: eaa5 413e b2b7 99be 394a f93d 30f3 12be
000003f0: c983 84be 7f13 a43e 3ff2 843e ef12 e5bd
-0.23155345 0.14355515 -0.30286512 0.26319334 -0.031848893 -0.03283438 0.111020125 0.31314492
-0.121931024 0.08597355 0.213296 -0.18751644 -0.08079259 0.32697263 -0.09834103 -0.31899875
0.35406208 0.03079551 -0.21540147 -0.10436531 -0.0023964604 -0.03879133 0.3176788 0.23556957
-0.16489306 0.34571332 -0.37557352 -0.044763118 0.20231716 -0.24204062 0.11813344 -0.099248484
-0.3483589 -0.05796453 -0.17344378 0.21771558 -0.017964857 -0.13588636 -0.035021998 -0.3197364
0.13499704 -0.23010841 -0.18602572 -0.2744106 0.22684827 0.18341263 -0.23459259 -0.17562282
0.2647223 -0.24034826 0.07536751 0.11126729 0.14108074 -0.024732508 -0.1370281 0.31551933
0.14208317 0.2631296 0.11803476 0.015104951 0.09039065 -0.09275745 0.21895093 0.1067235
-0.3222053 0.23198214 0.046003215 0.31659123 -0.19246402 -0.14425544 0.23299396 -0.27017838
0.039411813 -0.17169419 -0.120765805 0.05959325 -0.19035716 -0.03658945 -0.29236054 -0.33854055
0.33106524 0.16574638 0.2796084 0.23627417 0.093942076 -0.19863273 -0.15031265 -0.22780134
0.13599856 -0.28393143 0.3108162 0.25276947 -0.2277734 0.06815179 -0.20468089 0.077654086
0.004759851 -0.29281518 0.100499645 -0.3166847 -0.29607168 -0.31081304 0.084672906 0.23014578
-0.039574414 0.33297792 0.21558788 -0.33408052 -0.025022833 -0.31123802 -0.11282144 -0.04047666
-0.16436332 -0.1539359 0.2805313 0.33797523 -0.03594795 -0.18797317 0.3130476 -0.19669369
0.29591674 0.010238496 -0.1225879 0.32054925 -0.15476863 -0.20272578 -0.0077532837 0.37063032
0.29218164 -0.27273175 -0.1582735 -0.18289472 -0.35294318 0.16113055 0.20977314 0.09583235
0.16967131 -0.3161016 -0.28931656 0.1356035 -0.16926698 -0.2240955 -0.34654695 -0.03364687
-0.34768102 0.25784105 0.2907855 0.053184852 0.34948376 0.17230296 0.012019984 0.11592271
0.09178635 -0.28904423 0.025784789 0.056379627 -0.27800682 0.026960084 -0.039572466 -0.06901251
0.1102347 -0.2970618 0.38317704 0.053224716 -0.1434624 0.26167098 -0.29832542 0.27200946
-0.07803519 0.049733907 -0.021119045 -0.11147465 0.21995664 0.055212922 0.28048807 -0.26691276
-0.09784816 0.08330847 -0.22890532 -0.07058273 0.187305 0.04449837 -0.12780875 -0.01813344
0.08645985 -0.22983588 -0.025511205 -0.31956297 0.08769041 -0.22794643 -0.05671127 0.0930015
0.21852405 0.24140629 0.051323198 0.06047547 -0.012875395 -0.12192909 -0.011894129 -0.19877046
-0.28873348 -0.11973992 0.06790361 -0.027806437 0.12249202 -0.2590466 0.12927577 0.36042202
0.17595461 -0.07789895 -0.24578184 -0.3029245 0.19205965 0.3076402 -0.08804632 -0.006758487
-0.23511186 0.29287663 -0.3181685 -0.005994278 -0.12767842 0.17605148 0.06593126 0.13614857
0.15533528 -0.18979008 0.28742808 0.30385178 -0.02572921 0.27288345 -0.13706854 0.23099071
-0.25213215 0.23399526 -0.012017398 -0.0031939773 0.17342149 -0.11490657 -0.3298969 0.043453716
-0.019492177 -0.27451134 -0.03840424 0.1993325 -0.34422255 0.32361498 0.0052875327 0.3011532
0.18910947 -0.3002296 0.1217236 -0.14350581 -0.25881794 0.32046124 0.2596607 -0.11185252

animal_embed.bias f4 [64]
00000000: c1eb 9dbd 37ef 993e 894d 26bb d366 1ebe
00000010: 31aa 88be b45f 8c3d d85e 243e 2ad0 543e
00000020: b4c9 41bc 7333 8a3d 4db7 0b3e 42dd 6bbe
00000030: f575 593e 5794 ecbc ba11 79be a62b 9f3d
00000040: db3b 5e3e 9b13 bcbe 2a64 233e 20b5 babe
00000050: becb f4bd ec73 53be 2208 6c3e f290 2abe
00000060: 7dfa c3be 83f7 44bb 5ce9 a63e f77d 6ebe
00000070: 2f4e 88be 1df6 46be bd72 e0bb b15c 08be
00000080: 603f 893e 561e 2fbe a383 38be 897a 963d
00000090: ef5c 9cbe f86f a63e 1588 a2be 1ad2 38bd
000000a0: cb1e 5abe 13a8 36be 1cc0 393e 9510 843e
000000b0: 412c 53be 2c57 55be a876 62be de87 c0be
000000c0: 83f1 503c 8d2f b0be f303 0abe 3c49 21be
000000d0: 1b71 5fbe 5655 95be 264c 8abe c0ca 863d
000000e0: 9313 c63c feba 0fbe 6d30 9c3e 0435 3b3e
000000f0: ba0f 8d3e f44c 143e c5e5 763e bd74 fbbc
-0.07710982 0.3006532 -0.0025375804 -0.15468912 -0.26692346 0.068541914 0.16051805 0.20782533
-0.011827875 0.067480944 0.13644142 -0.23033622 0.21236403 -0.028879328 -0.24323168 0.07771997
0.2170252 -0.36733708 0.15956178 -0.36466312 -0.11952923 -0.2064969 0.23049977 -0.16656855
-0.38277045 -0.0030054755 0.32599914 -0.2329024 -0.2662215 -0.19429822 -0.0068496154 -0.13316609
0.26806164 -0.17101416 -0.18018965 0.073475905 -0.30539653 0.325073 -0.31744447 -0.045122243
-0.21300809 -0.17837553 0.1813969 0.257939 -0.2062235 -0.20834035 -0.22115576 -0.37603658
0.012752893 -0.34411278 -0.13478069 -0.15750593 -0.2182049 -0.2916667 -0.27011222 0.0658164
0.024179256 -0.14036176 0.30505696 0.18281943 0.2755106 0.1448248 0.24111088 -0.030695314

animal_transform1.weight f4 [64, 64]
00000000: 66d6 12bd 08ca fd3d 331d 023e 4a08 dd3d
00000010: a1af 47bd 981e 95bd bd3b 8bbc a23f ee3d
00000020: 588b 363d 36c7 8fbd 859d de3d 2b35 663d
00000030: 0956 ee3d a295 ce3d a4c8 a63d 64ce 85bd
00000040: 0d3b 1f3e e589 82bd 0141 733d 4a7d bebd
00000050: f901 293d a62f 08be b7ff 1fbd 5a25 05bd
00000060: 3b7b 05bd 62d4 c93d 4855 bc3d 1053 cdbd
00000070: 15e7 06bd 3376 743d c33d cdbc 9d96 7e3d
00000080: c692 71bd a92d 9c3d 050e e3bc a5fd 083d
00000090: 264c 48bd b711 d33d ad90 90bd 5b85 fdbc
000000a0: d4ae acbb 7edf dcbd b21a 4f3e d03c 263d
000000b0: f867 22be e15d 16bd 822b 1e3d fe75 81bd
000000c0: 7802 ff3d 6a62 233d ef9b f83c 5359 1a3a
000000d0: d6cb d3bd fbab 08be 6ba3 833d b686 c5bd
000000e0: 3312 73bd e126 283d 4570 d3bc b875 cd3d
000000f0: 1853 c23c a7a9 233e fdea 0c3d c101 f8bd
00000100: cf1f 5abd 4e1e 203d 6c9c 20bd 929a a13c
00000110: 3ce2 223d 2db7 6bbd 7323 aa3d 2fde cdbd
00000120: 94b4 e03d 4448 f7bc 2771 bbbc 640c ad3d
00000130: 6e9f dd3d 57c8 86bd 4dc7 fb3c 04d1 b73c
00000140: ee3b 013d e0d7 e03c d60c e3bd b018 093d
00000150: 2a97 0abd 9669 043d 89a0 5b3d 4dd7 0c3d
00000160: 372d ccbd 1eca 863d 9384 97bd 4e51 81bd
00000170: f452 39bd 2695 a1bd d3ed b7bd f6f2 af3d
00000180: 5079 e7bd 29ba d0bd 1e9a e03d 2708 f33b
00000190: 9ab8 a9bd 3b41 c1bc a2fd d9bc 49fd bc3d
000001a0: 5688 df3d b010 0cbc b4f4 013e c0f3 d4ba
000001b0: 2f2d 22bc ae3a bd3d 2f66 843d 5efc a63d
000001c0: 9d29 a4bd d83d 46bd a9e2 c73d a40a cdbd
000001d0: d4c1 d83d b7ff afbd c8c0 833b 2d2c 233d
000001e0: c927 bdbc ce0b 3c3b 33df dfbd deeb 07bd
000001f0: 94b8 a93d 89bc 7abd c3bc 753c d9ef e2bd
00000200: ae79 113d 447a fbbd 83dd 44bd d18b acbc
00000210: 659b 903d 5c06 88bd 1590 723d 8350 c1bc
00000220: a424 ac3d b464 853d 4b9e debd 534c a63d
00000230: f15a c93c f97e 953d c973 d83c c889 ca3d
00000240: d50e 0b3d 7d92 c93c 6f65 a03c 70ce 0e3d
00000250: e207 bb3d 5281 bc3d 2a5e b9bd e42d b6bd
00000260: f601 063e dc6f 863d 538a b03d 38ca ec3c
00000270: 08af ae3d 0598 b9bd 35a5 e83d 8c70 043e
00000280: ea92 db3d ed74 95bd 5dac 50bd 9d77 09be
00000290: 613f 4bbd 9d6d 5e3d 7d22 b4bd 7a0a 6b3d
000002a0: a9c6 fcbc 57f1 93bd ba6d f4bd 671f 35bd
000002b0: 3bf0 9dbd 314c 233d 69bc 0fbd 95c2 09bd
000002c0: a48a 583d 1fbc dc3d efea 9b3d dab5 81bc
000002d0: 58a0 053e 3d88 96bd 4c47 a9bc 6db5 a1bd
000002e0: bb81 2dbc 8482 ad3d 7828 90bd 667e 14be
000002f0: d240 1b3d 4bf8 1e3c c04f e2bc 037c ebbc
00000300: f4e2 dc3d 39d0 b43d 8d47 aa3c 6e37 ecbb
00000310: a2ec dc3d 96ea 5b3d 07bc 01be b94d bf3d
00000320: 7efd 53bd 3963 1a3e f7ae 4d3c 6c8e 2d3d
00000330: 77e5 eb3d 63c6 dc3c 6c0c ee3d 41dd 853d
00000340: b4fd 1e3d 83c4 96bc 4143 223c 1c40 243d
00000350: e021 133c 67ec 2bbc 2fd6 e5bc 012b 9bbd
00000360: 5b8a 043e 91d9 a53d fb68 b5bd dd01 d23d
00000370: 0131 193d 4184 d73d f3e6 b6bd e9de 95bd
00000380: 5bd8 623d 6c5a 15bd 9308 13bd 1901 2e3c
00000390: 24a6 5bbd de9c e2bd fb8e 71bd fbb2 013e
000003a0: 3c00 fc3c 0a72 acbd 5313 a23d 4d7b c33d
000003b0: 0a88 953d a63c 043e 6d4d e03d dedf 95bd
000003c0: 855e 623c 038d b73b c178 413d 7fbe 30bd
000003d0: c132 9fbd 97e6 ff3d e1e1 22bc f5f9 17bc
000003e0: 49bb 67bc 33d8 593d 4042 a23c 8deb 08be
000003f0: ddbb 913d d903 903d b325 833c 9292 52bd
-0.035848998 0.1239205 0.12706451 0.10792597 -0.048751477 -0.07281226 -0.016996259 0.11633231
0.044566482 -0.07020418 0.10869888 0.05620305 0.11637504 0.10087134 0.08143738 -0.065335065
0.1554987 -0.063739575 0.059388164 -0.09301241 0.041261647 -0.13299426 -0.039062228 -0.032506324
-0.032588225 0.09854962 0.091959536 -0.100256085 -0.03293522 0.059683036 -0.025053864 0.062155355
-0.058977865 0.076258965 -0.027716646 0.03344502 -0.048900746 0.10306113 -0.07058845 -0.030947378
-0.0052698646 -0.10784815 0.20225027 0.04058534 -0.15859973 -0.036710624 0.03861571 -0.06321333
0.12451643 0.039888777 0.030347792 0.0005887944 -0.10341613 -0.13346855 0.06427654 -0.09644835
-0.059343528 0.041052703 -0.02581037 0.10032219 0.023721263 0.15982686 0.03440379 -0.121097095
-0.05325299 0.0390914 -0.039211676 0.019727025 0.039766535 -0.057547737 0.08307543 -0.10052144
0.109719425 -0.030185826 -0.022881104 0.08449629 0.108214244 -0.065811805 0.030734682 0.022438534
0.031551294 0.027446687 -0.11086433 0.03347081 -0.033835568 0.032327257 0.053619895 0.034385014
-0.099695615 0.065815195 -0.073983334 -0.06314336 -0.045245126 -0.07889776 -0.08980908 0.08591263
-0.113024354 -0.10191757 0.109668955 0.0074167433 -0.08287163 -0.023590675 -0.0266102 0.09227998
0.10914676 -0.0085489005 0.12691003 -0.001624696 -0.009898468 0.09239708 0.064648025 0.08153604
-0.080157496 -0.048398823 0.09760029 -0.10011795 0.10583845 -0.085936956 0.004020784 0.03983705
-0.02309026 0.002869356 -0.10931244 -0.033183925 0.082871586 -0.061214957 0.014998618 -0.110809036
0.035516433 -0.1227918 -0.048062813 -0.021062763 0.07060889 -0.06641838 0.05921944 -0.023597961
0.08405426 0.06513348 -0.10870036 0.081200264 0.024579497 0.07299609 0.026422398 0.09889561
0.03394969 0.024605984 0.019579617 0.034864843 0.09132363 0.092043534 -0.090511635 -0.08895472
0.13086686 0.06564304 0.08620133 0.02890502 0.08529478 -0.090621985 0.11359636 0.12933558
0.10721381 -0.072976924 -0.05094563 -0.13424535 -0.04962099 0.054303754 -0.087956406 0.057383038
-0.030856447 -0.07223766 -0.11934991 -0.0442194 -0.07711836 0.039867584 -0.03509179 -0.033632834
0.052866593 0.10778069 0.076131694 -0.015833784 0.13049448 -0.07350204 -0.02066388 -0.07895932
-0.010590012 0.084721595 -0.07038969 -0.14501342 0.037903614 0.009702752 -0.027625918 -0.028745657
0.107854754 0.08828778 0.020786071 -0.007208756 0.107873216 0.053690515 -0.12669383 0.09340996
-0.05175542 0.15076913 0.012553922 0.042372152 0.11518376 0.026950067 0.11623463 0.065363415
0.03881617 -0.018404251 0.00990373 0.040100202 0.008980244 -0.010493374 -0.028056232 -0.07576562
0.12943403 0.08098138 -0.08857914 0.10254262 0.03740025 0.10523272 -0.08930769 -0.07317907
0.055382114 -0.036463186 -0.03589685 0.010620379 -0.05362524 -0.11065076 -0.058974247 0.12665932
0.03076183 -0.08420189 0.07913842 0.09545002 0.07301338 0.1291376 0.10952268 -0.0731809
0.0138164805 0.0056015267 0.0472343 -0.04315042 -0.077733524 0.124951534 -0.009941549 -0.009275903
-0.014143773 0.0531847 0.019806981 -0.13371105 0.0711591 0.07031984 0.016009187 -0.05140931

animal_transform1.bias f4 [64]
00000000: fad3 043e ade1 64bd 162e c4bb 6745 a1bd
00000010: 3b66 7cbd b49e 083e f2a4 43bd a5d7 62bd
00000020: ba48 bf3d 6c31 9abd ec9d f13d b5ab cb3d
00000030: ad3f febc 949f 913c 3fba b4bc 0302 9ebd
00000040: 4756 13bd 82a0 82bd 1bed 8fbd 9f4e a23b
00000050: 5afd 6f3d 74a0 afbd f5b9 d53d e2f4 b9bd
00000060: 73b6 f8bd de69 013e 63be f1bc 0f39 713c
00000070: efa3 c13d b823 7bbd c2b0 ab3d c598 7abd
00000080: 52cb afbd cdc5 bcbd cd5e a03d 3878 03bd
00000090: a36a c13d d81d 833c d860 01bd fa3a ad3d
000000a0: 667a 45bc 1b6b 223d 80ca 253e 0b17 f63d
000000b0: a377 5cbd 4b70 57bd 9543 0c3e 8607 173e
000000c0: be23 a13d e350 0abe e370 503c b3af cd3d
000000d0: ab00 c63d 3d79 153e 5437 13bd b808 a13d
000000e0: afdc 553d b4c1 c0bd 2d01 60bd a631 ccbd
000000f0: 78ec 333d 2666 263d 8e30 ee3d 16d4 aebc
0.12971488 -0.055879284 -0.005986939 -0.078745656 -0.061620932 0.1334179 -0.047764726 -0.055381436
0.09340043 -0.07528958 0.11797699 0.0994486 -0.031036222 0.017776288 -0.022061465 -0.077152275
-0.035970952 -0.06378271 -0.07027646 0.00495322 0.058591224 -0.08575526 0.10435859 -0.09079911
-0.121441744 0.12638041 -0.029509729 0.0147230765 0.09455096 -0.06131336 0.08383323 -0.06118085
-0.08583702 -0.09217415 0.07830582 -0.03209707 0.094441675 0.016005442 -0.031586498 0.084585145
-0.012053108 0.039652925 0.16190529 0.12016114 -0.053825032 -0.052597325 0.13697655 0.14748964
0.078681454 -0.13507418 0.012722227 0.100432776 0.09668096 0.1459703 -0.035941437 0.07862991
0.052212413 -0.09411946 -0.05468862 -0.09970407 0.043926686 0.04062476 0.11630355 -0.021341365

animal_transform2.weight f4 [64, 64]
00000000: 0142 c03c a0e9 c7bd adec 663d 217e c3bd
00000010: 7d05 c9bd 0144 3f3d 7afa b63d 97b8 433d
00000020: 4d68 2e3d 21ec e83d a2cf 75bd 92ad a6bc
00000030: 1f83 a2bc f246 b83c 65f1 e6ba e56b 07bd
00000040: d6f9 933c d894 e43d 039a 9dbd 78ab e7bb
00000050: 1ac7 d0bd 00ac dbbd 6811 1f3c 3798 f6bc
00000060: 5e72 003e d4f6 a43d e0fa 8c3c 9fde 04bd
00000070: e751 3fbc bd02 82bc be13 4dbb e69a eb3d
00000080: 343d 3ebd 139e b43d cbe4 d93d fedc a53d
00000090: ecc5 dabc a46e fb3d e32e acbd d057 083e
000000a0: 63f0 83bc f0f0 783d fc9d 0abd ce53 03bb
000000b0: d335 713d 8f97 efbd c3af babc 59c4 183e
000000c0: 45df 60bd bff2 ad3d e54e ad3d cd3a c0bc
000000d0: d158 553b af7f e53d 04e2 ec3d ad8c 623c
000000e0: 0823 66bd b882 5bbb dce5 153d 0298 e13d
000000f0: c981 1dbd f7f7 1cbd c443 a53d a013 f23d
00000100: 1565 d5bd 624c 70bd a4cf 673d 1eea 933d
00000110: f593 d5bd ab32 4bbd 701a 873d 6c6c b1bd
00000120: 9d46 0bbd 1430 bd3d 031d dbbd b2f0 45bd
00000130: 290f e03d ae7e e6bd d130 eebd 69b6 9d3d
00000140: 74fe e7bd ec82 d93d 6483 46bc 367f c13d
00000150: 286b bf3d 935e 003d bc34 35bd 9ae6 6cbd
00000160: 0285 813d 9441 8abd bbf0 afbd dbf4 883d
00000170: c968 583d 4832 00be a57f 693d 1727 463d
00000180: f66f ecbd 7e54 343d 741f 31bd 8e53 8c3d
00000190: 0dcc 7abd 6677 eb3d d351 80bd cf00 a8bd
000001a0: 5517 e2bc fc76 b03d 7719 a4bd c6b9 01bd
000001b0: 04e6 b8bc b91a b33d 594c 373d 5c47 8a3c
000001c0: 08a8 94bd 640d 90bd aa0f 94bd ce4c 01bd
000001d0: 244b 0dbd addf 823c 18a8 2ebd ccc9 97bd
000001e0: 2205 b4bd d36f f3bd cb1f 5abc 0c7c 70bd
000001f0: ef1a ca3d 1f40 b2bd 3698 7b3c 5ded 15be
00000200: 98ec 0cbe 8157 c8bd d09b b7bd 820b 443c
00000210: 53b4 0abe 5a53 183d 8f84 d2bd 8975 aebd
00000220: 6439 033d b754 d5bd 69ca 9fbd 4c44 a23d
00000230: 796e b73d 8743 48bd 7168 f23c a1ce 26bd
00000240: dc27 a0bd a0cb 043c 8c26 333d e43a 763d
00000250: 3efb 1dbd abaf 4b3c f45c 2c3d 0cef 5bbd
00000260: 0a84 f9bd cc95 c1bd 01be 7f3c 9bf4 93bd
00000270: a07d b8bd b019 b5bc d0b1 80bd 54ed 3b3d
00000280: 68a8 053d 9cb0 e2bd 1051 ebbd 6a97 c5bd
00000290: d9bd 3dbd 60ff d1bd 1e83 e3bd 6698 fb3c
000002a0: ed8e d2bd 247b 193d 31ae 723d fadb 3f3b
000002b0: c802 76bd 0d0d e43d fdaa 1bbd 517d d2bd
000002c0: a10b d2bb 36c8 853d 438f c7bd a4d7 10bd
000002d0: b514 f0bd 3964 89bd c971 0a3d ea75 9b3c
000002e0: 2c5a c4bd 2b94 d63c 40bc 89bd fce6 8abd
000002f0: 8b71 a6bd 6514 f4bc c7e7 a4bd 5bbb 15be
00000300: 2930 123e 0682 13bd c8f5 013e b3b8 12bd
00000310: d5b9 5fbd 94ac 05bd d005 f9bc fb52 413d
00000320: d6ca 883c 7623 09bc b593 7abd 0081 bcbc
00000330: b7ba 08bd 952e b43d 31c2 1b3d 978e ca3d
00000340: 9ea2 ad3d a86b d7bc 232e 1e3d cbec 0f3d
00000350: 0c15 8cbd 8792 3d3d d67e 7e3d 2297 923d
00000360: 9dfb e4bd 005d 823c a5ba 3d3d 8905 133e
00000370: ee38 ae3d 65c5 b63d a4d8 42bc fdce 843d
00000380: 966e ca3d b883 a4bd f5a0 973d a8bd 763d
00000390: 5e2c eb3c 9821 2fbd 6a81 47bd 3984 b93d
000003a0: 1813 f13d 1c1e 953c ad5f d83d ec8b d43c
000003b0: 90e2 96bc b1df 5cbd cf7f f13d d2c0 fb3c
000003c0: 5a92 4f3c 1fb7 ce3c ba9a 4ebd fe9b 8fbd
000003d0: 3c30 873d 6877 e63c ad50 bd3c bda8 ce3d
000003e0: c846 cd3c 3c7f 0d3d 6ddc ad3d 84cb 17bd
000003f0: bd37 723d 1250 083e 4969 ec3d 7bf8 d23c
0.023468973 -0.09761357 0.056378055 -0.095455416 -0.098155 0.046695713 0.08934493 0.04778346
0.042579938 0.11373163 -0.060012467 -0.020346437 -0.019837914 0.022494767 -0.0017619549 -0.03306188
0.018063467 0.11161202 -0.07695391 -0.007070001 -0.101942256 -0.10726166 0.00970874 -0.030101879
0.12543628 0.08054891 0.01720947 -0.03243887 -0.011677242 -0.015870446 -0.0031292285 0.11504154
-0.046445087 0.08819213 0.10639342 0.080987915 -0.026705705 0.122769624 -0.084073804 0.13314748
-0.016105836 0.06077665 -0.033842072 -0.0020038965 0.05888922 -0.116988294 -0.022788888 0.1491865
-0.054900426 0.08493566 0.084623136 -0.023465538 0.003255416 0.11205994 0.115665466 0.013827485
-0.056185752 -0.0033494662 0.036596164 0.11015321 -0.03845385 -0.038322415 0.08069566 0.118201494
-0.104196705 -0.058666594 0.056594506 0.07222389 -0.10428611 -0.049608868 0.065968394 -0.08663258
-0.03400289 0.09237686 -0.10698893 -0.048325248 0.109403916 -0.11254631 -0.11630405 0.077008076
-0.1132783 0.106206745 -0.012116287 0.09448092 0.0934661 0.031340193 -0.044239745 -0.057837106
0.06324197 -0.06750789 -0.085908376 0.066873275 0.052834306 -0.12519181 0.057006497 0.048377123
-0.11544792 0.04402589 -0.043242887 0.06851874 -0.061229754 0.11497383 -0.06265607 -0.08203279
-0.027599016 0.086164445 -0.080126695 -0.031671308 -0.022570617 0.08745331 0.044750545 0.01687973
-0.07258612 -0.07033804 -0.0722955 -0.031567387 -0.034495488 0.015975798 -0.042640775 -0.074115366
-0.087900415 -0.11886563 -0.013313244 -0.05871205 0.098684184 -0.087036364 0.015356114 -0.14641328
-0.13762128 -0.09782315 -0.08965266 0.011965634 -0.1354535 0.037188865 -0.1027919 -0.08518512
0.032037154 -0.10416549 -0.078022785 0.07923183 0.08956618 -0.048892524 0.029590817 -0.0407244
-0.078201026 0.008105189 0.043737933 0.060114756 -0.03856968 0.012432019 0.042080835 -0.05369477
-0.121833876 -0.094523996 0.015609265 -0.07224389 -0.09008336 -0.022106975 -0.06283915 0.04588063
0.032631308 -0.11068842 -0.11490071 -0.096480206 -0.04632363 -0.10253787 -0.11108993 0.030712318
-0.10281167 0.03747095 0.059248153 0.0029275403 -0.060061246 0.11135302 -0.038004864 -0.102778085
-0.0064100777 0.06532328 -0.09744122 -0.0353619 -0.117226996 -0.06708569 0.03379992 0.018977124
-0.095875114 0.026193699 -0.06725359 -0.06782338 -0.08127125 -0.029794881 -0.080520205 -0.14622252
0.14276184 -0.036012672 0.12691414 -0.035820674 -0.054620583 -0.032635286 -0.03039828 0.047198277
0.016698282 -0.008370271 -0.06117602 -0.02301073 -0.03338119 0.08797947 0.038026992 0.09890478
0.084782824 -0.026296452 0.03861822 0.035137933 -0.06839952 0.046282317 0.06213268 0.071577325
-0.11180804 0.015913486 0.046320576 0.1435758 0.08506952 0.08924369 -0.011892471 0.064847924
0.09884374 -0.08032936 0.07403747 0.060239464 0.02870768 -0.042756647 -0.048707403 0.090584226
0.1177122 0.018202834 0.10565124 0.025945626 -0.01841858 -0.053924266 0.11791956 0.030731592
0.01266917 0.025233803 -0.050440527 -0.07012175 0.06600997 0.02813311 0.023109758 0.10090778
0.025058165 0.03454517 0.084893085 -0.037059322 0.059135187 0.13311794 0.11543519 0.02575325

animal_transform2.bias f4 [64]
00000000: 32e9 393d 56a1 22be 8238 ca3b 58ba c6bc
00000010: 35c2 cbbd 9898 c13d 48e3 18bd ec88 cf3d
00000020: b3da fe3d 3bfc 8dbd 46bc 2e3d a6a1 a8bd
00000030: cb8e 853d 746e 38ba e51a 013e b56f d2bd
00000040: 93ca 6c3d cc38 c6bb 6bf5 a73d bed7 7fbc
00000050: 00c3 ca3d 4df6 b0bd 5cf3 c8bd eb51 5f3d
00000060: 8023 a03d 7929 a03c a77e 04be de81 3fbd
00000070: 5732 bb3d 9634 58bd c156 73bb b273 ef3d
00000080: 4716 273e 614d 993d 234f 0dbe 9c25 a33d
00000090: 35bd 8ebd 96f4 a63d e31e 9fbd f027 edbd
000000a0: 9c4e 1b3d 9635 8bbd 0db3 c53d e834 c63d
000000b0: 92a2 893c 001c 8ebd a69f e03c e029 3d3d
000000c0: d1e5 183e 3100 c33d 4090 dabd 7675 753c
000000d0: 1b80 9abd 0895 d23b 221c 3b3d 9c69 0bbe
000000e0: 16b9 b23d 7566 0bbe 06f0 3e3d 659c 80bc
000000f0: 5417 943d 98da 293e ec06 103d f83c d2bd
0.045388408 -0.15881857 0.006171287 -0.024258777 -0.099491514 0.09452933 -0.037326127 0.10133538
0.12444057 -0.06932875 0.04266002 -0.08233957 0.06521376 -0.0007035502 0.12607916 -0.10275213
0.057810377 -0.006049251 0.08201107 -0.015615402 0.099004745 -0.08640728 -0.09812042 0.054521482
0.07819271 0.019551026 -0.12938939 -0.04675471 0.09140461 -0.052784525 -0.0037130567 0.11691989
0.16317092 0.07485462 -0.1379972 0.07966158 -0.06969682 0.0815212 -0.07769563 -0.11579883
0.037916765 -0.0679733 0.09653292 0.0967806 0.016801152 -0.06938934 0.027419876 0.046182513
0.14931418 0.09521521 -0.10672045 0.014981618 -0.075439654 0.0064264573 0.045681126 -0.13614506
0.087267086 -0.13613303 0.046615623 -0.015699575 0.07231012 0.16587293 0.03516285 -0.10265535

attention.query.weight f4 [64, 64]
00000000: 6205 e73d 6323 49bd fbca bbbb 5b47 84bd
00000010: 096e c73d d765 de3d 4f1b 003e 923d 91bd
00000020: b184 14bd ca19 8c3c 7192 3bbc 3315 89bc
00000030: 307a 8abb 9794 83bc 1594 9fbd 9c8c b3bd
00000040: 6667 81bd 54e2 8abd 970b 9abd b50c 933d
00000050: a025 86bd 2a2c b1bd e497 d23d 8418 d3bd
00000060: dda6 1cbd 1a0f ed3d c197 263c a32b 773c
00000070: 2116 8bbd 1ca9 023d bb17 6abd 42d4 a3bd
00000080: 3612 ae3a e6b6 073e 5ace babd 9b30 b2bd
00000090: 4800 153d 3e90 2dbd bc7a 753d dc13 173d
000000a0: 3e14 fc3c c613 0c3d fdc7 aabd 8730 173d
000000b0: 021b c5bd 94c8 c43d 4ed9 c23d e9ed f93c
000000c0: 7588 4bbd f761 a3bd b10d a6bd 14e1 70bd
000000d0: c9a6 07be c61a 9d3c 3189 c4bd 9444 a83d
000000e0: e493 c9bd 139e 483c 0cc7 ec3d cce5 6d3c
000000f0: ba7c aabd 3a0b 8f3d 3983 a6bd 8f34 da3c
00000100: 9252 cf3b 8c0b 4cbd 50d0 883d 0f0f 6e3d
00000110: 26c0 ca3c 7c66 17be 1b84 a4bd 3e4e 09be
00000120: dc16 72bc 4c78 243d c071 6e3d de0d e2bd
00000130: e32a f6bd ce4d 09bc ccca 493c c449 b13b
00000140: 5c62 1bbd 65b1 e13c b6cc 173d 876e 16bd
00000150: 3b77 b8bd 828e bfbc 9db5 b53d 3dce ad3d
00000160: 79a2 01be fe21 933d c229 6bbc 69f8 a13b
00000170: 7363 bd3d 34dd d3bb b7d6 8c3d 8e2f a7bb
00000180: 9124 aa3d f987 cf3b dca2 c13d be6f b4bd
00000190: b70c 093d 8065 63bd 843d cb3d 9bce f13d
000001a0: 5b8e 9bbd 2552 9a3c 0e0c 88bd e03c 92bd
000001b0: b938 ce3d 91b0 4a3a 10bc 5abd 782c bdbd
000001c0: 1bb0 00bd ceed bfbd 0ddb 0a3e d2a8 063e
000001d0: 21fe d73d 79e7 003e 2f20 6f3d 6f87 db3d
000001e0: b546 a43b 074e 303d 5973 4a3b dcbe fa3d
000001f0: 1f71 003e e033 813d 8ed1 8d3d dd3f a83d
00000200: 6d5d 9abc 3ceb 933d ac77 e63b b999 d4bd
00000210: 17f1 6ebd 5012 813d 3f3f 5bbc 6082 a0bd
00000220: a18f d93d 3b98 e5bd 327e 0d3e c1a6 c93d
00000230: b35f 4fbd c4be ab3c 3aef d5bb a0d4 2f3c
00000240: 6f4a 8f3d 0e12 27bc dd3d d03d de45 3ebd
00000250: 953e f6bc 8b97 d93d e25b bcbd 5209 22bd
00000260: 0f0a 933d 208a bf3d 6eab e8bd 47ac 7b3d
00000270: 0889 8f3d 5109 06be 9dbc 943d 3a79 ad3d
00000280: e17c 71bc 6a13 043d e9ca 8f3d 5e6e 383b
00000290: 1422 9e3d 816f c0bd 6e16 b3bd b83f 003c
000002a0: dd31 233d 9472 a7bd 4f91 0fbd 82d0 23bd
000002b0: 084d f5bd 3384 f43c 003c e7bd 32c5 bf3d
000002c0: 465d a9bd 4847 f9bc d6f2 09bc eaf1 873c
000002d0: 2f21 d3bd 2528 b4bd e218 673d c017 fcbd
000002e0: fb34 6c3c e56c 3bbd 8ce8 f03d 1e0c 8fb9
000002f0: b453 40bd 842a d13d 279f fe3d debe 6ebd
00000300: 5dda e43d 795d a0bd 1e75 d3bd f06c 90bd
00000310: 5e91 c33d f81d 363d 998f b0bd f8e8 d63d
00000320: fae8 963d 4573 cb3d 0fb0 eb3d 07a0 9ebd
00000330: 4f47 a93d 76cd fabd adcb efbd 6bdb dc3d
00000340: db35 983d c2da 8e3d 1cda 953d 667f 3ebd
00000350: 1b35 e0bc 09c0 d4bd 9007 2e3d 6a32 65bc
00000360: c262 c03d e224 983d 6bf5 94bd f668 3b3d
00000370: 62bf 37bd 4be5 c63c 3c2a 9c3d f49e 213d
00000380: 72aa d0bd 2c91 86bd 68ca a63c 10eb b2bd
00000390: 2305 ff3c f41b 623c 32cc d1bd 79a1 5dbd
000003a0: 66b2 903d 00af 4ebd 5073 f43c cd8a d7bd
000003b0: 1e0c 8a3d a519 7abd d46f 84bd e729 bdbd
000003c0: 7999 9fbb 7a3e 42bc 1cc5 e53c f45e afbc
000003d0: dc1b 143d 816b cabd a91e c33d 7530 f6bd
000003e0: a554 9abc 259f bdbd 9a05 aabd 9b21 d73c
000003f0: e540 e1bd cc89 cc3d 69ce db3c 1a32 f2bd
0.112803236 -0.049106013 -0.0057309843 -0.064589225 0.097377844 0.10859268 0.12510417 -0.07091822
-0.036259357 0.017102141 -0.011448489 -0.016733741 -0.0042259917 -0.016062064 -0.07791916 -0.087670535
-0.0631855 -0.0678145 -0.07521742 0.07180158 -0.06550145 -0.08651002 0.10282877 -0.1030741
-0.03824507 0.11575146 0.010168017 0.015086087 -0.0679133 0.031899557 -0.057151537 -0.07999469
0.0013280574 0.13253364 -0.0912139 -0.08700677 0.03637722 -0.04237389 0.0599315 0.036884174
0.030771371 0.034198545 -0.08338926 0.036911514 -0.09624292 0.0960857 0.09514104 0.030508952
-0.049690682 -0.0797767 -0.0810808 -0.0588084 -0.13247217 0.019177806 -0.0959648 0.08216205
-0.09842661 0.012244719 0.11561403 0.01452012 -0.08324571 0.06984563 -0.081304975 0.02663639
0.006326982 -0.0498157 0.066803575 0.05811983 0.024749827 -0.14785188 -0.080330096 -0.13408753
-0.014775958 0.040153787 0.05821395 -0.11037801 -0.12019899 -0.0083803665 0.012316417 0.005410405
-0.0379356 0.027550409 0.037060462 -0.0367265 -0.090071164 -0.023383383 0.088725306 0.084866025
-0.12659635 0.07184218 -0.014353218 0.004942943 0.09247484 -0.0064655785 0.06876891 -0.0051021045
0.08307756 0.006333348 0.09454891 -0.08810376 0.03345939 -0.05551672 0.099238425 0.11806985
-0.075955115 0.018837998 -0.06642924 -0.07140517 0.10069413 0.0007731999 -0.053402007 -0.09236997
-0.031417947 -0.093715295 0.13560124 0.13150337 0.10546518 0.125883 0.058380302 0.10719191
0.0050133117 0.043043163 0.0030891506 0.12243435 0.12543152 0.063087225 0.06924735 0.08215306
-0.018843377 0.07222602 0.007033309 -0.10380883 -0.05833539 0.06302321 -0.013381778 -0.07837367
0.10623098 -0.11210676 0.13817671 0.09846259 -0.050628375 0.020964988 -0.006528762 0.010731846
0.06996619 -0.010197176 0.101680495 -0.04645335 -0.030059138 0.10624608 -0.09197213 -0.03955967
0.07179653 0.09352517 -0.113608226 0.061443593 0.070085585 -0.13089491 0.07262538 0.08470388
-0.014739246 0.032245077 0.07021124 0.0028141956 0.07721344 -0.09396268 -0.087445125 0.007827692
0.039842475 -0.08176151 -0.035050686 -0.03999377 -0.11977583 0.029848194 -0.11290741 0.09363784
-0.082697436 -0.030429497 -0.008419713 0.016594846 -0.10309064 -0.087967195 0.056420214 -0.123092175
0.014416928 -0.045758147 0.11763105 -0.00027284113 -0.046954826 0.10213187 0.124327 -0.058287494
0.11174462 -0.078303285 -0.10325073 -0.07052028 0.09549211 0.044462174 -0.08621139 0.10493654
0.073686555 0.09934095 0.1150819 -0.077453665 0.08265554 -0.1224622 -0.1170877 0.10784038
0.07432147 0.069753185 0.07316992 -0.046508215 -0.027369073 -0.1038819 0.04248768 -0.01398907
0.093938366 0.0742891 -0.07273372 0.045754395 -0.04486025 0.024279257 0.07625243 0.03945823
-0.1018876 -0.06570658 0.020360187 -0.08736241 0.031130379 0.01380061 -0.10244025 -0.05410907
0.07065277 -0.05045986 0.029840142 -0.10524521 0.067405924 -0.061059613 -0.06466642 -0.09236508
-0.0048705903 -0.011855716 0.02804809 -0.021407582 0.03615938 -0.09883786 0.09527332 -0.12020961
-0.01883919 -0.0925887 -0.0830185 0.026261142 -0.10998706 0.0998722 0.026831822 -0.11825962

attention.query.bias f4 [64]
00000000: c289 aebd b99c 663d 758e 31bd c103 b1bd
00000010: af6c 38bc e624 bbbd fde9 82bd 37af f5bc
00000020: be4e cd3c b2dc 433c 90e8 d53b 99a3 88bd
00000030: 18a3 e0bd f49a 29bd 6554 913d 139c 16bd
00000040: 7d12 013e ab47 ac3d 4e7f 7b3d 1613 4c3d
00000050: 60c4 323d f2ae 80bd 25e4 5d3d 2f29 be3d
00000060: 2f79 07bd 75ea e7bd c7d4 023e f21d 0abe
00000070: 08c0 f1bd 28be 30bd 8595 09be 2bd9 dd3d
00000080: f56d bc3c bbc9 6a3d 892d ac3b af3c a3bd
00000090: ff6b c9bd ec09 bc3d 7e69 183d 3c61 07be
000000a0: f313 3abd d66f c5bd 5126 89bb 223e a6bd
000000b0: 44d8 a3bd c02c b03b ab14 c2bd 8ada 0f3b
000000c0: 6cdc a13d 5d59 033d 7611 b2bc b0ce 09bd
000000d0: ef7a 5cbd 774c 29bd 263f 08be 38ca fd3d
000000e0: d580 ae3d 14e9 803d a656 ac3d fb4a 963d
000000f0: b2ec e7bd e1f1 9e3d 0ef4 e63b 46f3 a33d
-0.08522369 0.056301806 -0.04334875 -0.08643294 -0.011256381 -0.09137897 -0.06392286 -0.029990776
0.025061961 0.011954473 0.0065279678 -0.06671829 -0.10968608 -0.04140754 0.07096175 -0.036769938
0.12604709 0.08412107 0.061400704 0.04982289 0.04364431 -0.06283368 0.054172654 0.09285199
-0.033074554 -0.11324016 0.1277648 -0.13487986 -0.11804205 -0.043150097 -0.13435943 0.10832437
0.02300165 0.05732129 0.0052544517 -0.07970559 -0.09835052 0.0918158 0.03720998 -0.13220686
-0.04542918 -0.09640472 -0.004185476 -0.0811732 -0.08000234 0.0053764284 -0.09476598 0.0021950328
0.0790337 0.032067645 -0.021736842 -0.03364438 -0.053828176 -0.04133269 -0.13305339 0.12392086
0.085206665 0.06294456 0.084149644 0.0733852 -0.11324443 0.077609785 0.0070481366 0.08005385

attention.key.weight f4 [64, 64]
00000000: d035 bc3d ea8b 73bd ce6a d23d 83f6 75bd
00000010: fe83 14bd adc0 4bbd 5709 203c 604e f63c
00000020: c182 183d 19de 5c3c 6c2f cb3d 1156 6e3d
00000030: 725a 143d 6cc4 a43d 6c6f 45bb a54c ef3d
00000040: 0622 be3d 5255 b33d e5e4 d5bd 2c8b a03d
00000050: 5713 843c ac37 6cbd 46b4 bf3b 1c74 12bd
00000060: ff80 1c3c c46d eabd 52e0 85bd 2f79 b83c
00000070: f42a 8fbd c7dc e23d 9f6d 0f3b 12a4 2c3d
00000080: d0d4 983d 45bb 333d ead9 d93c 10d9 fdbd
00000090: 673f 25bc 2998 a13d a6bc 673c 3df0 9c3d
000000a0: 727b b73d 7d1c 78bd 6dec 9cbc 47dc 84bd
000000b0: 5942 57bd 06eb 16bc 072b 9e3b 3bcd 03be
000000c0: 50cf 80bd 9ce0 2dbd 2f46 75bd 7172 70bc
000000d0: deb8 823c 0735 a3bc db46 103d 4ab3 373d
000000e0: 3557 c73c 3025 643d b8a4 ac3a e5e4 bc3d
000000f0: b526 dfbd 0b07 be3d 717c 8dbd ac40 773d
00000100: 37f3 f53d ae92 1dbd 931b a83b 6f1a 1a3d
00000110: acbf e7bd 066f 9abd 411b ab3d 02aa d03c
00000120: 0b91 edbc d6b4 a8bc 078c 633d 92f1 433d
00000130: 74ba a8bc f343 72bd 47be 8dbc 3a9c 92bd
00000140: 5f01 2cbd ac5a a13d 9069 9b3d 8a0e 1abc
00000150: 4a77 173e d1f6 423b f804 ac3d 3856 973d
00000160: 0fd1 053e a546 b83d b293 88bc 543d edbc
00000170: fe43 6f3c 76a7 a4bd 6d78 ad3d eb8e 5dbc
00000180: e337 573d 921a e43d 1360 82bd 5ecd e3bb
00000190: e81d 383d 2496 9d3d a1e4 b6bc 8e09 01bb
000001a0: d412 d3bb 767b 93bd 11d6 20bd a326 ecbc
000001b0: b4ac eb3c e0c9 1cbe 499f 0abe 682e 13bd
000001c0: 5cbb 98bb 5f07 21bc e282 1dbe ebad e63b
000001d0: 2f4a 71bd ebfe 683d 2abf e53d 4bdb cebc
000001e0: 89b2 bb3d a0c9 3c3d a0e7 ec3d dc11 f1bd
000001f0: 3ff5 e0bd 11ec 2ebd 15e7 5a3d 4b25 45bd
00000200: 22b0 f6bc cb94 cabc a624 1ebd c030 ac3d
00000210: 65a7 013e 6647 1a3d dcf3 cebd 7308 fabd
00000220: 2de6 93bd d936 6a3d 68ca acbc dc91 0a3c
00000230: 78d2 a8bd bbc3 e23c b841 3a3b 0a1a 01bd
00000240: 8134 933d ed1e e33d 4fbe 4f3c f412 12bd
00000250: 2dd1 d0bd 7d8b 5cbd fdb0 cf3c d2b3 043d
00000260: 979d 1bbd e067 b2bd fbc2 003e 6557 65bd
00000270: 837d 19bd ffdd 053e 0835 00be f50e abbc
00000280: 8b3e 32bd 7227 48bc b0c2 e13d 5163 073e
00000290: 048e adbc f394 69bc 723c 603d ebaf fe3d
000002a0: 43db f9bd c091 683d f669 71bd 216f af3d
000002b0: e82e a83c 3d5d 20bd f9b1 86bd 2ec1 dcbc
000002c0: a72d 66bd 0874 6d3d 5c95 213e 3673 893d
000002d0: 5e30 383d 9ac9 9bbd b0d7 d73d 7233 4c3b
000002e0: 8a4f 97bd 88e1 f53d 613a fcbd f7e2 f0bd
000002f0: 31c8 6fbc f3da d0bd fea0 f83b a696 8b3d
00000300: f1fa 92bd dabf 0b3d f7bc 923d 2129 9c3c
00000310: 2b17 d4bd e8cd bb3d 9a3f 99bd 181c f63c
00000320: 951d f3bd b4a3 d8bd c84d 06be 0afa 91bd
00000330: 960d d93d d82a bd3c 9859 82bd ee7e cd3d
00000340: cfd9 9ebd 013a 9b3d 19ad 283d bc3f c03d
00000350: e631 f6bd b7ba ddbd 7952 e23d 7215 203d
00000360: 2d5d 34bc 362d b4bd 1fe9 ecbd 0052 ae3d
00000370: 402f d8bd 6f0c dabd c7ce 45bd 684d b83d
00000380: 9279 a339 445a a9bc 8617 df3d e0c1 f13d
00000390: 949f efbd 7013 18bc 3cd2 01bd f040 453c
000003a0: 985f afbd af6f f83d 00b6 debc 3ca8 253d
000003b0: f338 e9bc 401f df3d a56e ba3d cb6e 02bd
000003c0: b250 51bd 8244 f4bc 1a2a 0d3e ac47 aebd
000003d0: def4 a43d e1d9 593d 7def 7cbd 0280 ea3d
000003e0: 2f1d acbd e17a ea3d 478b 1d3d 880b 3a3d
000003f0: 2393 e2bd 6bc4 033a 6476 dc3a 86b6 a33d
0.091899514 -0.059459604 0.102742776 -0.060049545 -0.03625869 -0.049744297 0.009767852 0.030066669
0.03723407 0.013480687 0.099211544 0.058187548 0.036219068 0.08045277 -0.0030126227 0.11684541
0.09283833 0.08756508 -0.10444049 0.07839045 0.016122503 -0.05767028 0.0058503477 -0.03575526
0.009552239 -0.114467174 -0.06536926 0.022518722 -0.069906145 0.11077266 0.0021885408 0.042148657
0.07462466 0.043879766 0.026593167 -0.12394917 -0.010085917 0.0789035 0.014144098 0.07663009
0.08959092 -0.060574044 -0.019155705 -0.06487327 -0.05255351 -0.009211307 0.0048269066 -0.12871258
-0.06289542 -0.042450532 -0.059881385 -0.014675722 0.015957292 -0.019922746 0.035223823 0.044848718
0.024333576 0.055699527 0.0013171649 0.09223346 -0.10896055 0.09278687 -0.06908501 0.06036441
0.1200928 -0.038469963 0.00513024 0.037622865 -0.113158554 -0.07540707 0.08354808 0.025471691
-0.028999826 -0.020594042 0.055553462 0.0478378 -0.02059672 -0.059146833 -0.017302645 -0.07158704
-0.041993495 0.078786224 0.07588494 -0.00940288 0.14791599 0.0029749165 0.08399385 0.07389492
0.13068031 0.089978494 -0.01667199 -0.028959908 0.014603613 -0.08039753 0.08470235 -0.013522844
0.052543532 0.111378804 -0.06365981 -0.006951972 0.044950396 0.07694653 -0.022325816 -0.0019689533
-0.0064414535 -0.07201283 -0.03926665 -0.028827017 0.028768875 -0.15311384 -0.13537325 -0.03593293
-0.004661007 -0.009828418 -0.15381959 0.0070397756 -0.058908638 0.056883734 0.11218102 -0.025251051
0.09164912 0.046090722 0.115676165 -0.117709845 -0.10984277 -0.0427056 0.053443033 -0.04813127
-0.030113284 -0.024729153 -0.03860917 0.08407736 0.12661512 0.037665747 -0.10105106 -0.12208643
-0.07221637 0.057181213 -0.021092609 0.008457627 -0.08243269 0.027681222 0.002842052 -0.031518973
0.07187749 0.11089883 0.01267965 -0.035662606 -0.10196147 -0.053843964 0.02535295 0.032398053
-0.037992086 -0.08711219 0.12574379 -0.05599155 -0.037473213 0.13072966 -0.1252023 -0.020881156
-0.043516677 -0.012216436 0.11023462 0.1322148 -0.021185882 -0.014256704 0.054745145 0.124358974
-0.12200024 0.056779623 -0.058938943 0.08566118 0.02053018 -0.03915142 -0.06576914 -0.026947584
-0.05619588 0.057971984 0.15779632 0.06711428 0.044968 -0.07606812 0.10539186 0.0031158593
-0.07388218 0.12005907 -0.123158224 -0.1176204 -0.014635132 -0.10198011 0.007587551 0.06815843
-0.071767695 0.03411851 0.071649484 0.01906258 -0.103559814 0.09170133 -0.07482834 0.030042693
-0.11870877 -0.10578099 -0.13115609 -0.07127769 0.105982944 0.023091719 -0.06364745 0.100339755
-0.077563874 0.07579423 0.041180704 0.09387156 -0.12021236 -0.10826629 0.11050887 0.03908295
-0.011008543 -0.08797686 -0.11567902 0.08511734 -0.10555887 -0.10646903 -0.0482929 0.08999139
0.0003118036 -0.020672925 0.108931586 0.11804557 -0.11700359 -0.009281978 -0.031694636 0.012039408
-0.08563155 0.12130677 -0.027186394 0.040443644 -0.028469538 0.10894632 0.09103135 -0.03184394
-0.051102348 -0.029817823 0.13785592 -0.08509764 0.08054517 0.0531863 -0.06175183 0.11450197
-0.08404004 0.114492185 0.038462903 0.045421153 -0.1106322 0.0005026522 0.0016819951 0.07993798

attention.key.bias f4 [64]
00000000: 6997 bc3d 7d22 cabd ebf1 df3d c0d9 40bd
00000010: 34b3 f23c 03aa f5bd dd26 8c3d cf73 08bd
00000020: b212 0abd 05e2 9d3d dfe0 a1bd 19cc 19bd
00000030: 5fd4 dd3d 2316 0cbd 6c23 babd e038 883d
00000040: d627 9c3d 9a3d c83d 6a4d f7bc d7ef d43b
00000050: 6604 12bc 9e07 00be 502b d03c 9522 743d
00000060: fcee aebd 7d82 443d dd1b bebb 37b7 5f3d
00000070: 4955 7cbd c134 2dbd ce02 023c a3b3 debd
00000080: 1d0c 233c 1f23 d9bb 48a3 9f3d c3a0 cc3d
00000090: 1a17 f9bd e8b3 59bd 48c0 f83d 7c3a e1bd
000000a0: 3b98 8f3d 1019 b73d 0dde b53b eb4b 7b3d
000000b0: 64e8 2fbd dc49 2fbd 6479 ef3c 65e8 75bd
000000c0: 0bd0 18bd 9f0c 29bd 3fd0 ec3a dc4a 403c
000000d0: f952 bebd f7e7 a2bd 5b1c 30bd fa5f 50bd
000000e0: a817 d33c a0e0 9ebd ff2d da3d 2d89 be3c
000000f0: 5f0e a23d d60d 2cbd 67eb 923d 0601 9e3d
0.09208567 -0.09869859 0.10934814 -0.047082663 0.029626466 -0.11995318 0.0684335 -0.03331357
-0.033709235 0.077091254 -0.07904219 -0.03754816 0.10831522 -0.0342008 -0.090887874 0.06651473
0.076247856 0.097773746 -0.030188281 0.0064983177 -0.0089121815 -0.12502906 0.025411278 0.059603292
-0.085416764 0.047976006 -0.0058016614 0.054618087 -0.06160477 -0.04228664 0.007935239 -0.10874107
0.0099516185 -0.006626501 0.07794815 0.099916 -0.121626094 -0.053150088 0.1214605 -0.10997483
0.070114575 0.08940327 0.005550152 0.061351698 -0.042946234 -0.042795047 0.029232688 -0.06003608
-0.03730778 -0.041271802 0.0018067433 0.011736598 -0.092931695 -0.079544 -0.042995792 -0.05087278
0.025768116 -0.077576876 0.10653304 0.02325877 0.07912897 -0.042005382 0.07173806 0.07715039
