models/model_A_ppo_ep10.pth (torch, 317953 bytes, 27 tensors)

self_embed.weight f4 [64, 20]
000000 ee 95 98 bd 25 41 91 3d 7c 90 4b be e8 6f aa bc
       -0.07450472 0.070925035 -0.19879335 -0.020805314
000010 b0 91 70 3d c0 9d 8d 3c 2b e8 0e be f2 94 9d bc
       0.05873269 0.017287135 -0.13955753 -0.019236062
000020 71 9b c4 3c 94 57 0c 3e fd 38 d2 3d e8 a4 45 3e
       0.023999901 0.13705283 0.10264776 0.19301188
000030 18 08 98 3d f7 eb 8f 3c 4e 83 9a 3d db 46 0f bd
       0.07423419 0.017568571 0.07544576 -0.034979682
000040 6b 82 91 bc de 80 52 3e 14 a1 16 be 49 18 54 be
       -0.017762383 0.20556971 -0.14709884 -0.20712389
000050 1e 34 ac bd d3 b3 08 3d 5d 3f 9e 3e 42 dc 9d bd
       -0.08408378 0.03337462 0.30907717 -0.077080265
000060 08 54 0b 3e 78 53 a8 3d e8 13 c6 3d 47 06 57 3e
       0.13606274 0.082190454 0.096717656 0.20998488
000070 be 62 37 bc 9c 76 29 3e 87 05 8e 3e 88 87 0a bd
       -0.011192976 0.16549152 0.27738592 -0.03382066
000080 94 d3 5d 3e ca b4 2b be 79 5c 97 bd f7 40 ff 3d
       0.21662742 -0.16768184 -0.07390685 0.12463563
000090 df 55 3f bd 60 40 44 3d 15 78 48 3e cc d8 cb 3d
       -0.046712752 0.047912955 0.19577058 0.0995346
0000a0 c2 2e c7 bc 46 28 39 be ce 0d 13 bd 00 1e 70 bb
       -0.024314288 -0.1808177 -0.035901837 -0.0036638975
0000b0 02 fa 17 3e e3 71 62 be 38 09 37 3e 15 d1 0b be
       0.14841464 -0.22113757 0.1787461 -0.13653977
0000c0 d8 8c 00 3e 25 f6 08 3e 28 93 46 3e b0 20 b4 3d
       0.12553728 0.13375147 0.19392073 0.08795297
0000d0 70 1e 14 3c 1d 0a 9c bd 11 e9 58 3e f5 4b 0b 3d
       0.00904046 -0.076191165 0.21182658 0.034007985
0000e0 52 a2 90 3e 24 b6 df 3d 8f 99 f3 bd 09 2b 1a 3e
       0.2824884 0.109234124 -0.11894523 0.15055479
0000f0 3d c2 4f bc ff 29 53 bc a1 f2 7c 3d 98 3a ba bd
       -0.012680587 -0.012888431 0.061754826 -0.09093207
000100 84 d8 45 3e 44 49 98 3d c7 73 5d bc 4a 52 d9 be
       0.19320875 0.07435849 -0.013516373 -0.42445594
000110 a9 82 cd 3d 49 74 96 bd 2a 31 92 3d 80 62 71 3d
       0.10034687 -0.073463984 0.071382836 0.058931828
000120 b6 26 de bd 5e 69 21 3e d7 f9 ab bb dd 3d 6d bd
       -0.10847227 0.1576285 -0.005248289 -0.057920326
000130 74 b6 3b 3e b2 82 f2 bd 76 7e 7b 3c c5 54 c8 3d
       0.18331319 -0.118413344 0.015349975 0.097817935
000140 38 aa c8 3d 08 31 45 be 41 ff 4f be a9 76 1e be
       0.09798092 -0.19256985 -0.20312215 -0.15474953
000150 b0 5e f9 3d 54 93 f7 3d dc 0b f4 3d 00 a7 e4 bc
       0.12176263 0.120886475 0.119163245 -0.027911663
000160 98 e9 d9 3d da fe 22 3e a9 76 d4 bd 38 cd 3a 3d
       0.106402576 0.1591753 -0.10374195 0.045605868
000170 d4 21 1a bd c0 f9 68 bc 47 89 fb bd b2 a0 56 be
       -0.037629917 -0.014219701 -0.12282043 -0.20959738
000180 e0 39 46 3e 15 ad 60 be 60 4b a0 3d ac e8 f4 3d
       0.19358015 -0.21941026 0.07826877 0.11958441
000190 a2 14 f8 bd e8 67 ec bd aa 10 0d be d0 26 c1 3d
       -0.121133104 -0.11543256 -0.13775888 0.09431231
0001a0 06 e3 0f 3e 6e 44 ba bd d0 20 19 be 4c 14 07 be
       0.14051446 -0.09095083 -0.14953923 -0.13191336
0001b0 90 fb 08 3c 32 a9 1d 3e da ca 1b 3e 5a 68 16 be
       0.008360758 0.15396574 0.152141 -0.14688244
0001c0 a0 63 e0 3d ae f9 1d be 8c df 1e be 8c c6 b2 3d
       0.10956502 -0.15427276 -0.15514964 0.08729276
0001d0 ab cb 5b be 78 d1 55 3d a8 f2 c5 bc 02 e1 ee bd
       -0.21464412 0.052201718 -0.02416356 -0.116640106
0001e0 72 f8 2c bd c7 e9 28 be 4d 58 6d bc c8 96 47 3d
       -0.042229123 -0.16495429 -0.014486385 0.04872778
0001f0 77 f4 64 be d0 dc e3 3c ec 80 66 be 7f 3a 89 3d
       -0.22358881 0.027815253 -0.22510117 0.0670061
000200 78 d6 2e bd b1 3d 69 3e f6 a5 e3 bd b0 6c 25 be
       -0.042685002 0.2277744 -0.11115639 -0.16154742
000210 1a c7 0c 3e d0 e4 6e be 3f f0 d2 3d 36 d4 58 be
       0.13747826 -0.23329473 0.102997296 -0.21174702
000220 d0 82 05 3d 38 5e 8b 3d e2 d8 42 3e d1 a4 ae bd
       0.032595456 0.0680508 0.19028047 -0.0852753
000230 cc 78 c1 3d ef c6 a8 3d e2 4b 8d 3e 44 84 3b 3e
       0.09446868 0.082410686 0.27596956 0.18312174
000240 10 7f 60 3d 60 2c 73 3d 5b 2a 0c 3e 07 fc ea bd
       0.054808676 0.05936849 0.13688032 -0.11473852
000250 5b 74 df 3d 93 60 53 3e 31 92 c7 bd c7 29 5d be
       0.10910865 0.20642309 -0.09744681 -0.21597968
000260 58 3d 57 3e 73 b7 31 be ca fe 89 bd e9 b7 06 be
       0.21019495 -0.17355137 -0.0673805 -0.13156094
000270 c9 67 91 3e e0 a7 a2 bc 54 a4 a4 bc c8 c9 c8 bd
       0.28399494 -0.01985544 -0.020097889 -0.09804112
000280 f5 ed 88 be 59 2d 49 be bd ab 5b bd c8 5b a3 bd
       -0.26744047 -0.19646205 -0.05363058 -0.0797649
000290 18 63 9c bd 80 51 2f bb 16 53 9c 3d 98 ae f4 3d
       -0.07636088 -0.0026751459 0.07633035 0.119473636
0002a0 c6 ae 8a 3d 5b bb 9f bc 1d 75 a9 bd 80 f0 f1 3c
       0.06771617 -0.019498518 -0.08274291 0.029533625
0002b0 f8 f2 34 bd dd 79 0a be ca 21 7c bd 91 1c 71 be
       -0.044177026 -0.1352305 -0.06155566 -0.23546053
0002c0 06 20 1e 3e 50 3f df bd 54 6e 2e 3e 34 a7 82 be
       0.15441903 -0.10900748 0.17034274 -0.2551819
0002d0 d2 3b 20 3c dc 54 22 3e 6b 86 fd 3d 0b 23 09 be
       0.009779887 0.15852684 0.12379154 -0.13392274
0002e0 c0 d5 79 3d 16 0d f7 bd 0a 2d 0e be 9f 1d 13 3e
       0.060994864 -0.12063043 -0.13884369 0.14366768
0002f0 e8 89 ee 3c 6b 53 31 bc 20 d1 44 3e b0 d9 0f 3c
       0.029118493 -0.010823111 0.192204 0.008779928
000300 78 9b 55 bd db 3b 0d 3e 7c 93 0c be 4a c3 53 3e
       -0.05215022 0.13792364 -0.13728136 0.20679966
000310 02 c6 47 bd 3f 7e 3a be d1 04 95 3d ef 22 04 3e
       -0.04877282 -0.18212222 0.07276309 0.12903951
000320 cd 17 a8 3c 4b ac 40 be 8e 42 72 bd 40 bb d0 3c
       0.020519162 -0.18815725 -0.059145503 0.025479913
000330 20 bf 44 3c 2c c7 e2 3d ba d2 c9 bd 7c 4d 7c bc
       0.012008458 0.11073145 -0.09854646 -0.015399333
000340 08 31 1d 3e 2f 2d 05 3e cf df 23 be 60 6e d2 3d
       0.15350735 0.13005517 -0.16003345 0.102749586
000350 1e 67 5a 3e 26 4c 11 be 7e 1f 7b bb 87 6d fb 3d
       0.21328399 -0.14189205 -0.0038318331 0.1227675
000360 c5 9a 0a bd c0 49 8a 3d c3 2d 20 3e af 2f 09 3e
       -0.033839006 0.06752348 0.15642457 0.13397096
000370 46 97 29 3e 53 76 85 be 94 a4 fd bd d8 06 11 3e
       0.16561612 -0.26066837 -0.123849064 0.14162767
000380 c0 e6 24 3e bc f1 a5 3d 17 a7 11 be df 79 59 3e
       0.16103649 0.08102748 -0.14223896 0.21237896
000390 d9 d1 16 3e a9 79 b9 3d fb d8 56 bd 94 02 24 be
       0.14728488 0.09056408 -0.052453022 -0.16016608
0003a0 74 33 be 3d c2 d7 85 bd 77 e1 cf 3d 1e 42 d2 3d
       0.09287158 -0.06535293 0.10150426 0.10266517
0003b0 48 b0 b3 bd e0 84 e2 bb 1b 5b 3e 3e 75 a4 8c be
       -0.08773857 -0.0069128126 0.18589441 -0.2746922
0003c0 a5 6c 75 3b 2e f3 02 be f4 32 c0 3d 8e 91 43 be
       0.003744879 -0.12788078 0.093847185 -0.19098493
0003d0 92 f6 30 3e 18 16 b5 bd c4 78 8d 3d fa fd 13 3e
       0.17281559 -0.08842105 0.069078 0.14452353
0003e0 68 74 97 bd 7e 8e a7 3d a2 d9 bf bb 8e a0 1c be
       -0.073952496 0.08181475 -0.0058548013 -0.15295622
0003f0 50 9e 23 3d 3d 86 41 be d2 da 38 be 69 40 62 be
       0.0399459 -0.18898864 -0.18052223 -0.22094883

self_embed.bias f4 [64]
000000 95 11 18 be 69 68 66 3e 76 70 8f 3e aa 6c cc 3d
       -0.14850457 0.22500767 0.28015488 0.099816635
000010 a6 2a d4 bd 9c 56 81 3d 26 27 89 3e d8 87 92 3e
       -0.10359697 0.063153476 0.2678768 0.28619266
000020 ed 81 f5 3a c2 15 29 3e 4a d7 0f be 97 15 4d 3e
       0.0018730738 0.16512206 -0.1404697 0.20027767
000030 87 0e 28 be fd db b5 3b be 38 76 bd 9d 33 7f 3e
       -0.16411792 0.0055499063 -0.060112707 0.24922033
000040 95 9f ef bd f0 fc 8e 3e 0d d1 01 3e 2c a2 90 3e
       -0.1170036 0.2792735 0.12677403 0.28248727
000050 78 59 96 3e f9 63 6e 3e f3 be 8d bd da c3 7a be
       0.29365134 0.23280324 -0.06921186 -0.24488774
000060 39 c2 a1 3e 1e 2b 31 be 12 7a f2 3d 49 fc 95 3d
       0.31593493 -0.17301604 0.11839689 0.0732351
000070 68 07 70 3e fb 44 9c bc cc 23 0b 3e 7c a0 15 be
       0.23440325 -0.019075861 0.13587874 -0.14612001
000080 8a 4f 8b 3e 1c a5 c1 bd 77 3f 65 be c0 62 3d 3d
       0.2720912 -0.0945532 -0.22387491 0.046236753
000090 a0 f0 a7 3e a3 af 6b 3e ed 5c 71 3a ac 02 11 3d
       0.3280077 0.23016219 0.00092072674 0.03540294
0000a0 8d f1 90 3e 61 80 0c be 72 68 8d 3e 0c 32 b5 3d
       0.2830929 -0.13720848 0.27618748 0.08847436
0000b0 36 98 80 3e ec 32 68 3e bf eb 83 3e dd 97 08 3e
       0.25116128 0.22675675 0.25765797 0.13339181
0000c0 09 00 e3 3d d8 6f 36 be 9d 8b 48 bd 20 b4 93 3a
       0.11083991 -0.17816103 -0.04896127 0.0011268891
0000d0 3d 3b bb 3d 74 47 32 be d8 7a c5 3d 0d 0c 8c 3e
       0.09142158 -0.1741007 0.09642571 0.27352944
0000e0 da 23 6e 3e 60 87 36 bd b5 15 1a be 72 14 6c 3e
       0.23255864 -0.044562697 -0.15047343 0.23054674
0000f0 f8 cb 06 bd 7a dd 1a be 86 e6 f9 bd 76 89 87 bd
       -0.032909364 -0.15123549 -0.12202172 -0.066180155

animal_embed.weight f4 [64, 8]
000000 93 0e 65 3e 11 3e b4 bd 5a 2c 2b 3e 18 29 05 be
       0.22368841 -0.08800901 0.16716138 -0.13003957
000010 1c dc 3f be 55 15 43 be 92 a7 9b 3e 08 b9 db bb
       -0.18736309 -0.19051106 0.30401284 -0.006705407
000020 a3 e9 28 be 06 a7 32 be 74 3c 01 bd 8e f0 6a bc
       -0.16495375 -0.17446527 -0.031551793 -0.014339579
000030 eb b6 19 be b1 56 26 3e 7a 74 51 3e 1c e0 97 be
       -0.15011184 0.16244008 0.20454589 -0.2966317
000040 b0 36 5b be 87 27 37 be da fe 59 3d 47 c3 11 bd
       -0.2140758 -0.17886172 0.05322156 -0.03558662
000050 54 5b af 3e 04 a1 29 3d 73 11 89 bb a6 28 0a 3a
       0.34249365 0.041413322 -0.0041829883 0.00052703393
000060 1e 02 1a be 1d 7a 37 be 42 15 8d bd 26 35 f9 3c
       -0.1503987 -0.17917676 -0.0688882 0.030420851
000070 af 63 8c 3e 35 02 ac 3c a3 ea ee bd 0b 03 93 3e
       0.27419803 0.020997146 -0.11665847 0.2871326
000080 7a b9 2e bd e8 b2 c1 3e f1 64 b3 be 64 d7 63 be
       -0.042657353 0.37831807 -0.3503795 -0.22250134
000090 c7 b0 1b be c0 93 8d be 37 f3 41 3e b3 81 94 3e
       -0.15204154 -0.27651787 0.18940435 0.29005203
0000a0 aa 7a 6d 3c 7a 91 85 3e 4e de 00 3e 54 d9 24 be
       0.014494577 0.26087552 0.12584803 -0.16098529
0000b0 3c d0 36 be a2 4f 26 3e e7 a5 5d 3e 5b e7 4e be
       -0.17852873 0.16241315 0.21645318 -0.20205443
0000c0 4f 5f 02 be a5 67 e0 3c 6b e2 8f 3e 79 bb 00 3d
       -0.1273167 0.027393172 0.2810243 0.031428788
0000d0 42 70 9c 3e be d4 c9 be 76 f1 84 3e f3 5a df bc
       0.30554396 -0.39420122 0.2596547 -0.027265048
0000e0 95 4f 24 3e 5a 3d 43 be 22 6c 17 3e b7 c1 45 be
       0.16045983 -0.19066373 0.14787343 -0.19312178
0000f0 f7 cc 07 be d8 a9 82 bd b4 5a b5 3d 98 00 1e be
       -0.13261782 -0.063800514 0.08855191 -0.15429914
000100 98 72 44 be 5b 2c dd 3d c0 d5 23 3d bf 52 4c be
       -0.19184339 0.10799476 0.03999877 -0.1995344
000110 70 2c 38 be be 9d 45 be a4 56 80 3e 10 39 15 3e
       -0.17985702 -0.19298455 0.25066102 0.14572549
000120 71 44 49 bd d1 bf 79 3e df 1b 37 be fc ad 5a 3e
       -0.049137536 0.24389578 -0.17881726 0.21355432
000130 e4 31 45 bd 06 8f 5a 3c 1a 18 6a 3e e1 e0 83 bd
       -0.048143283 0.0133397635 0.22860757 -0.064393766
000140 9c 55 9a b8 6d b4 40 3e 75 95 8c 3c d3 df f5 3c
       -7.359238e-05 0.18818827 0.01716111 0.030013954
000150 25 28 81 be 0d be df 3d c5 c2 2c 3e f1 cc ca bd
       -0.2522594 0.10924921 0.16871174 -0.09902371
000160 ef f1 a1 be c4 6a 29 3e 11 bf 3c 3e 30 35 8c be
       -0.31629893 0.16544634 0.18432261 -0.2738433
000170 b3 e9 e5 3d ab 0b a0 3e c6 8a c3 3d 46 ae 64 3e
       0.11226215 0.31258902 0.09547953 0.22332105
000180 94 8a 0b 3e aa 37 4e 3e c7 16 c5 3d 14 19 12 3e
       0.13627082 0.20138422 0.09623485 0.14267379
000190 3d a1 1f 3e 30 07 5e bd b8 00 9e be 07 ac 2d be
       0.15588851 -0.054206073 -0.30859923 -0.16960154
0001a0 89 34 f8 3c 63 1b 6c be a3 6f 02 be 52 d4 74 be
       0.030298488 -0.23057322 -0.12737899 -0.23909119
0001b0 98 cd 47 bd d8 70 a8 3e 5d ce 3c 3e 25 d3 e5 3d
       -0.048780054 0.32898593 0.18438096 0.11221913
0001c0 10 e7 ac 3d 3f 4a c6 be 23 93 a3 be 61 89 27 3d
       0.08442509 -0.3872852 -0.31948194 0.0409025
0001d0 26 b0 19 3e 8d 94 91 bd 0d d0 b6 be a1 ba 94 3e
       0.15008602 -0.07108412 -0.35705605 0.29048637
0001e0 39 53 12 bd ee 42 e9 bd a8 98 08 be 43 e2 51 be
       -0.0357239 -0.11389719 -0.13339484 -0.20496468
0001f0 f4 fb 26 bd 0c fb 7b be ba 27 13 3e 94 58 69 3e
       -0.040767625 -0.24607486 0.14370623 0.22787696
000200 79 c0 2a 3e c9 00 26 be f0 23 a6 3e f4 08 87 be
       0.16674985 -0.16211237 0.32449293 -0.26374018
000210 1c 46 57 be d8 0d 12 bd 58 72 4d be e6 70 2a 3e
       -0.21022838 -0.035657734 -0.2006315 0.1664463
000220 bd 16 8d be ff c3 b6 3e 4d 3d 81 bd a2 d3 07 be
       -0.2755641 0.35696408 -0.0631052 -0.13264325
000230 43 bb d6 bd 65 90 08 be 2d bb d9 3d 82 cf 8b be
       -0.10484936 -0.13336332 0.10631404 -0.27306753
000240 5f f2 6c 3e 3d 85 8f 3e 8f 0c d8 bc 19 a4 85 be
       0.23139332 0.2803134 -0.026373176 -0.2610176
000250 60 cc 9a 3e 25 e7 99 be db 5c 18 be 87 b8 22 be
       0.3023405 -0.30059162 -0.14879172 -0.15890704
000260 37 14 3f be 02 23 73 3e 05 fc 20 be de 82 7f 3e
       -0.18660055 0.23743823 -0.15721138 0.24952266
000270 5f 9b 5a 3d b9 8e 1a 3d 6c 26 34 be 44 8c cc 3d
       0.05337083 0.037733767 -0.17592782 0.09987691
000280 2b dd 98 3e 2f 49 7c bd bf 48 da 3c bf 18 db bd
       0.29856238 -0.06159323 0.026646016 -0.10698079
000290 4f c2 87 bc 11 3d ed bd 04 14 25 3e 79 fb 03 3e
       -0.016572146 -0.11583913 0.16120917 0.12888898
0002a0 29 a1 d5 3c 92 28 51 3e 45 9a a9 be d5 67 96 3e
       0.026077824 0.20425633 -0.3312551 0.29376093
0002b0 8c 97 4d be 5f f4 9b 3c 31 1e 3b 3e c9 26 7a 3e
       -0.20077342 0.019037424 0.18273236 0.24428858
0002c0 75 eb 74 be 4f da 80 3d 4c f2 84 3d 41 d9 ac bd
       -0.23917945 0.06291639 0.06491527 -0.084398754
0002d0 1a c4 9a be 0c cf 17 3e 61 b9 92 3e c3 c2 9c 3e
       -0.3022774 0.14825076 0.28657058 0.3061734
0002e0 5d f3 06 be 77 ad 64 be 0a 60 8c be 28 e4 66 3d
       -0.13178773 -0.22331797 -0.27417022 0.05636993
0002f0 31 ce 82 be 74 00 0c be 56 cf 59 bd f1 2b 87 be
       -0.25547937 -0.13672048 -0.053176247 -0.26400712
000300 f0 cf ea 3d df f2 0d be 29 ca 96 3d ec c7 40 be
       0.11465442 -0.13862179 0.07362778 -0.18826264
000310 5b a4 71 3e 86 25 2a be eb 56 28 be 34 57 88 be
       0.23597853 -0.16615877 -0.16439407 -0.2662903
000320 e3 88 53 be 6d 0f 7f 3d 51 0c 60 3e 2f 2e 07 be
       -0.20657687 0.06227057 0.21879698 -0.13201211
000330 a8 f2 9b be 48 00 6d be 87 06 43 bd 26 fe a5 3e
       -0.3045857 -0.23144639 -0.047613647 0.32420462
000340 d0 3a 8f be 68 4d a1 be 2f 24 8a bd 4a 75 b3 be
       -0.27974558 -0.3150437 -0.06745183 -0.35050422
000350 e9 e3 aa 3e ea 02 93 be 70 85 ae 3d 7d e0 2a 3c
       0.33377007 -0.2871316 0.08521545 0.010429499
000360 ac 73 97 be 02 c2 70 be 07 5e 24 be 07 fa c8 3d
       -0.29580438 -0.23511508 -0.16051494 0.09813314
000370 eb 66 88 be 60 50 51 be f0 c7 8d 3e fd ef 81 bc
       -0.2664102 -0.20440817 0.27691603 -0.015861506
000380 78 65 fd bd a3 4f 9a bd eb 93 21 be 0c 0e 45 be
       -0.12372869 -0.07534721 -0.15779082 -0.1924364
000390 f7 31 a4 bd 6f 57 9d 3e fd ed 06 bd 11 8c 14 be
       -0.080173425 0.3073077 -0.032941807 -0.14506556
0003a0 40 37 9e 3e 6d 14 2a 3e 5b c9 a0 be ef 29 ab be
       0.30901527 0.16609354 -0.31403622 -0.3343043
0003b0 29 5d 86 be f8 8d b2 3e 00 cd 98 bd a9 be 1d 3e
       -0.2624295 0.3487394 -0.07460976 0.15404762
0003c0 a5 54 5a 3e 3b 02 1e be 8b f7 c9 3e 8a ef a0 bc
       0.21321352 -0.15430538 0.39446673 -0.019645471
0003d0 6a 14 1a bd 93 53 b7 3d 1a 41 21 bd a8 53 04 be
       -0.037617125 0.089514874 -0.039368726 -0.12922537
0003e0 92 85 90 3c b3 b0 c0 3d 98 65 92 be fe 80 3b 3e
       0.017641816 0.09408703 -0.28593135 0.18310925
0003f0 f0 7c 68 be ab 8e 8d 3e f1 a8 97 3d 74 65 ff bd
       -0.2270391 0.2764791 0.0740527 -0.124705225

animal_embed.bias f4 [64]
000000 a3 df 58 be ff e3 ee 3d f7 b8 21 be 62 4f 46 be
       -0.2117906 0.116645806 -0.15793215 -0.1936622
000010 f1 b2 3a be 0c d0 68 bd 8f a2 88 3e d2 b8 3e be
       -0.18232323 -0.056839034 0.26686522 -0.18625191
000020 55 b8 2e 3d 92 e9 90 bd 7a 29 63 3e 2c 27 61 be
       0.04265626 -0.070758 0.22183791 -0.21987599
000030 15 2a 8b 3e 83 56 28 be 87 67 85 3e ee c0 fd 3d
       0.27180544 -0.16439252 0.26055548 0.12390314
000040 60 ae 67 3d 34 9c 06 3e b2 35 45 be d1 9d 84 3e
       0.05656278 0.13145524 -0.19258764 0.25901654
000050 be e0 72 be f8 9c 68 be 51 99 9e be 11 ac be bc
       -0.23718545 -0.22716129 -0.30976346 -0.023275407
000060 7a de 5a 3e a6 bf f2 bd c9 b8 92 bd 89 42 99 bc
       0.2137393 -0.1185296 -0.07164151 -0.018708484
000070 19 64 0e bd fd b4 5f be 82 e9 89 bb 1e b2 24 bd
       -0.03476343 -0.21846385 -0.0042087445 -0.04020893
000080 68 fa 00 3e db f1 8d be 91 03 80 3e 1a ce 91 3e
       0.12595522 -0.27723584 0.2500272 0.28477556
000090 ad 08 00 3e 44 8d 9d be 91 2b 16 bc 0e 56 58 3d
       0.1250331 -0.3077184 -0.0091656605 0.052816443
0000a0 e4 2f 0b be 1e 00 b6 3d 31 64 92 3e 37 5b 16 3d
       -0.13592488 0.08886741 0.28592065 0.036708083
0000b0 0d 73 ef 3d 92 68 ff bb cf f3 94 3e f7 b3 02 3e
       0.11691866 -0.007794448 0.2909226 0.12763964
0000c0 9e aa 04 be e3 ce 0b 3e 98 42 8d 3e ba 64 68 3e
       -0.1295571 0.1365314 0.2758987 0.22694674
0000d0 6a 62 64 be 21 b3 b5 3d 37 60 24 be d3 c1 7c bd
       -0.22303167 0.08872057 -0.16052328 -0.061708283
0000e0 34 99 49 be 11 f3 49 be 5c 6b a1 3d c7 ef a5 be
       -0.19687349 -0.19721629 0.07881805 -0.32409498
0000f0 aa 1b 51 3d a8 a7 3a be ca 06 29 3e 92 9b cf bd
       0.051051773 -0.18228018 0.16506496 -0.101370946

animal_transform1.weight f4 [64, 64]
000000 89 75 be bd 99 7f de 3c 66 df 84 bd db 70 9e bd
       -0.09299762 0.027160453 -0.06487922 -0.07736369
000010 10 e1 a0 3b 91 26 e3 3c 94 8a 36 bd 6d b4 c4 bd
       0.004909642 0.02772835 -0.044565752 -0.09604726
000020 a5 35 22 bd 8a 5b 80 3d b4 c3 f9 bd d8 ac ff 3c
       -0.03960194 0.0626746 -0.121955305 0.031210348
000030 1e dc 51 bd df 08 c8 bc 53 98 54 bd d2 ae d8 bd
       -0.05123531 -0.024418293 -0.05190308 -0.10580219
000040 e5 6b ef 3c b1 82 4a 3d 67 b3 9c bc 49 4a 0a be
       0.029226253 0.049441043 -0.019128514 -0.135049
000050 26 92 b9 3d 40 90 bd 3d 7d a1 97 bd ce 7a f8 bb
       0.09061079 0.09256029 -0.07403848 -0.007582999
000060 42 95 46 3d 73 82 14 bc 96 7e 19 3d af e3 a8 3d
       0.048482187 -0.009064305 0.037474237 0.08246552
000070 9b 84 c0 bd 34 8d 48 3d 48 f7 e8 3d 45 4e 17 3b
       -0.094002925 0.048962787 0.1137529 0.0023087424
000080 b6 0f 20 bc 08 f2 96 3d dc 17 72 3d e7 0e c4 3d
       -0.009769371 0.073703825 0.059104785 0.09573155
000090 29 1a f7 3c 83 75 8b 3d cf 98 13 be ee 53 b4 bd
       0.030163841 0.06809523 -0.1441376 -0.08805071
0000a0 c1 65 ba 3d 4e 84 0d bd 0e 21 a0 3d 3a d3 cd 3d
       0.09101439 -0.034550004 0.07818805 0.10050054
0000b0 5a b5 3e 3d f0 fe e0 bd e7 a0 c2 3d 2e 53 b5 3d
       0.04655967 -0.109861255 0.09503346 0.08853756
0000c0 a4 fe f9 3c 23 6d 42 3d 6a 2f ba 3d 50 61 ce bd
       0.03051693 0.047467362 0.09091075 -0.10077155
0000d0 84 61 83 bd 67 2c 07 bd 09 df bf 3d bb d9 e2 3c
       -0.06415084 -0.03300133 0.093687125 0.027691713
0000e0 bf fa ab bd 0b 54 0b 3e 86 1c 01 3e 7d c9 e6 bd
       -0.083974354 0.13606279 0.12608537 -0.112688996
0000f0 56 46 f8 bd 53 ab 9f bd f3 ad 57 3d 46 bb 6b 3d
       -0.121227905 -0.077963494 0.052656125 0.057551645
000100 3a c7 5b 3c af 6a d4 3c 49 7c d7 3c f1 88 9c 3d
       0.0134141985 0.025929777 0.026304381 0.07643307
000110 15 a0 b6 bc 13 29 54 3d 66 46 64 3d 18 45 64 3d
       -0.02229313 0.051796984 0.0557312 0.055729955
000120 eb 63 72 3c 05 3e d3 3a 7a 52 7d 3d ee 65 4a bd
       0.01479433 0.0016116506 0.061846234 -0.049413614
000130 ca 82 b8 bd 8b 36 e1 bd 89 7e c0 3d 21 54 98 3d
       -0.09009321 -0.10996731 0.09399135 0.07437921
000140 99 22 9c bd 39 41 dd bd fa 90 5b 3b ea 33 a0 bc
       -0.076237865 -0.10803456 0.003350316 -0.019556005
000150 1a 9d 08 be 52 68 25 3d b7 26 c4 bd 2c f9 f0 3d
       -0.1334118 0.04038269 -0.09577697 0.11766276
000160 68 1a 45 bd 7a 8d 37 3d 3b 5a 8e 3d ec 7a a1 bd
       -0.048120886 0.044812657 0.06950804 -0.078847736
000170 cb 50 32 bd 44 1e db 3d d3 5b 07 bc 1b d9 60 3d
       -0.04353408 0.10699132 -0.008261639 0.054894548
000180 bd 62 2c bd 3b 62 9b bc 33 f8 0a bd ed 33 ac 3c
       -0.04208635 -0.018967738 -0.033928107 0.021020854
000190 59 73 1e 3d d1 0e a8 bd 5d 8e 89 3d 53 44 03 be
       0.038684223 -0.08205951 0.06716607 -0.12819032
0001a0 0d b8 af bd 09 e2 ad bd 29 46 b4 bd ac d9 a5 bc
       -0.08580027 -0.084903784 -0.088024445 -0.020245396
0001b0 d8 fc c2 3d 5d 9d f6 3d e0 8b 9b bd de 41 bf ba
       0.09520882 0.120417334 -0.075950384 -0.0014591774
0001c0 e5 1a 76 bd 7f 14 86 ba 19 f5 26 bd dc b7 d2 bd
       -0.060084242 -0.0010229497 -0.040761087 -0.10288975
0001d0 cb c1 26 3d 75 bb e5 bd 9f d0 8e bd f3 18 f1 bd
       0.04071216 -0.11217395 -0.06973385 -0.11772337
0001e0 4e 7b f1 3c 44 e9 0d 3d f3 15 73 bd 84 95 c2 bc
       0.029477742 0.034646288 -0.059347104 -0.023752935
0001f0 11 23 1a 3d d1 1f 9f 3d 83 f8 61 3d e9 a7 91 bd
       0.0376311 0.077697404 0.05516864 -0.071121044
000200 a2 63 cb bc e2 47 17 3d a8 3d 0e bd 46 8f d5 3d
       -0.024827782 0.036933787 -0.03472677 0.10427718
000210 4a b0 5e bd 3b 10 32 3d c6 36 99 3d 9a 4c 56 3d
       -0.05436734 0.04347251 0.0748115 0.052319147
000220 28 b8 58 3d d9 41 05 be cd 45 bf 3c 72 54 59 3d
       0.05291 -0.130134 0.023348713 0.05305905
000230 76 e5 80 bd f1 a8 66 bd 44 ae 5d 3d 4a 32 2d 3d
       -0.06293766 -0.05631346 0.05412127 0.042284288
000240 f4 c4 88 bd d5 f7 93 3d 67 4c 4f bd df 86 01 bd
       -0.06678191 0.072250046 -0.050609972 -0.031622764
000250 95 41 a0 3d 31 a4 ac 3c d7 75 a5 3d e8 0f e1 3d
       0.07825009 0.021074386 0.08079117 0.10989362
000260 39 b4 9e 3d 80 5d 68 bd 3c b7 48 3d 1e 78 d7 3d
       0.077492185 -0.056729794 0.04900287 0.105209574
000270 65 94 a3 3d 9b 01 74 bd 7e 65 a6 3c 56 62 72 bd
       0.079872884 -0.059571844 0.020312067 -0.05917581
000280 bb 3c 68 3d ac fb f6 3c f5 90 c6 3d e1 53 f6 3d
       0.056698542 0.030149303 0.09695617 0.120277174
000290 4b 08 99 3c 7c fa 60 bc 8c 6c 5e 3c bc f6 91 3b
       0.018680712 -0.013731595 0.013575684 0.004454462
0002a0 89 45 0f bd f3 b0 16 be 06 11 b8 bd 20 15 96 3d
       -0.034978423 -0.14715938 -0.08987622 0.07328248
0002b0 3c 82 16 be d5 23 19 3d aa 31 b4 3d 8e 5e eb 3d
       -0.14698118 0.037387688 0.08798535 0.11492644
0002c0 85 9e 0a bd 4b 57 d1 bc cf 0b 3d bc 18 c5 b1 3d
       -0.033842582 -0.02555432 -0.01153846 0.08680171
0002d0 b4 09 c1 3c ba a1 89 3d b7 a1 4d 3d 8a 6c 06 be
       0.023564197 0.067203 0.05020305 -0.13127342
0002e0 e6 3d 17 bd 9c 97 71 39 ac 6b 91 bd cb 41 29 3d
       -0.036924265 0.0002304003 -0.07100615 0.04132251
0002f0 f4 81 9f bd 37 65 c3 3d da 75 92 bc bc 95 34 bd
       -0.077884585 0.095407896 -0.017878462 -0.04408811
000300 17 3a 2d 3d b7 e6 46 3d 4a ea d1 bc 14 c4 37 3d
       0.042291727 0.04855987 -0.025624413 0.04486473
000310 0d fe eb bd 4d d9 0e bd 91 bd bd 3d e0 d9 b8 3d
       -0.11523066 -0.034875203 0.092646725 0.09025931
000320 26 64 89 3d ae e3 e6 bd cf c0 fc bc fb 40 a8 bd
       0.06708555 -0.11273895 -0.030853657 -0.08215519
000330 7e 82 bd 3d c1 5e b5 3b 8f 54 c8 bd bd c0 a8 3d
       0.09253405 0.005534977 -0.09781753 0.08239887
000340 75 5f 24 bd ea db 61 bd 9e 22 ed b7 c4 57 6a bd
       -0.040130097 -0.055141367 -2.8268722e-05 -0.057212606
000350 fd ab b7 3c 7b 9f d1 3d e3 34 a6 3d e1 54 af 3d
       0.022420878 0.102354966 0.08115556 0.08561111
000360 c2 47 33 3d 40 b2 03 3e 4b b5 67 3d bd 78 b2 bd
       0.043769605 0.12860966 0.05656938 -0.08714435
000370 31 a8 a6 bd 4d 93 80 3d e9 b9 b3 bd 1f 9c 09 3e
       -0.08137549 0.062780954 -0.08775694 0.13438462
000380 f7 5e d9 bc d9 52 00 bd e7 96 02 be 03 19 49 bd
       -0.02653454 -0.03132901 -0.12752877 -0.04909612
000390 16 92 1b 3c b5 30 3c 3b 8e e4 10 3d a9 bb 86 3d
       0.009495279 0.0028715555 0.035374217 0.06578762
0003a0 b5 b2 ac bc 4e 70 78 3c c3 b4 db bd b5 04 dc bd
       -0.021081308 0.015163494 -0.10727837 -0.10743085
0003b0 16 c1 b6 3d 63 07 c1 bd 36 25 11 3c 0b e0 13 3e
       0.08923547 -0.09425237 0.008858969 0.14440934
0003c0 f4 47 c4 3d 0b 86 d5 bc d7 61 b3 3c fd af 60 3c
       0.095840365 -0.026064893 0.02189724 0.013713834
0003d0 43 90 a9 3d a1 c7 a9 bd ca 54 1e bd ec 89 f6 bd
       0.08279469 -0.08290029 -0.03865508 -0.12038025
0003e0 6f 2b 0f bd 75 f1 bc 3d 2c cb 94 bc af 73 7e bd
       -0.03495353 0.09225742 -0.018163286 -0.062122043
0003f0 86 82 07 3d ba 74 9d 3d cf dc 77 bc 9b f6 9d bd
       0.03308346 0.076882794 -0.015128328 -0.07713052

animal_transform1.bias f4 [64]
000000 27 0f a9 bd d9 4e 57 bd 98 bb fb 3c b4 64 02 be
       -0.08254843 -0.05256543 0.0307291 -0.12733728
000010 0f 43 87 bd e0 d2 27 bd 34 df 79 3d ea b4 0d be
       -0.06604587 -0.04097259 0.06100388 -0.13838544
000020 4b b9 73 3d 2f ab 05 be c5 e8 06 bd 6f 80 0f be
       0.05950288 -0.13053583 -0.03293683 -0.14013837
000030 7a 03 d8 bd ba c4 00 be dd e6 0a bd 14 2e ce 3d
       -0.10547538 -0.12575045 -0.033911575 0.100673825
000040 30 9e 0c 3c a8 35 f6 bc 84 69 11 bd 4a 8d e5 bd
       0.008582637 -0.030054882 -0.03550102 -0.112085894
000050 c4 ae ac b9 69 a4 d1 bc 4a 29 9d 3d 57 b0 75 3d
       -0.00032936607 -0.025591092 0.07673891 0.059982624
000060 f4 de 68 3d 0b d5 ba bd e6 69 f1 bd 10 f2 27 bd
       0.05685325 -0.09122666 -0.11787777 -0.041002333
000070 5d 7d 24 bd 74 d2 7a bc fb c5 82 bd 54 39 aa 3d
       -0.04015862 -0.015308965 -0.06385418 0.08311716
000080 1f 34 d8 bd ea 8c 56 bd 74 95 8f 3d b9 05 ef bd
       -0.10556816 -0.05238048 0.07010928 -0.116710134
000090 f4 a2 8c 3c ac 56 b3 bd 52 97 00 be 54 ca d0 bb
       0.017167546 -0.08756766 -0.12557724 -0.0063717756
0000a0 4f 5f 5a 3c a3 7e d2 3d 76 a5 88 3d 9f c4 d3 3d
       0.013328387 0.1027806 0.06672184 0.10340237
0000b0 ee f2 ca 3c 44 69 fc bd 7e 6d 8e bc 87 ce 25 be
       0.024774041 -0.12324765 -0.017386194 -0.16192065
0000c0 0e b9 81 bd 02 76 5a bd 0a fa bb bd 27 5f 6e 3c
       -0.063341245 -0.053335197 -0.091785505 0.014549053
0000d0 9e 58 84 3c 7f 35 45 bb 7c 5e 00 be 8e ac ac bd
       0.016155537 -0.00300917 -0.12536043 -0.0843135
0000e0 27 11 01 be b5 a3 ec bd 85 ad ab 3d 64 0f dd 3d
       -0.126042 -0.11554662 0.083827056 0.10793951
0000f0 0b a2 43 bd 06 1f b4 bd 80 09 96 bc 32 9e da 3d
       -0.047761958 -0.0879498 -0.018315077 0.106747046

animal_transform2.weight f4 [64, 64]
000000 6a c0 cf 3d 4a 5c 49 3d 6b c3 c2 bd 0d e8 f5 3d
       0.10144122 0.04916028 -0.09509929 0.12007151
000010 bc 8f d4 bc 99 9d c8 bc 67 b0 0e bd 20 75 05 be
       -0.025947444 -0.02448921 -0.0348362 -0.13032961
000020 74 89 48 3d 6b e6 18 bd 38 20 8f bd cd 64 a2 bb
       0.04895921 -0.03732912 -0.06988567 -0.004955864
000030 55 91 21 bb ad 1e ec 3c 74 d3 69 bd e3 40 7b bd
       -0.0024653275 0.028823221 -0.057086423 -0.061341178
000040 b4 4e b2 bd b9 ba a2 bd 18 fd a1 bd f9 88 08 bd
       -0.08706418 -0.07945771 -0.07909602 -0.033333752
000050 1b 14 9a bd 51 7e 14 3d 5f 66 d7 bd 82 f4 82 3d
       -0.07523366 0.036253277 -0.105175726 0.063942924
000060 53 27 c6 bd b2 a4 3c bc a6 4d 9e 3d 34 7f 0a 3d
       -0.09675469 -0.011513876 0.07729654 0.033812717
000070 c4 7a 8e 3d c5 f0 27 bd 00 ce 0c 3a 9f 18 e1 bd
       0.069570094 -0.0410011 0.00053712726 -0.10991024
000080 ee 9d 6a 3d 9f 0f 33 3c 78 c1 44 3c ad 60 66 3b
       0.05727952 0.010929017 0.012009017 0.0035152838
000090 16 47 cf bc e2 f6 80 bd fc a5 33 3c 8c 51 30 3d
       -0.025302451 -0.06297089 0.010964867 0.04304652
0000a0 16 97 4b bd 19 72 c8 3d f6 a6 e1 3d a2 01 a4 bd
       -0.049704634 0.097873874 0.110181734 -0.08008124
0000b0 d4 22 c4 bc 94 44 6c bd 5a 04 ce bc c3 fe b6 3c
       -0.023942389 -0.05768259 -0.02514856 0.022338277
0000c0 a0 e9 c0 bd 25 05 be 3d 2e 9b a6 3d 9b a7 96 bd
       -0.094195604 0.09278325 0.08135067 -0.07356187
0000d0 e0 e8 e6 bb c4 6d 81 3d 7e f6 01 3e 7a 36 00 be
       -0.007046804 0.06319764 0.12691686 -0.12520781
0000e0 9b e5 9e 3d 7b 5d 4c bd a5 86 bb 3d 4d 45 f1 3d
       0.077586375 -0.049893837 0.09156541 0.11780796
0000f0 86 09 90 bb 1e 7e bc bd 93 b6 bf 3d c4 fe 81 3d
       -0.0043956665 -0.092037424 0.09360995 0.06347421
000100 03 aa b9 3d 3c c5 56 3d e5 fa f5 3d ac 68 9a bc
       0.0906563 0.05243419 0.12010745 -0.01884874
000110 41 fa 0c 3d 59 ef a8 bd bd 6f e1 3d 49 b6 ea bc
       0.03441835 -0.08248777 0.110076405 -0.028651373
000120 cf 88 06 3d ae 21 01 be 4a 87 3e bd 45 09 e2 3c
       0.032845315 -0.12610504 -0.04651574 0.02759231
000130 f6 aa e3 3c ff 59 f4 3d f9 12 49 3d f0 e7 00 bd
       0.027791481 0.11931228 0.04909036 -0.031471193
000140 44 ad 9f 3d c7 5c 53 bc 52 6b 89 3d 4c e4 61 3d
       0.0779672 -0.012900538 0.06709923 0.05514936
000150 fa 20 3f bd 22 33 07 bc ac ad 43 bd 8d a3 5f 3d
       -0.04666231 -0.008251937 -0.04777305 0.054599334
000160 03 6b 45 bd 11 59 ac 3d 44 4c fc bd 63 f2 b7 3d
       -0.048197757 0.084154256 -0.12319234 0.089817785
000170 f4 43 b9 bd 91 c5 2d 3e 74 1f a8 39 43 e7 04 bc
       -0.09046164 0.16969897 0.0003206689 -0.008111778
000180 4a cb 9b 3d a2 ae f7 3d 5d a0 26 bd 3d e9 21 bd
       0.07607134 0.120938554 -0.040680278 -0.039529074
000190 27 d8 fb 3c ca 8a f2 bd 5b cd d3 bd 33 fc 05 bd
       0.030742718 -0.11842878 -0.10341903 -0.03271122
0001a0 3f 40 85 bc 23 e7 a2 3d ac be 80 bd f5 7a f2 bc
       -0.016265986 0.07954242 -0.06286368 -0.029599646
0001b0 de 65 cc 3b 3b d1 62 bb 29 43 ce 3c 69 68 b4 3d
       0.0062377295 -0.0034609574 0.025178509 0.08808977
0001c0 8d c1 ea bd 00 56 24 bd a1 1e 99 bd 93 16 f1 bc
       -0.11462698 -0.04012108 -0.07476545 -0.02942971
0001d0 35 19 d8 3d 7f 26 c8 3b ee 96 b7 bd 90 84 92 3d
       0.10551683 0.0061081047 -0.089643344 0.071541905
0001e0 97 c2 86 bd 56 59 89 3d 68 ba 84 3d 06 39 51 bb
       -0.06580084 0.067064926 0.06480867 -0.0031924858
0001f0 cb 2e d0 3d 4e da ba 3c bd 7b 22 bd 88 61 cb bc
       0.10165175 0.022809174 -0.039668787 -0.02482678
000200 dd 1d 49 bd 96 19 6b bd 36 9c 75 bd c9 3d 87 3d
       -0.049100745 -0.057397448 -0.059963427 0.066035815
000210 9c ac c3 3d 98 9b ce bd f1 af ae bd 65 89 81 bd
       0.09554407 -0.10088271 -0.08529652 -0.06325034
000220 56 05 bb bd 91 07 33 bd c8 ed ab bc 05 07 55 bb
       -0.09131877 -0.043708388 -0.020987406 -0.0032505405
000230 1c 52 0a 3d a3 30 51 3b eb ea 79 3d 66 35 6f 3d
       0.03376971 0.003191986 0.06101505 0.058400534
000240 42 3f a5 3d b1 0a 34 bd a6 ff 5b 3d 36 93 10 bd
       0.08068706 -0.04395551 0.053710602 -0.03529664
000250 f3 8b ac bd 82 29 42 bd 38 8a 3e 3d 6d 2e 6d bd
       -0.08425131 -0.047402866 0.046518534 -0.057905603
000260 9d a0 44 bd cb f8 b7 bd b4 97 11 bd ee df 90 3d
       -0.048004735 -0.08983 -0.035545066 0.07073961
000270 29 fc bd bc cb 27 92 bd 78 f5 8e 3d ef 20 c8 3d
       -0.023191528 -0.07136496 0.06980413 0.097719066
000280 52 b3 82 bc 65 79 bd bd eb c3 ed 3d d7 52 c2 bd
       -0.015954647 -0.0925167 0.11609634 -0.09488457
000290 ed a7 5a bb df a8 b4 bd b0 28 7e bd 96 14 cf bc
       -0.0033364252 -0.08821272 -0.06205052 -0.02527837
0002a0 e5 9e 35 bc 8e 85 90 bd 80 35 e5 3d 7a 7d 9d 3d
       -0.011085247 -0.070567235 0.11191845 0.076899484
0002b0 77 51 4f bd db 8d 43 bb 17 77 cf bc 8d f2 c1 3c
       -0.0506148 -0.002983919 -0.025325341 0.023675228
0002c0 84 35 da 3c 97 47 a5 3d e9 81 d3 3c 45 59 68 3d
       0.026636846 0.08070295 0.025818782 0.05672576
0002d0 fb ab 0f bc 30 a2 0a bd 93 7b 11 bd 80 c1 e9 3d
       -0.008769031 -0.03384608 -0.03551824 0.1141386
0002e0 ae 19 ff bc 9e 98 e8 bc 61 fb 19 bd 14 83 b3 3d
       -0.031140175 -0.028393086 -0.03759325 0.087652355
0002f0 9a cc 8d 3d b7 d0 08 3d 5a 51 6b bd fe 37 53 bd
       0.0692379 0.03340217 -0.05745063 -0.05156707
000300 42 f0 b0 3d ca 2d ac 3c 5f b5 5f bc e5 fe 9a bd
       0.086395755 0.021017928 -0.013654082 -0.075681485
000310 8a 84 bb 3d 35 88 de 3a 16 b4 c9 bc d7 df b1 bc
       0.09156139 0.0016977849 -0.024622004 -0.02171318
000320 94 4c b2 3d 61 75 a0 3d d8 89 db 3d a1 8e e6 3d
       0.08706012 0.07834888 0.10719651 0.11257673
000330 22 ee ad 3d e7 ec 9e 3d db 41 cd 3c e7 af a1 bb
       0.08492686 0.07760029 0.025055816 -0.0049342993
000340 4e 9d 8e 3d 6f a8 7d bd 1b 56 83 3d 5b d1 45 3c
       0.06963597 -0.06192821 0.06412908 0.01207384
000350 64 02 a3 bc 71 d9 8b bd d5 db a1 3c b9 a1 21 3d
       -0.0198986 -0.06828583 0.019758144 0.03946087
000360 5a 65 e4 3b 19 84 8b bd dc 05 14 bd 8d 1e 2f bb
       0.00697009 -0.06812305 -0.0361384 -0.002672109
000370 c1 e8 19 3d fe 56 1e be a6 09 f3 3d 8c df 41 3d
       0.037575487 -0.15462872 0.11867075 0.04733233
000380 07 f4 c7 bd 66 35 c2 3c b4 31 c7 bb d7 66 e9 bd
       -0.097633414 0.023707103 -0.006078923 -0.11396568
000390 5e 3f c8 bb 8d b2 83 3c ef b5 14 be 9c f7 a5 3c
       -0.0061110696 0.01607635 -0.14522527 0.02025967
0003a0 69 a5 f9 bc 25 21 30 3d ac 74 2a 3d 49 6b ed bd
       -0.030474382 0.04300036 0.041615173 -0.11592729
0003b0 86 a3 a4 3d 2f 4d c2 3c c5 3c b8 bc a6 d0 c2 3d
       0.08039002 0.023718445 -0.022489915 0.09512453
0003c0 1e 90 8b 3d 18 c9 0f bd 9d 0f e3 3d ec a0 1d bc
       0.068145975 -0.035103887 0.11086962 -0.009620886
0003d0 57 13 a9 3d cc 5d e2 3c 1b 76 ab 3d 51 2d 90 3c
       0.08255642 0.027632616 0.08372136 0.017599734
0003e0 07 25 60 bd 8e c2 96 3c f1 4b a6 bc 63 ec b9 3d
       -0.054722812 0.018403318 -0.020299884 0.0907829
0003f0 0d 65 00 3d 47 6b 87 3d 9f 84 f2 bd 8b 4c 98 3d
       0.03134637 0.066122584 -0.11841702 0.074364744

animal_transform2.bias f4 [64]
000000 aa db 85 3a ac fd 30 bb ff 7c 77 bb 07 7d f8 3b
       0.001021256 -0.002700667 -0.0037763712 0.007583264
000010 7c 22 34 bd f3 3b 1d bd 20 05 9d bd 47 b3 29 3c
       -0.0439782 -0.03838725 -0.07666993 0.010357684
000020 d0 eb c0 3c 8c a7 5d 3d b9 07 f1 3c fd 39 b1 3c
       0.023549944 0.054114863 0.029422628 0.021634096
000030 f6 e2 91 bc 45 a4 22 3d ea 54 78 3c 8b 3c 30 3d
       -0.017808419 0.03970744 0.015156964 0.04302649
000040 f0 fe 98 3c 5d 93 48 3c 7b 15 58 bb fe d9 87 ba
       0.018676251 0.012242165 -0.0032971788 -0.0010364649
000050 1a ad c8 bc 1e 1d 72 3c 3f d0 78 bc 0b ea 53 3d
       -0.024496604 0.01477745 -0.0151863685 0.051736873
000060 9b cb d6 3d 0e c6 e8 bc 7d 96 66 bd 93 00 9e 3c
       0.104880534 -0.028414752 -0.05629586 0.019287383
000070 97 2f 40 3d 4b 7d 96 bd 78 eb c5 bd 3f 5c 98 3d
       0.046920385 -0.073481165 -0.09664053 0.074394695
000080 f9 cd dd 3c e6 d8 aa bc 7f fa 88 bb c3 2a 52 3d
       0.027075754 -0.020855378 -0.004180252 0.051310312
000090 07 f8 e2 bc b5 0d eb bc a3 60 9d 3b 16 93 94 3c
       -0.02770616 -0.02869306 0.0048027798 0.018136542
0000a0 1f d7 f1 3b cf dd bc ba 5a ac 13 3d cb bc 2f bb
       0.0073803808 -0.0014409366 0.03605304 -0.002681541
0000b0 64 a1 6f bc b1 87 e1 bc 8f 56 d1 3c e5 2d 59 3c
       -0.014625881 -0.027530523 0.02555397 0.013255571
0000c0 fd cd 99 bd 57 79 ca bc ba 99 d7 39 dd 45 df bc
       -0.07509992 -0.024716062 0.0004112253 -0.027254993
0000d0 bc ea 91 3b 62 7c 14 bd b3 fb 16 3d b4 6d 29 bd
       0.0044530313 -0.036251433 0.036861133 -0.041364387
0000e0 9e c7 0d bd 4f 97 a6 bc fc 8a b6 bb d3 bb 85 3b
       -0.034614198 -0.020335821 -0.0055707674 0.0040812283
0000f0 ea 52 35 bc 7c c4 6c 3d ff f9 ff bc c1 76 af 3c
       -0.0110671315 0.05780457 -0.031247137 0.021418931

attention.query.weight f4 [64, 64]
000000 5d 1a c2 3d d2 00 6d bd 2d 7f a8 3d be 3e 37 bd
       0.09477685 -0.05786211 0.08227382 -0.04473757
000010 37 73 a3 bd c6 00 10 bc c0 1b d4 3c 68 09 b4 3d
       -0.0798096 -0.008789247 0.025892138 0.087908566
000020 ea 13 44 bd 91 09 86 bd e3 52 81 3c e6 5b b6 3d
       -0.047870554 -0.065447934 0.015786594 0.08904247
000030 44 a8 d4 3d 66 81 b3 bd 74 9c b7 bd 0a 1b e3 bb
       0.103836566 -0.08764915 -0.08965388 -0.0069307135
000040 cb 16 8a bd 70 c9 9e bd ec f3 b3 bc 2b 97 3e 3d
       -0.06742629 -0.07753265 -0.021966897 0.046530884
000050 1b b9 b0 3d 01 79 9d bb 25 13 69 3d dc 1e 8c 3d
       0.08629056 -0.0048056846 0.056903023 0.068418235
000060 fe fa 5a bd 53 04 e1 3d 88 90 8f 3d db a0 dc bd
       -0.05346202 0.10987153 0.07009989 -0.10772868
000070 92 2f 8d 3c 68 3f 4e bd 9f 79 fc bb 2b ba a3 bd
       0.017234597 -0.050353438 -0.007704928 -0.07994493
000080 5a f1 2b bc 91 84 4b b9 13 3b 01 bd 86 fd d0 bd
       -0.010494554 -0.00019408973 -0.03155048 -0.10204606
000090 b7 66 c1 3d ea 88 8a bb b8 ba 82 3d 76 2f 89 bd
       0.094434194 -0.004227747 0.0638327 -0.066985056
0000a0 0d b4 2c bd b3 ef d1 ba e8 c7 6b bd 24 82 b7 bb
       -0.042163897 -0.001601687 -0.057563692 -0.005600231
0000b0 8d dc ad 3d cc 2d fb 3d a4 53 be 3d ef 41 d1 bd
       0.08489332 0.122645944 0.09293297 -0.10217654
0000c0 98 6c 37 bc e8 ce f2 3c 94 46 8b 3d 3c 4c f8 bd
       -0.011195324 0.029639676 0.06800571 -0.121239156
0000d0 09 64 69 bd 6a 75 87 bc 20 c9 b6 bd d4 4e 67 bb
       -0.056980167 -0.01653548 -0.0892508 -0.0035294788
0000e0 b7 d0 af bd c0 2a c0 3d 98 4c d3 3d 01 24 d0 bd
       -0.08584731 0.09383154 0.103173435 -0.10163117
0000f0 1f d5 c4 bd 98 8c 99 bd d6 f4 1b 3d f0 98 ac 3d
       -0.09610962 -0.07497519 0.03807529 0.08427608
000100 a3 a0 b2 bd f7 22 9e bd b5 96 9f 3c 21 98 bf bc
       -0.08722045 -0.07721513 0.019481042 -0.02338797
000110 8d 6d ee 3d b1 d7 2c 3d ae 74 d3 3d 1f fb 97 3c
       0.11641989 0.042197887 0.10324989 0.018552361
000120 cd 2d 18 bc 57 2d c8 bd 64 fd 5b bd 72 05 b3 bc
       -0.0092882635 -0.09774273 -0.05370845 -0.021853182
000130 62 05 0c be 2e be b8 bd cf 57 f2 3c 0f 7d 1f be
       -0.13673928 -0.09020649 0.029582886 -0.1557505
000140 ec ce ce 3d 04 e3 92 bd ca df fa bd 4f 88 85 3c
       0.10098061 -0.07172206 -0.122497156 0.016300349
000150 8c 02 57 3d 48 d9 3a 3d 3a 2c c0 bd ce ea 49 bd
       0.052492663 0.04561737 -0.093834355 -0.049296193
000160 14 4c 10 be 7b a5 17 3d 94 35 b6 bd 42 d1 3f bd
       -0.14091522 0.03702305 -0.08896938 -0.046830423
000170 4c 35 31 3c 04 d7 86 3d da a6 22 3e 56 75 04 be
       0.01081593 0.0658398 0.15883961 -0.12935385
000180 76 d3 db 3d 19 83 ae 3c 2a fb d6 3d ad bb 70 3d
       0.10733692 0.021302747 0.104971245 0.05877273
000190 aa 46 9b 3d e6 a2 d8 3d 6d cd 8e 3d 46 14 c2 3d
       0.075818375 0.105779454 0.069727756 0.09476523
0001a0 b2 1c 17 3b ec 63 a0 3d e3 c0 c5 3d e2 c7 68 bd
       0.0023057875 0.078315586 0.09655931 -0.056831248
0001b0 fb a1 10 3d 6a 74 8f bd 4f 6e 16 bd 89 a5 3b bc
       0.035310727 -0.07004626 -0.036726292 -0.011453041
0001c0 70 80 cc 3d 01 3f 96 bd a1 c7 7c 3c 4e cf 61 3c
       0.09985435 -0.07336236 0.015428455 0.013782335
0001d0 b8 a1 01 be dc 8c 2e 3d d8 cb a8 3c 03 76 3b bd
       -0.12659347 0.042614803 0.020605013 -0.04576684
0001e0 21 e7 d0 bc 7e 45 bf 3d 46 84 b5 bd 86 7d 6b 3b
       -0.025500836 0.093394265 -0.0886312 0.0035932972
0001f0 58 0e aa 3d ae e5 20 bd 86 84 1f bc 0d f5 0c 3e
       0.08303517 -0.03928154 -0.009736186 0.13765354
000200 ae 3f f1 3d 3a a9 fc bd 63 f7 da bd 8f 1b b8 3d
       0.11779724 -0.12336965 -0.106917165 0.089896314
000210 16 bc 92 3c 02 a4 04 be 00 04 fe bc 1e b2 49 3d
       0.017911952 -0.12953189 -0.031007767 0.04924213
000220 d9 03 8e bd 18 75 b7 bd e3 a4 58 bd 86 03 d0 bd
       -0.06934328 -0.08957881 -0.052891623 -0.10156922
000230 16 78 d2 3b 21 17 e8 3c e8 df 45 bd 53 83 ef bd
       0.0064230068 0.028331341 -0.048309237 -0.1169497
000240 78 85 c4 3d 39 38 cb 3d 07 64 fc bd 54 0b 11 3c
       0.0959577 0.09922833 -0.12323766 0.0088527985
000250 44 29 c3 3b 4b 57 a5 3c 9e 3e 59 3c 4a f0 9d bd
       0.005955847 0.020183226 0.013259558 -0.07711847
000260 d4 1f 4f bc d4 19 cf 3d a5 12 01 be c4 66 a7 3d
       -0.012641866 0.10112348 -0.12604769 0.08173898
000270 b1 86 00 bc ca 4f 8a 3c d1 2f 83 3d cd af ed bd
       -0.007844613 0.01688375 0.06405605 -0.11605797
000280 62 20 cd 3b fe fc d5 bc bd d6 94 bd fd 84 0d be
       0.006259964 -0.026121613 -0.072675206 -0.13820262
000290 6c 44 0a 3d 01 d5 a0 3d ad 46 1b bd 80 e2 31 3d
       0.03375666 0.07853127 -0.0379092 0.043428898
0002a0 d8 33 f4 3c 77 86 1d 3d 48 30 7f bd 99 79 ef 3d
       0.029809877 0.038458314 -0.062301904 0.11693115
0002b0 6d 02 16 bd ba d9 bc 3c a5 92 0d 3c 81 58 bf 3b
       -0.036623407 0.023053039 0.00864092 0.005839408
0002c0 51 80 a8 bd da bf 71 3d 4f ac b4 bc 6b b8 07 be
       -0.082275994 0.059020855 -0.02205482 -0.13253944
0002d0 22 8f a9 bd 6f 9f b6 3d d7 f1 f7 3c 7a 3b c8 bd
       -0.082792535 0.08917128 0.030266685 -0.09776969
0002e0 5d cb 46 3c be d8 0e bd f7 52 fb bc ef 07 71 3d
       0.0121334465 -0.03487467 -0.03067921 0.058845457
0002f0 57 db 7a 3d a2 ba a6 3d 14 82 ae bd 2b f3 ba 3d
       0.061244335 0.08141066 -0.08520904 0.09128412
000300 cb 65 3d bd 37 bc 82 bd 23 b2 2f bd 9e 08 97 3d
       -0.046239655 -0.063835554 -0.042894494 0.073746905
000310 81 fc 8b bd be 0b 04 bd d9 dd 0a 3e 3f f7 8d bd
       -0.06835271 -0.03223776 0.1356119 -0.06931924
000320 13 e0 cf bd 1e 78 5e 3d d2 17 56 3d 6d 9f 5e bd
       -0.10150161 0.05431377 0.05226881 -0.05435126
000330 c8 a3 81 3d 79 e2 a2 3d e6 ae b4 3d 41 2d bd bd
       0.06330067 0.079533525 0.08822422 -0.09237147
000340 6b cf 03 3e 5d 48 40 3c f7 d3 17 3d fe c9 8e 3d
       0.12872092 0.011736003 0.03706738 0.06972121
000350 b7 b9 75 3d a1 d7 1f 3d 98 c1 35 3c ea 2c 26 bd
       0.059991565 0.039024 0.01109352 -0.040570177
000360 d8 e3 da bc eb 72 36 bd 38 84 07 3d 7f 3a bf bd
       -0.026719972 -0.044543188 0.033085078 -0.09337329
000370 77 4b c9 bd e6 7c 1c 3e d5 0f c7 3d 90 a5 6d 3d
       -0.09828847 0.1528202 0.097198166 0.05801922
000380 5e e6 43 3d 51 b6 12 3d 3a 50 52 bd b1 30 b5 bd
       0.047827117 0.0358184 -0.05134604 -0.08847178
000390 59 ec f6 bd 78 99 e6 bd 7a e5 c2 3d aa 18 37 3d
       -0.120567985 -0.112597406 0.095164254 0.044701256
0003a0 53 d1 c9 3d 7a 67 41 3d 48 e2 6d bd d1 b5 bd 3d
       0.098543786 0.047217824 -0.058077127 0.09263194
0003b0 9b cc 31 3c 30 97 d2 bc d9 bc 0d 3e cb 3b 04 bb
       0.010852004 -0.025706857 0.13841571 -0.002017724
0003c0 0b bf 0c 3e 14 0c 9e 3c 1c fc b1 3d 14 d4 e1 bd
       0.13744752 0.019292869 0.08690664 -0.11026779
0003d0 04 74 fd bd 3b 1b 8e bd 8e da 8c bc 88 e8 8a bd
       -0.12375644 -0.069387875 -0.017194059 -0.06782633
0003e0 56 67 30 3d 06 cf e0 bd ed df a7 3d 13 d2 7c bd
       0.0430673 -0.109769866 0.08197007 -0.06172378
0003f0 84 a7 b3 3d d0 f2 77 bd 45 9c 87 bc 95 48 f3 3d
       0.087721854 -0.0605343 -0.016554007 0.11879078

attention.query.bias f4 [64]
000000 68 ee 15 be 48 cb cf bd c0 48 75 bd 0e 66 db bd
       -0.14641726 -0.10146195 -0.059883833 -0.10712825
000010 17 3b 15 3e ec 91 b4 bd 54 a3 1b be f0 e4 7e 3d
       0.14573322 -0.08816895 -0.15199023 0.06223005
000020 b7 ed ee bd 29 5c ca 3d 5c 12 e0 bd 73 d5 22 bd
       -0.11666434 0.098808594 -0.10941002 -0.039754342
000030 10 3c 01 3e 71 97 df 3c fd 1f 37 be 1f ad 21 3e
       0.12620568 0.027293893 -0.17883296 0.15788697
000040 54 b2 8f 3d d9 37 94 3c 28 2b 88 bd b6 d2 39 3d
       0.07016435 0.018093036 -0.066488564 0.045366965
000050 12 96 87 3d 07 97 ae 3c 5c 39 6a bd 15 f0 ed 3c
       0.066204205 0.02131225 -0.05718361 0.029045144
000060 1d 76 6b 3d e0 dd 07 be 48 79 9e bd ba 48 94 3d
       0.05748569 -0.13268232 -0.07737976 0.07240434
000070 bf 91 34 3d 4d 03 1a bd 9c 34 9c bd a9 71 5e bd
       0.044084307 -0.037600804 -0.07627222 -0.054307614
000080 bd 06 a8 bc eb 36 36 3b 9a bf 3a 3c ac a3 31 3c
       -0.020511026 0.002780373 0.01139822 0.010842245
000090 9d d9 f0 3b 3d 4d 4f bd 99 08 12 3d 8f cb d2 3b
       0.0073501603 -0.05061077 0.03565273 0.0064329575
0000a0 64 91 b3 bd 33 61 08 ba 08 a1 d7 3c ad f5 2d 3b
       -0.087679654 -0.0005202472 0.026321903 0.002654414
0000b0 48 07 36 3c 3f 5e 9d bd bb 3b 49 3b fb d7 80 bb
       0.011110134 -0.07683992 0.0030705768 -0.003931997
0000c0 d4 3a 5b bd de 19 6d bc 2f fc 8d 3d 22 7f 87 bc
       -0.0535229 -0.014471499 0.06932866 -0.016540114
0000d0 4d e1 76 3c 05 4a 89 bd f6 8f 88 bd 5b 04 b6 3d
       0.015068364 -0.06703571 -0.06668083 0.088875495
0000e0 30 19 45 3b 87 9e e6 3d 9c c4 3f bc 7f 5a b6 3d
       0.0030074827 0.112607054 -0.01170459 0.089039795
0000f0 0d b1 5e 3d 58 54 de 3c 0a f0 8a bc a0 93 be bb
       0.054368068 0.027139828 -0.016960163 -0.005815938
