models/model_A_fixed.pth (torch, 11301 bytes, 10 tensors)

fc1.weight f4 [16, 4]
00000000: 97b2 c63e 1be8 d63e 6bb8 e2bd 1c2a eb3e
00000010: b05c e0bd 38a2 ce3d 1045 79be 2858 963e
00000020: e0fb e03e cdbf bcbe 13a6 dd3e b0a6 bf3d
00000030: 6dfb be3e 7904 943d 9e0c 7a3e 6094 90bd
00000040: c658 c53e 385b 973d a405 6fbe 0882 023e
00000050: ace5 6bbe c02c 70bd fcf3 4fbe aed2 a93e
00000060: b2d0 c7be 6540 6abe 58f4 0cbe feec 99be
00000070: d3f4 413d 594c fdbe 4721 e73e c076 d9be
00000080: fef6 c43e 0336 a63d b688 28be f831 9e3e
00000090: 4bb9 aa3d 3687 d13e 2716 763d 9878 21be
000000a0: e890 093e 08d8 0abe a47a 573e fe8f e43e
000000b0: 7d83 953e fe61 5ebe 8c98 953e 7038 b73d
000000c0: 7a01 823e 8608 9cbe a46a fdbe 0cd1 45be
000000d0: 57d8 c2be a2f6 d23e 1eb1 163e cc13 543e
000000e0: b9b2 273e 1d91 adbb 0251 cb3e 38e4 b5be
000000f0: dc14 d63c 4887 afbe e8af 173e e052 30be
0.38808128 0.41973957 -0.11070331 0.45930564 -0.10955179 0.100895345 -0.24342752 0.29364133
0.43942165 -0.36865082 0.43290767 0.09357965 0.37301198 0.072274156 0.24418876 -0.0705955
0.3854429 0.073904455 -0.23341995 0.12744915 -0.23036832 -0.058636427 -0.20307916 0.33168548
-0.3902641 -0.22876127 -0.13765085 -0.30063623 0.047352623 -0.4947231 0.45142576 -0.42473412
0.3846969 0.08115771 -0.16458401 0.30897498 0.08336123 0.4092347 0.06007972 -0.15768659
0.13434184 -0.13558972 0.21042877 0.44641107 0.2920188 -0.21717069 0.29217947 0.089463115
0.25391752 -0.30475253 -0.49495423 -0.19318026 -0.3805568 0.4120379 0.14716002 0.20710677
0.16376771 -0.00529684 0.39710242 -0.3552568 0.026132993 -0.342829 0.14813197 -0.17219114

fc1.bias f4 [16]
00000000: f278 233e 7857 d5bd 7575 d33e af25 96be
00000010: 8aad 98be e6af 98be 6a11 e83e 247e 2a3e
00000020: 8c31 f53e ea7e d0be 98eb fdbe 1078 c6be
00000030: 5a35 acbe b299 523e b745 3d3e 449f d13e
0.15964106 -0.10417074 0.4130055 -0.29325625 -0.298199 -0.298217 0.45325786 0.16649681
0.47889364 -0.40721828 -0.49593806 -0.38763475 -0.33634454 0.20566443 0.18483625 0.40941823

rnn.weight_ih_l0 f4 [48, 4]
00000000: f9b0 00be d6ef 2abe 11b4 0d3e 9a3e c8bd
00000010: 922a 153e e6de 85bd 9b61 103e 234f 4dbe
00000020: d94d 07be a3e3 8f3d 311f 523d 5eab 8ebd
00000030: 19a3 133e 7213 293e c9e8 3ebe df3d 0dbe
00000040: ee3b 6b3e df06 abbd 7fc8 b1bd c508 77be
00000050: 01dd 14be 3dde 763d 36d8 05bd 9517 3cbe
00000060: 4dce 8e3b 4161 30be c1ac 57be 357d 0ebe
00000070: 50af 5abe d4b1 1dbe 6f37 803e cb0e 583d
00000080: 05f9 9d3d 36aa 6ebe 6c62 2abe 2327 aabd
00000090: 4534 393d 88e2 5abe 1388 d4bd 3cd9 12be
000000a0: 1214 ce3b d00b b3bd 19dc a8bc 159e 27be
000000b0: dbba 2bbe a360 11be d0f8 afbd 1207 46be
000000c0: b848 543e 2c15 55bd 140d 5e3e 5cca 9a3d
000000d0: e132 54be e096 353e 90c8 8abd b6a2 babd
000000e0: 90f2 4ebe b509 79be 36a6 983d 36b0 48bd
000000f0: 2807 cc3d 4bb8 4fbe 35e3 3b3e 818e 39be
00000100: 9707 4abd 0c14 3d3d 3184 043e bff4 483e
00000110: 163f 6c3e 4fe2 49be c9e5 843d f6cf d8bd
00000120: b4c8 c4bc acd4 3cbe c860 6c3e d82c 39be
00000130: 614a 0e3e abce bf3d 0198 ac3d b6dd 04be
00000140: a604 663e 991e 5a3d 3c5c d33c 2e78 62be
00000150: 87fe d13d 5d5e 23bd 1835 ecbd 7770 593e
00000160: 5f2c 653d bd87 0fbe 991a 02be 2994 74bc
00000170: 69ed 093e 968b 83bd e1c0 11be 3df5 aabd
00000180: 8baf 3dbe 93eb b83d 1cb1 453e d28b 70be
00000190: b5d1 633d c817 013e 3df7 433d 0c0d c3bd
000001a0: 6974 0b3e ae7b 0c3e fbf8 c73d c4de 1bbd
000001b0: 7b61 90bd 49c9 d83c e07d 30bd ce2f a4bd
000001c0: 6a51 263e 27b7 5c3e ad76 a3bc f7cc 62bd
000001d0: 252b dfb9 b3e9 aabc 84e5 7f3d b21e 853d
000001e0: 26e8 6bbe 17f9 c2bd d6d7 543e 8365 bc3d
000001f0: 7162 89bc 101b 1fbe 2794 1ebe 58a6 6abe
00000200: 7f0a aebd 3495 a53d 072e 1d3e 53a6 e53d
00000210: fd13 5cbe 5fcd 13be 118a 1bbd 4705 7e3e
00000220: d37f f83c e2bb 90bd edec d13d 8e28 cfbd
00000230: a891 2abe c915 363e b28a f0bd 44f6 5ebd
00000240: 321a 7ebe 84f8 2b3e 78c7 3b3e 3429 bc3d
00000250: 2446 30be 8c75 7abe d972 50be 0522 413e
00000260: 27b1 f23d b0eb 553e 7a8c 073e a92b 7d3d
00000270: 8ca0 3c3b dc46 3dbe b7ee 5abe cbc2 69be
00000280: 6c03 d23d 6bfe fabd 1904 57bd 4317 13be
00000290: 90b1 21bd a5cf 2dbe cc7e 23be a696 b63d
000002a0: b5bb a3bd d83e 183e 2033 9dbd eea5 41be
000002b0: f301 25bd ef5c f0bd 385c 9dbd 93b3 6fbe
000002c0: 8fae 0c3e 4dc2 34be 39af fa3d 367a e33d
000002d0: 7562 323e c5b7 48be b422 373e 7bab fbbd
000002e0: e98d c83d 25a3 753e 8813 08bd f2ff 603b
000002f0: 76fa 75bd 0a35 58be 349d f43d 204b 80be
-0.1256751 -0.16693053 0.13838221 -0.09777565 0.1456702 -0.06536655 0.14099734 -0.2004972
-0.1321329 0.0702584 0.051299278 -0.069662794 0.14417686 0.16511324 -0.18643488 -0.13793133
0.2297208 -0.0835092 -0.0868082 -0.24124439 -0.14537431 0.060270537 -0.032676898 -0.18368371
0.004358089 -0.172246 -0.21061994 -0.1391495 -0.21355939 -0.15399867 0.25042292 0.052748483
0.07713512 -0.23307118 -0.16639107 -0.08308246 0.045215864 -0.21375477 -0.103775166 -0.14340681
0.0062890137 -0.087424874 -0.020612763 -0.16368897 -0.16770498 -0.1419702 -0.08592379 -0.19338635
0.20730865 -0.052022144 0.21684676 0.07558128 -0.20722534 0.17733335 -0.067765355 -0.09113066
-0.20209718 -0.24320109 0.07453577 -0.048996173 0.099623024 -0.20285146 0.18348391 -0.18120767
-0.049323644 0.046161696 0.12941052 0.19624613 0.2307094 -0.19715236 0.064891405 -0.105865404
-0.024021484 -0.18440503 0.23083794 -0.18083513 0.13895561 0.09365591 0.0842743 -0.12975201
0.2246271 0.053251836 0.025800817 -0.22116157 0.10253625 -0.039884914 -0.11533564 0.21234308
0.05595052 -0.14016624 -0.12705459 -0.014927902 0.13469471 -0.06423108 -0.14233734 -0.08347557
-0.18523996 0.09029307 0.19305843 -0.23490837 0.055619914 0.12606728 0.047843207 -0.09523973
0.13618626 0.13719055 0.09764286 -0.038054243 -0.07049843 0.026463168 -0.043088794 -0.080169305
0.16241995 0.21554242 -0.01995405 -0.05537125 -0.0004256602 -0.02086339 0.062474743 0.06499995
-0.23037776 -0.09520166 0.2078546 0.09199049 -0.016770573 -0.15537667 -0.15486203 -0.22915018
-0.08498096 0.08085099 0.1534959 0.112133645 -0.21492 -0.14433812 -0.037973467 0.248067
0.030334389 -0.07067086 0.10250268 -0.10115157 -0.16657126 0.17781748 -0.11745204 -0.054434076
-0.2481468 0.1679402 0.1833781 0.09187546 -0.17214257 -0.24458903 -0.20356311 0.18860634
0.118501954 0.20890689 0.13237181 0.061809216 0.0028782217 -0.18484062 -0.21380125 -0.22828214
0.10254559 -0.122555576 -0.052494142 -0.14364342 -0.039475977 -0.16973741 -0.15966338 0.08915453
-0.07994787 0.14867723 -0.07675767 -0.18910953 -0.040285062 -0.11736476 -0.07683605 -0.23408346
0.13738464 -0.17652245 0.12240452 0.11107294 0.17420371 -0.19601353 0.17884332 -0.12288567
0.09792692 0.23988016 -0.03322175 0.0034332243 -0.06005331 -0.21113983 0.119440466 -0.25057316

rnn.weight_hh_l0 f4 [48, 16]
00000000: 5c53 1e3e f37b 403e b7e2 703e 833f 6dbd
00000010: 8fd9 51be 93e1 603d ecf2 0c3e 4c62 7fbe
00000020: eaa7 6ebd b1c1 1abe 84c2 bbbc 00e5 ffbd
00000030: 7ad0 cdbd a5e2 a0bd 213b 72be 9671 523e
00000040: 8fb0 523e bc3e 12bd 4ca2 02bd c3e4 c9bd
00000050: 4fde 69be 36b8 7cbe 5529 b63d cfe0 07be
00000060: 4fd3 27be 8638 bbbc c9b4 b1bd 3b53 abbd
00000070: cd56 323c d1d7 48bd 7c05 a9bd 9dd8 ecbd
00000080: baf6 53be f2be 583e 8abb d0bd 5af1 8b3d
00000090: edd1 b5bd 7b89 923c 85e6 693e 45c1 f83d
000000a0: 63ee 5dbe a9dc c53d 5979 703e 23f8 883d
000000b0: 9d5b 2b3e 8bd4 803e c5b2 12bd a269 6b3d
000000c0: 0980 34be 30bc 4abd ce0b 3c3e 4f16 053e
000000d0: 12c4 23be 068a 4ebe 9241 32be ebf3 77be
000000e0: d3b8 45be ffca 81bd 0ef2 2a3e 8127 2f3d
000000f0: 49ee 42be c144 4abe 3426 013e f0be 3abe
00000100: 7028 e6bc b1f2 ef3d 857e e7bd 7825 f8bc
00000110: 8baa 96bc d531 67bd 72e7 febd 6b92 65be
00000120: f532 4ebe 9d75 06be 95ec 793e 1945 f5bd
00000130: bfbb 2ebe 702f 6e3d 31de 873d 815e 0a3e
00000140: ea62 443e 4571 0c3e 31c5 7bbe 2fce a43c
00000150: 29db 1c3e 3f40 aebc d0a2 15be 323c 7a3e
00000160: 26dc babd 1224 10be 16eb 64be a6b5 5f3c
00000170: 8f9b de3d a692 5f3d c202 433d 6caf 41be
00000180: fed4 73be de2a 183c 7178 643e b9ca 183e
00000190: ba89 19be 7b5b 18bd add2 40be 8018 f3bd
000001a0: 650f 253d 37b4 063e 7e34 4f3e ac3c 70be
000001b0: 7f1b 303e 1d3d 31be 7070 c93d 985a 5b3e
000001c0: 1e76 f73b 9833 653e 3d52 56be 02b9 cabd
000001d0: a18b 183e aafd 4ebd f893 3dbd fe82 e1bd
000001e0: af94 333e 89ba 013e f006 ac3d 9644 0dbe
000001f0: 88b5 52be 4dd1 b03c e1cf 8f3d 554c f8bd
00000200: 6dba 8ebd e7e3 2c3e 5ad4 a43c a978 383c
00000210: 5027 77bd aa51 67be 1f5d 6fbe be27 00be
00000220: 4967 02be b810 a13d f264 94bd 9006 c9bd
00000230: db08 743e 4cd0 a53d 963f 363e d927 02be
00000240: b044 cbbd fc1f b93d 03e0 29be be77 28be
00000250: 1bdd 41bc 530b babd f69f 3bbe 256e 113e
00000260: 16cc 4c3e 1167 2a3d 0061 2cbd 738f 6fbe
00000270: 8fe4 b6bd 8861 783d b868 ee3d 94a1 15bd
00000280: 5b7a c3bd c170 0b3e f8bf 48be d4b1 1e3e
00000290: b88d c1bd 1e7a e13b 4373 3bbd e582 d33c
000002a0: c10f 95bd fb25 3d3e 5758 5ebb 276e 4a3e
000002b0: f88d 733e eb66 00be f0f0 3dbe 7896 493e
000002c0: 5992 443e ed18 3fbe 1745 c1bc 6cfa 77be
000002d0: 9fb1 55be 6795 343d 732e 813d 12f5 5f3d
000002e0: 6f80 94bd 2610 683e 1b88 013d 21ed 1bbe
000002f0: d0dc 1fbc a373 813d 06b1 bb3d 3f77 32be
00000300: a0eb b73d 70e3 fdbd ff74 58be 2d59 08be
00000310: f032 743e 283e 573e 4f97 603e 241c 1c3e
00000320: 1a18 3e3e 42ee 17bd 4ab0 10be d7dd f93d
00000330: 838c 01be ad4f 28be d6df 9bbd da47 6b3d
00000340: 28e3 043e 70a8 c7bd 356b 18be 49d1 113d
00000350: 926a 19be 8e67 28be 24a8 073e 4436 3fbd
00000360: 1490 673e 1099 773e a04f 9a3d 4450 aa3d
00000370: 7392 753d 20c1 fa3a 4a31 9abc f085 9fb7
00000380: 68a1 be3d 3f9f 6e3e 9d3e 86bd fde6 d6bd
00000390: 9953 7dbd 6814 f9bd a5b0 2d3d 17f5 3d3e
000003a0: c745 473e 35d3 e93d 18ff 3cbe 03b4 0abe
000003b0: 0247 5dbd 7e6e 3abd 5981 ac3c 954e 6bbe
000003c0: b163 a63d 0aa0 46be ffc2 1ebe 24ec 57be
000003d0: 2042 613e 883d 6fbe 4a0f 453e 68ff 5bbc
000003e0: 4f8c d6bc 1239 233e 54ed a2bc 273f 233e
000003f0: e26a 363e 21e6 61be 0a66 be3d 1b0d 313d
0.15461487 0.18797283 0.23523985 -0.057921898 -0.20493148 0.054902624 0.13764542 -0.24939841
-0.058265604 -0.1511295 -0.0229199 -0.1249485 -0.100495294 -0.07855729 -0.23655368 0.20551142
0.20575164 -0.03570436 -0.03189306 -0.09858086 -0.2283871 -0.24679646 0.08894602 -0.13269351
-0.16389202 -0.0228541 -0.0867706 -0.08365484 0.010884953 -0.049033944 -0.08252999 -0.11564753
-0.20699587 0.2116659 -0.1019202 0.068331435 -0.08877931 0.017887821 0.22841842 0.12146238
-0.21672969 0.09661228 0.2348379 0.06687953 0.16734166 0.25162157 -0.03581502 0.057473786
-0.17626967 -0.049495876 0.18363878 0.12996791 -0.15992764 -0.2016984 -0.17407826 -0.24214141
-0.19308786 -0.063375466 0.16693899 0.042762283 -0.19036211 -0.1975279 0.1261223 -0.182369
-0.028095454 0.117162116 -0.113034286 -0.030291304 -0.018391868 -0.056444008 -0.124464884 -0.22419135
-0.20136626 -0.13130803 0.24406655 -0.1197607 -0.17063807 0.05815071 0.066341765 0.13512613
0.19178358 0.13715084 -0.24586941 0.020117847 0.15317978 -0.02127087 -0.1461289 0.24437025
-0.09124021 -0.1407626 -0.22355303 0.013654148 0.10869514 0.054583214 0.047610052 -0.18914574
-0.23811719 0.009287564 0.2231157 0.14921083 -0.14993945 -0.037196618 -0.18830366 -0.118699074
0.040297884 0.13154684 0.20234868 -0.23460644 0.17197989 -0.17308469 0.09835899 0.21421278
0.0075519225 0.22382963 -0.20929809 -0.09898569 0.14897014 -0.05053488 -0.046283692 -0.11011313
0.17537187 0.12668814 0.08399761 -0.13795695 -0.20577061 0.021584177 0.07022072 -0.12123934
-0.06969152 0.16883813 0.020120788 0.011259236 -0.060340226 -0.22589746 -0.23375367 -0.1251516
-0.12734713 0.07864517 -0.07245816 -0.09815705 0.23831503 0.0809637 0.17797694 -0.12710513
-0.099252105 0.09039304 -0.1658936 -0.16451928 -0.011832501 -0.09084191 -0.18322739 0.14202173
0.19999728 0.041602198 -0.042084694 -0.23394565 -0.08930313 0.060639888 0.11641067 -0.036531046
-0.09544822 0.13617231 -0.1960448 0.15497524 -0.09450859 0.0068810126 -0.04576422 0.025819251
-0.072783954 0.1847152 -0.0033927166 0.19768582 0.23784626 -0.1253926 -0.18548942 0.19686306
0.19196452 -0.18661852 -0.023592515 -0.24216622 -0.20868538 0.044087794 0.063076876 0.054677077
-0.07251059 0.2266241 0.03162394 -0.15227176 -0.009757236 0.06320884 0.09164624 -0.17428301
0.08980489 -0.12396896 -0.2113838 -0.13315268 0.23847556 0.21019804 0.2193272 0.1524511
0.18563882 -0.037092455 -0.14129749 0.12200516 -0.12651257 -0.16436644 -0.07611053 0.05744157
0.12977278 -0.09748924 -0.14884646 0.03559998 -0.1498206 -0.16445753 0.13247734 -0.04668261
0.22613555 0.24179482 0.075347185 0.08316091 0.059954118 0.0019131042 -0.018822331 -1.9016647e-05
0.093081295 0.23302935 -0.06554911 -0.10493276 -0.061847303 -0.12162095 0.04240479 0.18550526
0.19460212 0.11417238 -0.18456686 -0.13545232 -0.054022796 -0.04551553 0.021057772 -0.22979195
0.081244834 -0.19396988 -0.15504073 -0.21086174 0.21997881 -0.23363316 0.19244114 -0.013427593
-0.026189951 0.1593974 -0.019888557 0.1594206 0.1781421 -0.22060443 0.09296806 0.04322539

rnn.bias_ih_l0 f4 [48]
00000000: e21f 4dbe 2768 4c3e b854 e23b 06f8 5f3d
00000010: de00 d4bd 3225 f3bd 1bf6 3b3d 8d0c b53d
00000020: 5b07 643d 87be fabd 9f4c 753e 004f 06bd
00000030: fed9 18be 7f1e f1bd e782 7c3e 62ea 56bb
00000040: 32cd 16bd bb3f dbbd 74e1 74bd b61b 5abe
00000050: abdf 49be ccb7 133e 9680 5d3e 2d42 6e3e
00000060: 594e 3ebe aa58 063e 8a3e 1dbe f523 183e
00000070: 366a 333e cf19 483e 6aaf 3d3e e726 243e
00000080: c6c3 813b cdc3 e33d 52e9 afbd 9819 d83d
00000090: 650e aabd fda7 22bb 321e 5abe 67f0 8dbd
000000a0: 19f0 06be 2a8d b1bd 953f 20be 9722 62be
000000b0: 6f5f a43c b7da 263e e320 6a3e 7f8b 183e
-0.20031694 0.19961606 0.006907072 0.054679893 -0.10351728 -0.11872329 0.045889 0.088402845
0.055671077 -0.122433715 0.2395501 -0.032790184 -0.14926907 -0.11773395 0.2465931 -0.0032793512
-0.036816783 -0.10705515 -0.05978532 -0.21299633 -0.19714229 0.14425582 0.21631083 0.23267432
-0.18584575 0.1311976 -0.15355888 0.14857467 0.17520985 0.19541095 0.18523946 0.16030465
0.0039601056 0.111213304 -0.08589424 0.105517566 -0.08303527 -0.0024819367 -0.21300581 -0.06930619
-0.13177527 -0.08669503 -0.15649255 -0.22083507 0.020065038 0.1629437 0.22864108 0.14896964

rnn.bias_hh_l0 f4 [48]
00000000: 4cb8 03be c981 79be c019 c83d 0e85 113e
00000010: 8b66 5ebe 7d06 b43d 8538 5d3e 872d 363c
00000020: 80a4 1abe e6e4 4f3e 8f21 d43d 73a1 2d3e
00000030: ce33 29be 2727 143e 035e 2ebe aff0 793e
00000040: 81d5 debd 8c2b 173e 839a 643d 9db0 823d
00000050: 41c6 16bd 7010 ce3d 6d5f d0bd bb57 77be
00000060: 8ab0 cfbd a278 443e 2c5f 84bd ebc5 9f3d
00000070: ebe7 c7bd 2f07 423e ca90 1e3e e0c0 bc3d
00000080: 8dc6 03be adeb 54be c76b 543c 239e 19be
00000090: 33b8 4f3e f43d 74be 972d ee3d a92d 7b3e
000000a0: 88d7 ff3d efa5 a93d 7c0c 73be 2b5a 7a3e
000000b0: 36af 1fbd 5b79 6ebe 57ab 7d3e e5ff c9bd
-0.12863272 -0.24365915 0.097705364 0.14210913 -0.21718805 0.087903 0.21603592 0.011119253
-0.15101814 0.20302162 0.10357963 0.16956119 -0.16523668 0.1446806 -0.1702805 0.2440822
-0.108805664 0.14762706 0.055811416 0.063813426 -0.036810163 0.10061729 -0.10174451 -0.2415456
-0.10141094 0.19186643 -0.06463465 0.07801422 -0.09761032 0.18948053 0.1548492 0.092164755
-0.1286871 -0.20793028 0.012965149 -0.1500173 0.2028511 -0.23851758 0.11629789 0.24529137
0.12492281 0.082836024 -0.23735231 0.24448459 -0.038985454 -0.23288481 0.24772392 -0.09863261

fc2.weight f4 [16, 32]
00000000: 30e8 4cbc ebae 253e 28f7 fabd c211 00be
00000010: b87e eb3c 58d7 c1bc 08c9 263d 66d2 17be
00000020: e03c ad3b 2d05 a1bd 3efb b1bd 7cbf 25be
00000030: a6f5 bf3d d47b 0b3d a40a 19be f3a5 0f3e
00000040: 9465 5a3d b45c 063d ea90 d4bd 6863 da3c
00000050: 5f6b 2e3e 1251 f83d 96fd 0cbe ff3c 253e
00000060: 007e 603c c220 ae3d eb97 0c3e 1552 1a3e
00000070: 621c 0dbe 1983 1e3e 38e3 f5bd 0020 593c
00000080: bdfa fcbd e8bd 1ebd c09d 03bc 2040 adbc
00000090: 08c6 e4bc f06e 643c 958f 323e 4259 d23d
000000a0: be8c ca3d b2e7 903d 4924 0c3e 70a9 05bc
000000b0: c04a 663c 5403 153d 5bdf 1dbe 46d2 11be
000000c0: b88b b13c d1a5 8dbd 0096 54bb 5c25 26bd
000000d0: 806c e13c 4a8c eb3d 6822 70bd a5f8 103e
000000e0: 0bed 0e3e 98ee 0abe b2c9 0bbe 4c75 12be
000000f0: 8e67 c6bd ddee 8cbd f000 5abc 0817 30bd
00000100: 74d0 babd e408 66bd cd52 87bd 3f3f 2f3e
00000110: 952e 86bd 2a9c 01be 9224 973d eeae 48bc
00000120: 826a 083e 645e e43d c54e 263e e54f 08be
00000130: cebd e83d 4190 163e 32d0 b6bd 8e58 243e
00000140: d672 093e d6dd 2439 0661 b23d d9f8 81bd
00000150: 1e43 1cbe 819e 3e3d 4b07 603d e41a f1bd
00000160: 3a48 b33d 85ac 18be dbb0 1d3e b509 313e
00000170: 09fa 3d3d 7f02 e7bd 8967 ac3d 3a2d e53c
00000180: e4e3 443d 70f8 6d3d efd1 093e 029e 9bbd
00000190: ace0 22bd cc75 453d e0ca 9d3c 4ff8 113e
000001a0: 1a28 bebd a0f2 d2bb d04b 073d 944e 40bd
000001b0: cace f63d c066 9e3c b24d 27be 18e3 9cbc
000001c0: 8434 a4bd 08b8 8c3c 784c a8bc 2c8f 33be
000001d0: fcf1 03bd 08b4 8abc cc83 55bd 2951 263e
000001e0: 38fe 1dbd 7294 e83d e85d 333d eecd 18be
000001f0: e825 2a3d 6504 163e 4acf ecbd 4203 eabd
00000200: 6d73 353e 6973 113e 6cca c0bd 999f e23d
00000210: f043 b9bc e778 32be 8f31 8c3c bf76 7c3d
00000220: a630 47bd 560a 893d 30ca 1abe 7e5a 033e
00000230: 3f53 1a3e 6101 d03d 44e0 0c3d d377 803d
00000240: 289e 07be ac50 23bd 817b adbc 1cb5 c0bd
00000250: f616 0abe b891 ea3d 4902 ec3d db03 1fbe
00000260: 5ac3 553d 1d42 8a3d 1b7e 273e 3876 c93d
00000270: ad81 2a3e 6fa1 58bd f942 033e 0672 183e
00000280: eb77 2cbe 314e 11be 00e1 073d 8188 bf3d
00000290: 94dd b3bd e87d 9f3c 1c08 5cb9 06d5 2b3d
000002a0: f253 c7bd 3634 cc3d 56c2 f03d 6650 01be
000002b0: 8076 e03a f58a c13a f735 5f3d cef6 253e
000002c0: 8ce4 5c3d 6efc 2cbd 46bd 243e 5e03 8ebd
000002d0: 0fda 47bd 20ce 683c dcb1 07be e083 8c3c
000002e0: 7646 f1bd 1c39 a73c 804b 9c3c 7e6b d93c
000002f0: 41f1 1abe 650b 2ebe 832b a23d 08e8 183e
00000300: cde8 24be d818 863d 32ef 0abe 0d40 4b3c
00000310: a969 283e 2353 093e 5b22 0bbe 55bb d33d
00000320: 44a2 b23d 002a 8eb9 b75b 2f3e 0fdd 91bd
00000330: 1881 28bd 078f c3bd b8cd a13c 9c4c 273d
00000340: fe61 a33c b4bd d7bd d8f4 96bd d768 5e3d
00000350: aa0d 19be d761 b1bc 90d6 fc3a 4231 97bd
00000360: d860 8f3d 9d7d 8d3c 861d 053e 4d3f 27bc
00000370: 6a05 f0bd cf0a f53d 312c 9a3c 8d59 5bbd
00000380: e69e eebd 38b7 293d cca5 2cbe b4b4 3e3d
00000390: 1202 b33d 4eca 1ebe 4804 edbd b423 02be
000003a0: df25 183e 67e3 193e c04f 353c 27f1 293e
000003b0: da0f 72bd d3bc 2fbe a0ea 7c3d 4842 803d
000003c0: d977 313e 00a0 56b8 87bb 0a3e a6ea dd3d
000003d0: 2304 033e 9da1 33be d30f 153e 7a4f 1abe
000003e0: 2d49 223e c00c f0bb 246c 20be 545c 493d
000003f0: 3462 13bd 2297 22be bb40 83bd f04f 953c
-0.01250653 0.16180007 -0.122541726 -0.12506774 0.028746948 -0.023662254 0.040719062 -0.14826354
0.005286798 -0.07862315 -0.08690499 -0.16186327 0.093730256 0.03405364 -0.14945465 0.14028148
0.05331953 0.032803252 -0.10379203 0.026658729 0.17033146 0.12124838 -0.1376861 0.1613655
0.013701916 0.08502342 0.13729827 0.15070374 -0.13780358 0.15479697 -0.12006229 0.013252258
-0.12352512 -0.038755327 -0.008033216 -0.021148741 -0.02792646 0.013942465 0.17437585 0.10270931
0.09890126 0.070754424 0.13685717 -0.008158073 0.014055908 0.036380127 -0.15417235 -0.14240369
0.021673068 -0.069163926 -0.003243804 -0.040562972 0.027517557 0.115013674 -0.058626562 0.1415735
0.13957612 -0.13567579 -0.1365116 -0.14302558 -0.0968772 -0.06881497 -0.013305888 -0.042990714
-0.091217905 -0.056160823 -0.0660759 0.1711397 -0.065518536 -0.12657228 0.07380022 -0.012248738
0.1332188 0.11150816 0.16240986 -0.13311727 0.11364327 0.14703466 -0.08926429 0.16049406
0.13422713 0.00015722899 0.08709912 -0.06346292 -0.15259978 0.04653788 0.054694455 -0.11772707
0.087540105 -0.14909561 0.15399496 0.17288859 0.04638103 -0.11279773 0.08418185 0.027975667
0.048068896 0.058098257 0.1345899 -0.07598497 -0.039765045 0.048208043 0.019261777 0.14254878
-0.092849925 -0.0064376146 0.033031285 -0.046949938 0.12051161 0.019336104 -0.16338232 -0.019151255
-0.08017829 0.017177597 -0.020544276 -0.17535084 -0.032213196 -0.016931549 -0.052127644 0.16241898
-0.03857252 0.11356439 0.043790728 -0.14922306 0.041540056 0.14650114 -0.11562975 -0.11426403
0.17719813 0.14204182 -0.09413609 0.11065597 -0.022615403 -0.17428933 0.017113475 0.061636683
-0.04863038 0.066914245 -0.15116191 0.12827489 0.15070818 0.10156513 0.034393564 0.06272855
-0.13243926 -0.039871857 -0.021177055 -0.09409544 -0.13485321 0.11453575 0.11523873 -0.15528814
0.052188255 0.06750891 0.16356699 0.098370016 0.1665103 -0.05288833 0.12818517 0.14887246
-0.1684262 -0.14189984 0.03317356 0.09352208 -0.08782497 0.019469216 -0.00020983856 0.0419512
-0.09732808 0.09970896 0.11755817 -0.12628326 0.001712516 0.0014766144 0.054494824 0.1620743
0.053928897 -0.042232923 0.16087827 -0.06934236 -0.04879194 0.0142093 -0.13251442 0.017152727
-0.117810175 0.020412974 0.01907897 0.026540514 -0.15131094 -0.16996534 0.079184555 0.14932263
-0.16104431 0.06547707 -0.13567808 0.012405408 0.16446556 0.1341062 -0.13587324 0.10338465
0.08722356 -0.00027115643 0.1712483 -0.07122242 -0.04113874 -0.09548765 0.019751415 0.040844545
0.019944187 -0.1053423 -0.07370919 0.0542992 -0.14946619 -0.021653099 0.0019290019 -0.07382442
0.07000893 0.017271811 0.12999544 -0.010207963 -0.11719783 0.11964952 0.0188199 -0.0535522
-0.11651401 0.041434497 -0.16860121 0.04655905 0.08740629 -0.1550686 -0.11573082 -0.12708932
0.14858197 0.15028153 0.011066377 0.16595899 -0.05909715 -0.17161874 0.061747193 0.06262642
0.17330875 -5.1170588e-05 0.13548099 0.10835771 0.12794547 -0.1754212 0.14556818 -0.1506938
0.15848227 -0.0073257387 -0.15666252 0.049160317 -0.035982326 -0.15877965 -0.06408831 0.018226594

fc2.bias f4 [16]
00000000: 8039 d43c 6010 1fbe dbe1 00bc 51e0 a0bd
00000010: 4b3a 803d b1b6 cfbd 16a4 db3d 26e4 12be
00000020: c31d d73d d3e9 0cbe f300 ba3d 3c71 98bd
00000030: 6967 c93a 0560 04bd 0990 e13d eaf0 6a3d
0.025906324 -0.1553359 -0.007866348 -0.07855285 0.062611185 -0.101422675 0.10724656 -0.14344844
0.105037235 -0.13761072 0.09082212 -0.07443473 0.0015365902 -0.032318134 0.11013801 0.05735866

fc3.weight f4 [8, 16]
00000000: 9c96 61be 504b bc3c 48f9 2ebe 3060 3f3e
00000010: a64d 233d e0dc 7dbd 3d46 01be d037 b13d
00000020: 87d5 1abe b768 f83d 9cab 0a3e 3822 1d3e
00000030: c931 7f3d 70b1 62be 608b 363e 8276 a1bd
00000040: 945d 97bd f008 dcbc ebe6 3a3e 60d8 443e
00000050: 6444 153d 336a ef3d 3997 70be 00d0 1a3a
00000060: 6270 65be 63f1 a03d 3b65 38be ac7a b6bd
00000070: bd4c 2f3e e99f 703e 2ae0 1bbe 3848 10be
00000080: 00a3 fd3c 1845 c93d 6229 34bd 84e4 9fbd
00000090: 00ab 28be 33b0 cf3d 0b06 753e 38d9 f7bd
000000a0: 4099 f13d eae0 fa3d 487e 4c3e 302c e9bc
000000b0: 262d 123c 14eb 3c3e 95b8 203e 9cdb 7b3e
000000c0: 50b9 92bd 7097 ca3d 9de8 2e3e e2c6 2dbe
000000d0: 7f7f 483d a759 71bd 1a9e 253e 00f4 e5bd
000000e0: 5a34 a13c 5583 123e 20ed 6bbe 1e28 58be
000000f0: 3958 00be 4de0 263e aae9 2c3e afb8 2dbe
00000100: 8843 433d 46a6 07be 0ddc e3bd 64c7 5c3e
00000110: 6b36 013e c681 80bd 9b02 2d3d 3868 463d
00000120: 4df1 823d 241a a5bd bdec 10be 047d 293e
00000130: f6e6 1f3d 024f e13d 1a01 b6bd e2df 013e
00000140: da4e 3a3e 42b1 1b3e 499e 8f3d c0df 7b3e
00000150: b995 f2ba 5c96 643d 692e 783e 3ece 783e
00000160: 6f4b dabd e7b0 603e e963 bc3d 903f e5bc
00000170: c396 5e3e 203f 05be 0e90 263e 616d 7d3e
00000180: 5290 30be 5410 17be 732c 80be 1048 38bd
00000190: 6581 6dbe ec36 afbd 0ee7 903d f0f5 343e
000001a0: a638 093e a1e5 123e 7796 ca3d 9cc7 1ebe
000001b0: a5e1 50be 8cba 9e3b d815 6e3e 049a 163c
000001c0: f025 b0bc bcc1 2dbe 44ef f3bd 5257 45be
000001d0: 3b45 513e 06ca 13bd 0999 5dbe d0b2 db3c
000001e0: e3d4 b63c 2384 13bd 9429 c03d e6ab 093e
000001f0: 5a0e 6cbe 53f1 3fbe 1650 f7bb bbc1 68be
-0.22030109 0.02298513 -0.17087281 0.18689036 0.039868973 -0.06197822 -0.1262445 0.086532235
-0.15120517 0.12129348 0.13542026 0.15345085 0.06230334 -0.22138 0.17826605 -0.07883932
-0.073908955 -0.02685973 0.1825215 0.19223166 0.036442176 0.11690178 -0.23495187 0.0005905628
-0.22406152 0.07858541 -0.18007366 -0.089101166 0.17119117 0.23498501 -0.1522223 -0.1409005
0.030961514 0.09827632 -0.04398478 -0.07807258 -0.16471481 0.10141029 0.23928086 -0.12101978
0.11796808 0.1224993 0.19970047 -0.028463453 0.008921897 0.1844905 0.15695412 0.24595493
-0.07164252 0.09892166 0.17080922 -0.16970399 0.048949715 -0.05892339 0.16173592 -0.1122818
0.019678283 0.14307912 -0.23039675 -0.21109053 -0.12533654 0.16296501 0.16886011 -0.16964982
0.047671825 -0.13247022 -0.11125956 0.21560436 0.12618415 -0.06274752 0.042238813 0.048439234
0.06393681 -0.080616266 -0.14152808 0.16551596 0.03903862 0.11001398 -0.08886929 0.12683061
0.18194142 0.15204337 0.070126124 0.24597073 -0.0018507756 0.055807456 0.24236454 0.24297425
-0.10658919 0.21942483 0.09198744 -0.02798441 0.21737199 -0.13012362 0.1626589 0.24748756
-0.17242554 -0.14752322 -0.25033912 -0.0449906 -0.23193891 -0.085553974 0.0707532 0.17671943
0.13400516 0.14345409 0.0989198 -0.15505832 -0.20398577 0.0048440155 0.2325052 0.009191994
-0.021502465 -0.16968435 -0.11910871 -0.19271591 0.20436566 -0.036081336 -0.2164041 0.026818663
0.02231831 -0.036014687 0.093829304 0.1344448 -0.2305235 -0.18744402 -0.007547389 -0.22730152

fc3.bias f4 [8]
00000000: e2cd 69be 88fc 5f3e 9ac4 a4bc 313d ffbd
00000010: b1dd a3bd 9e10 48be a8c1 423e 13c8 4bbd
-0.22832444 0.21873677 -0.020113278 -0.12462843 -0.08001269 -0.19537589 0.19019186 -0.049751353
