models/model_A_ppo.pth (torch, 317783 bytes, 27 tensors)

self_embed.weight f4 [64, 20]
0	0xbdca545d	-0.09879372
1	0x3d370cf5	0.04469009
2	0xbe629c4d	-0.22129937
3	0xbcaa6fe8	-0.020805314
4	0x3d7091b0	0.05873269
5	0x3c8d9dc0	0.017287135
6	0xbe15ed47	-0.14641295
7	0xbd23fd62	-0.040036567
8	0x3bd6e318	0.0065578334
9	0x3df0376d	0.11729322
10	0x3da42167	0.080141835
11	0x3e45a4e8	0.19301188
12	0x3d980818	0.07423419
13	0x3b0710c5	0.002060936
14	0x3d818700	0.06324577
15	0xbd9869a8	-0.07442027
16	0xbd25f671	-0.040518228
17	0x3e5280de	0.20556971
18	0xbe278c79	-0.1636218
19	0xbe5d665a	-0.21621075
20	0xbdaac8a8	-0.083390534
21	0x3d059a34	0.032617763
22	0x3ea03977	0.31293842
23	0xbd9ddc42	-0.077080265
24	0x3e0b5408	0.13606274
25	0x3da85378	0.082190454
26	0x3dc4098c	0.095721334
27	0x3e598979	0.21243848
28	0xbc439e1a	-0.01193955
29	0x3e2a93a8	0.16657889
30	0x3e8fffa1	0.28124717
31	0xbd0a8788	-0.03382066
32	0x3e5dd394	0.21662742
33	0xbe2aa32e	-0.1666381
34	0xbd982c96	-0.07430379
35	0x3dff1a5d	0.124562
36	0xbd301427	-0.04298797
37	0x3d444060	0.047912955
38	0x3e49d552	0.19710281
39	0x3dcd7819	0.100326724
40	0xbcc136b8	-0.023585662
41	0xbe39e103	-0.18152241
42	0xbd0342a3	-0.03204597
43	0xbb701e00	-0.0036638975
44	0x3e17fa02	0.14841464
45	0xbe6271e3	-0.22113757
46	0x3e35c94a	0.17752567
47	0xbe094e4c	-0.13408774
48	0x3dff50a1	0.124665506
49	0x3e0a257c	0.13490862
50	0x3e4a860c	0.19777697
51	0x3db420b0	0.08795297
52	0x3c141e70	0.00904046
53	0xbd99c8c8	-0.07508999
54	0x3e583ed6	0.2111772
55	0x3d0b1e21	0.03396428
56	0x3e928a3f	0.28621098
57	0x3ddfb624	0.109234124
58	0xbdf0e78a	-0.117629126
59	0x3e1b02d4	0.15137798
60	0xbb9b15b1	-0.0047328104
61	0xbc30fbdf	-0.010802238
62	0x3d873793	0.06602397
63	0xbdba3a98	-0.09093207
64	0x3e45d884	0.19320875
65	0x3d984944	0.07435849
66	0xbc116350	-0.008873776
67	0xbee32dab	-0.4437078
68	0x3db80a8c	0.08986387
69	0xbd8000f5	-0.062501825
70	0x3d9aef6f	0.075651996
71	0x3d716280	0.058931828
72	0xbdde26b6	-0.10847227
73	0x3e2464e0	0.16054106
74	0xbc1eb5e4	-0.009686921
75	0xbd40e836	-0.047096454
76	0x3e401277	0.18757044
77	0xbdf282b2	-0.118413344
78	0x3c88ead8	0.016713545
79	0x3dca545f	0.09879374
80	0x3da98e32	0.08279075
81	0xbe560edb	-0.20904104
82	0xbe61f18a	-0.22064796
83	0xbe1e76a9	-0.15474953
84	0x3df95eb0	0.12176263
85	0x3df79354	0.120886475
86	0x3de15fdd	0.110046126
87	0xbd34105a	-0.043960907
88	0x3db25dd6	0.08709304
89	0x3e1cd41e	0.15315291
90	0xbdf85b28	-0.12126762
91	0x3d3acd38	0.045605868
92	0xbd1a21d4	-0.037629917
93	0xbd09fa2a	-0.03368584
94	0xbe0caf74	-0.13738805
95	0xbe6ae074	-0.22937185
96	0x3e3413c4	0.17585665
97	0xbe60ad15	-0.21941026
98	0x3d79039f	0.06079447
99	0x3def9d23	0.11699893
100	0xbdf814a2	-0.121133104
101	0xbdec67e8	-0.11543256
102	0xbe0d10aa	-0.13775888
103	0x3dc126d0	0.09431231
104	0x3e0fe306	0.14051446
105	0xbdba446e	-0.09095083
106	0xbe1920d0	-0.14953923
107	0xbe07144c	-0.13191336
108	0x3c08fb90	0.008360758
109	0x3e1da932	0.15396574
110	0x3e1bcada	0.152141
111	0xbe16685a	-0.14688244
112	0x3de063a0	0.10956502
113	0xbe1df9ae	-0.15427276
114	0xbe1edf8c	-0.15514964
115	0x3db2c68c	0.08729276
116	0xbe5bcbab	-0.21464412
117	0x3d55d178	0.052201718
118	0xbcc5f2a8	-0.02416356
119	0xbdeee102	-0.116640106
120	0xbd4634d2	-0.048390217
121	0xbe309e10	-0.17247796
122	0xbc8ddf8f	-0.017318515
123	0x3d4796c8	0.04872778
124	0xbe64f477	-0.22358881
125	0x3ce3dcd0	0.027815253
126	0xbe6ec992	-0.2331908
127	0x3d7d94d4	0.06190951
128	0xbd157f7b	-0.036498528
129	0x3e42a889	0.19009604
130	0xbde972cc	-0.11398849
131	0xbe256cb0	-0.16154742
132	0x3e0cc71a	0.13747826
133	0xbe516367	-0.20448075
134	0x3dbf6570	0.093455195
135	0xbe609399	-0.21931304
136	0x3cf2c79d	0.029636199
137	0x3d8b5e38	0.0680508
138	0x3e3be8de	0.1835055
139	0xbdc677e4	-0.09690836
140	0x3dc26de9	0.0949362
141	0x3da6c7f0	0.08143604
142	0x3e8f2873	0.27960548
143	0x3e3b8444	0.18312174
144	0x3d607f10	0.054808676
145	0x3d732c60	0.05936849
146	0x3e0afd06	0.13573083
147	0xbde6668e	-0.112500295
148	0x3dddfb7d	0.10838983
149	0x3e546213	0.20740537
150	0xbdc01fa6	-0.093810365
151	0xbe5d29c7	-0.21597968
152	0x3e573d58	0.21019495
153	0xbe30eeb7	-0.17278562
154	0xbd8b2601	-0.06794358
155	0xbe06fe27	-0.13182889
156	0x3e93328c	0.28749502
157	0xbca2a7e0	-0.01985544
158	0xbc9b5797	-0.018962665
159	0xbdc76cc7	-0.097375445
160	0xbe911e76	-0.28343552
161	0xbe5aca91	-0.21366335
162	0xbd8dab3f	-0.06917428
163	0xbda35bc8	-0.0797649
164	0xbd9c6318	-0.07636088
165	0xbb2f5180	-0.0026751459
166	0x3dd3d9ee	0.10344301
167	0x3dd3f1a2	0.10348822
168	0x3d8e8b32	0.06960143
169	0xbd4143bf	-0.04718375
170	0xbdc94a7d	-0.09828661
171	0x3cf1f080	0.029533625
172	0xbd34f2f8	-0.044177026
173	0xbdf8a65c	-0.121411055
174	0xbd8e0484	-0.06934455
175	0xbe7b6c86	-0.24553117
176	0x3e0d91b1	0.13825108
177	0xbddf3f50	-0.10900748
178	0x3e1ed807	0.15512095
179	0xbe84e2e2	-0.25954348
180	0x3bf652ff	0.007517218
181	0x3e1ede35	0.15514453
182	0x3dffb312	0.12485327
183	0xbe09230b	-0.13392274
184	0x3d79d5c0	0.060994864
185	0xbdf70d16	-0.12063043
186	0xbe0cd922	-0.13754705
187	0x3e12c3d5	0.14332516
188	0x3cf0724b	0.029351374
189	0xbc1f2ccb	-0.009715269
190	0x3e45e7ae	0.1932666
191	0x3c0fd9b0	0.008779928
192	0xbd559b78	-0.05215022
193	0x3e0b8be4	0.13627583
194	0xbe0e37d7	-0.13888489
195	0x3e50e93c	0.20401472
196	0xbd441f41	-0.04788137
197	0xbe3a7e3f	-0.18212222
198	0x3d924d63	0.071436666
199	0x3e038093	0.12842016
200	0x3ca817cd	0.020519162
201	0xbe40ac4b	-0.18815725
202	0xbd72428e	-0.059145503
203	0x3cd0bb40	0.025479913
204	0x3c44bf20	0.012008458
205	0x3de2c72c	0.11073145
206	0xbdc9d2ba	-0.09854646
207	0xbc7c4d7c	-0.015399333
208	0x3e1d3108	0.15350735
209	0x3e052d2f	0.13005517
210	0xbe23dfcf	-0.16003345
211	0x3dd26e60	0.102749586
212	0x3e5a671e	0.21328399
213	0xbe114c26	-0.14189205
214	0xbb7b1f7e	-0.0038318331
215	0x3dfb6d87	0.1227675
216	0xbd0a9ac5	-0.033839006
217	0x3d8a49c0	0.06752348
218	0x3e202dc3	0.15642457
219	0x3e092faf	0.13397096
220	0x3e193917	0.14963184
221	0xbe8e7516	-0.27823704
222	0xbe0ccecc	-0.13750762
223	0x3e1106d8	0.14162767
224	0x3e24e6c0	0.16103649
225	0x3da5f1bc	0.08102748
226	0xbe23c3da	-0.1599268
227	0x3e493575	0.19649298
228	0x3e3d49e6	0.18485221
229	0x3db5ed90	0.08883202
230	0xbd87656f	-0.06611144
231	0xbe240294	-0.16016608
232	0x3dbe3374	0.09287158
233	0xbce9fc7f	-0.028562782
234	0x3da155f4	0.078777224
235	0x3dace623	0.084423326
236	0xbdcfece3	-0.101526044
237	0xbbe284e0	-0.0069128126
238	0x3e2b4a98	0.16727674
239	0xbe90d3b1	-0.28286508
240	0x3b756ca5	0.003744879
241	0xbe02f32e	-0.12788078
242	0x3dc032f4	0.093847185
243	0xbe43918e	-0.19098493
244	0x3e30f692	0.17281559
245	0xbdb51618	-0.08842105
246	0x3d8d78c4	0.069078
247	0x3e13fdfa	0.14452353
248	0xbd977468	-0.073952496
249	0x3da78e7e	0.08181475
250	0xbbbfd9a2	-0.0058548013
251	0xbe1ca08e	-0.15295622
252	0x3d239e50	0.0399459
253	0xbe41863d	-0.18898864
254	0xbe38dad2	-0.18052223
255	0xbe624069	-0.22094883

self_embed.bias f4 [64]
0	0xbe2f1d66	-0.17101058
1	0x3e6a5ca2	0.22886899
2	0x3e9169db	0.28401074
3	0x3dd52aef	0.104085796
4	0xbdf80f25	-0.121122636
5	0x3d81569c	0.063153476
6	0x3e87b40b	0.2650455
7	0x3e946469	0.28982857
8	0xbc5ffa73	-0.013670552
9	0x3e2a2c50	0.16618466
10	0xbe0fd74a	-0.1404697
11	0x3e3f1918	0.18661916
12	0xbe280e87	-0.16411792
13	0x3b939a9a	0.004504514
14	0xbd7638be	-0.060112707
15	0x3e80e207	0.25172445
16	0xbe0ae600	-0.135643
17	0x3e90988d	0.28241387
18	0x3e0238b3	0.12716942
19	0x3e92c32b	0.28664526
20	0x3e98c864	0.29840386
21	0x3e7228e5	0.23648413
22	0xbdb27e03	-0.08715441
23	0xbe8da0ae	-0.2766165
24	0x3ea24986	0.3169672
25	0xbe312b1e	-0.17301604
26	0x3dc80cc2	0.09768058
27	0x3d97d37a	0.07413383
28	0x3e702c2b	0.23454349
29	0xbd4ddc6f	-0.05025905
30	0x3e06bc84	0.1315785
31	0xbe15a07c	-0.14612001
32	0x3e8c7907	0.27436087
33	0xbdc1a51c	-0.0945532
34	0xbe653f77	-0.22387491
35	0x3d4775f3	0.04869647
36	0x3ea9e22c	0.33180368
37	0x3e6850aa	0.22687021
38	0x3b54a244	0.003244535
39	0x3d2814c4	0.04103543
40	0x3e926029	0.2858899
41	0xbe26773f	-0.16256426
42	0x3e8f0f93	0.2794157
43	0x3dbcff0d	0.092283346
44	0x3e822458	0.25418353
45	0x3e6cf3ad	0.2313983
46	0x3e84a144	0.25904286
47	0x3e0e7dec	0.13915223
48	0x3de51b99	0.111869045
49	0xbe366fd8	-0.17816103
50	0xbdac1bc9	-0.08403737
51	0x3a8cad01	0.0010732712
52	0x3dbb3b3d	0.09142158
53	0xbe451e57	-0.19249855
54	0x3dbc384c	0.09190425
55	0x3e8e984a	0.27850562
56	0x3e6ee5ff	0.23329924
57	0xbd3324ed	-0.043736387
58	0xbe1a15b5	-0.15047343
59	0x3e6f8f5e	0.23394534
60	0xbd06cbf8	-0.032909364
61	0xbe1add7a	-0.15123549
62	0xbe0d8fcb	-0.13824384
63	0xbd878976	-0.066180155

animal_embed.weight f4 [64, 8]
0	0x3e665edd	0.22497125
1	0xbdb150d5	-0.086579956
2	0x3e13a435	0.14418109
3	0xbdcdf459	-0.10056371
4	0xbe4a9228	-0.19782317
5	0xbe2f02c6	-0.17090902
6	0x3e98c61d	0.29838648
7	0xbc4a0c2c	-0.012332004
8	0xbe1acdc7	-0.1511756
9	0xbe288ab3	-0.1645916
10	0xbbaea9cc	-0.0053303
11	0xbd201dcf	-0.039090928
12	0xbe15f3f5	-0.14643843
13	0x3e1217e6	0.14266929
14	0x3e5ec64c	0.21755332
15	0xbe913730	-0.28362417
16	0xbe692850	-0.22769284
17	0xbe40c659	-0.18825664
18	0x3d0033da	0.03129945
19	0xbcdb4006	-0.026763927
20	0x3ead76af	0.3387961
21	0x3cd1435a	0.025544811
22	0xbc43f3e2	-0.011960002
23	0xbbed913b	-0.007249979
24	0xbe2155ed	-0.15755434
25	0xbe3c1b09	-0.18369688
26	0xbd8c562c	-0.068523735
27	0x3d09313a	0.03349421
28	0x3e8de9d7	0.27717468
29	0x3cc1227b	0.023576012
30	0xbdf9d1e5	-0.12198237
31	0x3e90491c	0.28180778
32	0xbce697e0	-0.028148592
33	0x3ec800fd	0.39063254
34	0xbeb26019	-0.34838942
35	0xbe5780f8	-0.21045291
36	0xbe0d8c1e	-0.13822982
37	0xbe812a18	-0.25227427
38	0x3e4aa3d5	0.1978906
39	0x3e98da0c	0.29853857
40	0x3d0cdc74	0.034389928
41	0x3e8bc69f	0.27299973
42	0x3e033922	0.12814763
43	0xbe18e1fb	-0.14929955
44	0xbe2de557	-0.16982017
45	0x3e2b28d4	0.16714793
46	0x3e702ef7	0.23455416
47	0xbe3c5e4b	-0.18395345
48	0xbe027554	-0.1274007
49	0x3cc23293	0.023705756
50	0x3e93b19e	0.2884645
51	0x3c08a9eb	0.008341293
52	0x3e91f8b2	0.28510052
53	0xbeb3bffc	-0.3510741
54	0x3e7d4ca9	0.24736275
55	0xbd2206cd	-0.039557267
56	0x3e3158aa	0.17318979
57	0xbe3ab45e	-0.18232867
58	0x3e2396c3	0.1597548
59	0xbe3bffae	-0.18359253
60	0xbe024ff5	-0.12725814
61	0xbdc339b5	-0.09532491
62	0x3dd0cd90	0.10195458
63	0xbe104730	-0.14089656
64	0xbe4f47e6	-0.20242271
65	0x3dc7e89b	0.09761163
66	0x3cc7520f	0.02433112
67	0xbe4326ed	-0.19057818
68	0xbe373e4e	-0.17894861
69	0xbe31fb1a	-0.17380944
70	0x3e6f9b54	0.23399097
71	0x3e042722	0.12905553
72	0xbd1bd79d	-0.03804742
73	0x3e8005ce	0.2500443
74	0xbe2eb9bb	-0.17063038
75	0x3e46f95f	0.19431065
76	0xbcce7133	-0.025200462
77	0x3cac39b1	0.021023603
78	0x3e7710dc	0.24127525
79	0xbd53df4e	-0.05172663
80	0x3c9870c4	0.018608458
81	0x3e4e3e3f	0.20140933
82	0x3cb99fb2	0.022659156
83	0x3d3dce01	0.04633904
84	0xbe802d3e	-0.25034517
85	0x3e003722	0.12521031
86	0x3e3ac76d	0.18240137
87	0xbdaec37d	-0.0853338
88	0xbe9b868b	-0.30376086
89	0x3e2f05b1	0.17092015
90	0x3e3ec5e5	0.18630178
91	0xbe8d74ca	-0.27628165
92	0x3dde2f88	0.108489096
93	0x3ea1d3cd	0.31606904
94	0x3dd3e816	0.10347001
95	0x3e6cdd00	0.2313118
96	0x3e00ed4e	0.12590525
97	0x3e478c96	0.19487223
98	0x3dc0b364	0.09409216
99	0x3e1670a3	0.14691405
100	0x3e1029fa	0.14078513
101	0xbd7fd73c	-0.062461123
102	0xbea322ad	-0.31862393
103	0xbe37f02b	-0.1796271
104	0x3c6b4ea2	0.014362009
105	0xbe74c048	-0.23901474
106	0xbe210e58	-0.15728128
107	0xbe5cc5c4	-0.21559817
108	0xbd810227	-0.06299239
109	0x3eb49b90	0.35274935
110	0x3e2b2c85	0.16716202
111	0x3dc28fae	0.09500061
112	0x3d8b2ab0	0.06795251
113	0xbeccbb27	-0.39986536
114	0xbea2873a	-0.31743795
115	0x3cc8f5d9	0.024531292
116	0x3e03febc	0.12890142
117	0xbda88249	-0.08227975
118	0xbec0c0ad	-0.37647
119	0x3e8aca01	0.27107242
120	0xbd4d7b4e	-0.05016642
121	0xbdf969a5	-0.12178353
122	0xbe264111	-0.16235758
123	0xbe33a397	-0.17542873
124	0xbd348a37	-0.044077124
125	0xbe565dfe	-0.20934293
126	0x3e0175d9	0.12642612
127	0x3e57a6b3	0.21059684
128	0x3e2c6f0c	0.16839236
129	0xbe275435	-0.16340716
130	0x3ea4fe79	0.32225397
131	0xbe8723e3	-0.26394567
132	0xbe5b9901	-0.21445085
133	0xbd07be25	-0.03314032
134	0xbe4cef6f	-0.20013212
135	0x3e2af3cf	0.16694568
136	0xbe888412	-0.26663262
137	0x3ebb2579	0.36552027
138	0xbd819271	-0.063267596
139	0xbdd85a52	-0.10564102
140	0xbdce85c9	-0.10084111
141	0xbe24b0b4	-0.16083032
142	0x3df22156	0.118227646
143	0xbe85b5de	-0.26115316
144	0x3e705f04	0.23473746
145	0x3e91f63e	0.2850818
146	0xbd1aa5b1	-0.037755672
147	0xbe795af6	-0.24351105
148	0x3ea05f66	0.31322783
149	0xbea1d9c9	-0.3161147
150	0xbe0bceb8	-0.13653076
151	0xbe162a64	-0.14664608
152	0xbe333c5d	-0.17503496
153	0x3e7efc8f	0.24901031
154	0xbe23c461	-0.15992881
155	0x3e8880b3	0.2666069
156	0x3d86fc0a	0.065910414
157	0x3d58b033	0.05290241
158	0xbe298724	-0.16555458
159	0x3de1cab0	0.11024988
160	0x3e93cd3c	0.2886752
161	0xbd90f1e4	-0.07077387
162	0x3d2a77c3	0.04161812
163	0xbdf77209	-0.12082297
164	0xbd27ed72	-0.04099793
165	0xbda3915d	-0.0798671
166	0x3e13dee2	0.14440492
167	0x3de58c9f	0.11208462
168	0x3c86ebb2	0.01646981
169	0x3e4bd4de	0.19905421
170	0xbeab6c32	-0.33480984
171	0x3e90b5c8	0.28263688
172	0xbe47334f	-0.19453166
173	0x3cdb6adf	0.026784359
174	0x3e328a7f	0.17435645
175	0x3e719317	0.23591267
176	0xbe7cc577	-0.24684702
177	0x3d690868	0.056892782
178	0x3d5b8dac	0.053601906
179	0xbd9a3bc1	-0.075309284
180	0xbe9e7d6d	-0.30955067
181	0x3e25453a	0.16139689
182	0x3e8c4fee	0.27404732
183	0x3e965950	0.29365015
184	0xbdfba9df	-0.1228826
185	0xbe588568	-0.2114464
186	0xbe965fd9	-0.2937
187	0x3d7d0812	0.061775275
188	0xbe710d05	-0.23540123
189	0xbe13b91d	-0.14426084
190	0xbd2ee55d	-0.042699207
191	0xbe81cec9	-0.25353077
192	0x3e0209a4	0.1269899
193	0xbe051e82	-0.12999919
194	0x3d8b6723	0.06806781
195	0xbe338e14	-0.17534667
196	0x3e6c9830	0.2310493
197	0xbe2fdbf4	-0.17173749
198	0xbe1f35b3	-0.15547828
199	0xbe83c6ae	-0.25737518
200	0xbe469b88	-0.19395268
201	0x3d91f97a	0.07127662
202	0x3e599288	0.21247303
203	0xbddcd3ac	-0.10782561
204	0xbe9bd9df	-0.3043966
205	0xbe5e87f1	-0.21731545
206	0xbd1978c3	-0.037468683
207	0x3eab2fd9	0.33434942
208	0xbe95bbfb	-0.2924498
209	0xbea62e93	-0.32457408
210	0xbda08162	-0.07837178
211	0xbeb361ce	-0.35035557
212	0x3ea0972a	0.3136533
213	0xbe9665ff	-0.29374692
214	0x3d92725f	0.07150721
215	0xbb56de2e	-0.0032786238
216	0xbe9c5496	-0.30533284
217	0xbe7466af	-0.23867296
218	0xbe326a57	-0.17423378
219	0x3dbdcefe	0.09267996
220	0xbe87e194	-0.2653929
221	0xbe580062	-0.21093896
222	0x3e89e571	0.26932862
223	0xbcc01860	-0.023449123
224	0xbe01d8a4	-0.12680298
225	0xbd90c342	-0.070684925
226	0xbe184fc8	-0.14874184
227	0xbe2ab536	-0.16670689
228	0xbd910e25	-0.07082776
229	0x3e90e880	0.28302383
230	0xbcba7d71	-0.022764893
231	0xbe0a2058	-0.134889
232	0x3ea3499f	0.31892106
233	0x3e2f461f	0.17116593
234	0xbe843245	-0.25819603
235	0xbeb3311d	-0.34998408
236	0xbe743820	-0.23849535
237	0x3eae903c	0.34094417
238	0xbd716c78	-0.058941334
239	0x3e2dc9fd	0.16971584
240	0x3e519a78	0.20469081
241	0xbe279225	-0.16364343
242	0x3ed028c4	0.40656102
243	0xbce68bb3	-0.028142786
244	0xbd447952	-0.047967263
245	0x3d5d42b1	0.05401868
246	0xbd3295aa	-0.043599762
247	0xbe08a8d6	-0.13345656
248	0x3bcd73ac	0.0062698927
249	0x3db2f264	0.087376386
250	0xbe993ef7	-0.2993085
251	0x3e3db2d3	0.18525247
252	0xbe694811	-0.22781397
253	0x3e745b90	0.23863053
254	0x3d8b1956	0.06791942
255	0xbe05fa98	-0.13083875

animal_embed.bias f4 [64]
0	0xbe3baf88	-0.18328679
1	0x3dd09471	0.10184563
2	0xbe2737b2	-0.1632984
3	0xbe513ec1	-0.20434095
4	0xbe1ed8d2	-0.15512398
5	0xbcc69ddf	-0.0242452
6	0x3e88029d	0.26564494
7	0xbe455a3b	-0.19272701
8	0x3d105cd5	0.03524478
9	0xbd43b5df	-0.047780868
10	0x3e806e37	0.25084087
11	0xbe4659cf	-0.19370197
12	0x3e8e524c	0.27797163
13	0xbe2a385b	-0.1662306
14	0x3e69eb22	0.22843602
15	0x3dd5529d	0.10416148
16	0x3d5acd71	0.05341858
17	0x3e0d3bc4	0.1379233
18	0xbe3dcc3f	-0.18534945
19	0x3e8d7504	0.27628338
20	0xbe68bf6b	-0.2272927
21	0xbe68583a	-0.22689906
22	0xbea5d183	-0.32386407
23	0xbcf47fca	-0.02984609
24	0x3e63f359	0.22260799
25	0xbdc43fa8	-0.09582454
26	0xbdb93436	-0.090431616
27	0xbd1b4e2e	-0.037916355
28	0xbd6cbf8c	-0.05779986
29	0xbe47a386	-0.19495973
30	0xbcec39e2	-0.028836194
31	0xbd2fe0c5	-0.042938966
32	0x3e14383f	0.14474581
33	0xbe93554e	-0.2877602
34	0x3e81e3c4	0.25369084
35	0x3e86583f	0.262392
36	0x3dfb379f	0.12266468
37	0xbe966372	-0.29372746
38	0xbc64bcc0	-0.013961017
39	0x3d421028	0.04737869
40	0xbe0ee519	-0.13954581
41	0x3dd8f213	0.10593047
42	0x3e9a7ad6	0.3017184
43	0x3cfb5b33	0.030683136
44	0x3dc1d331	0.0946411
45	0xbb1e06fd	-0.0024113052
46	0x3e89afb0	0.2689185
47	0x3dde0d52	0.108423844
48	0xbe0e875b	-0.13918822
49	0x3e118dc7	0.1421424
50	0x3e814c19	0.2525337
51	0x3e671707	0.22567378
52	0xbe4e9f06	-0.2017785
53	0x3daf419b	0.08557435
54	0xbe3d15da	-0.18465367
55	0xbd21ca3c	-0.039499506
56	0xbe5ccb0a	-0.21561828
57	0xbe48a1b2	-0.19592932
58	0x3d68ee03	0.05686761
59	0xbe9e49ea	-0.30915767
60	0x3d86ab04	0.065755874
61	0xbe48c91f	-0.19607972
62	0x3e15c68f	0.14626525
63	0xbdb5832e	-0.08862911

animal_transform1.weight f4 [64, 64]
0	0xbdbe7589	-0.09299762
1	0x3cde7f99	0.027160453
2	0xbd84df66	-0.06487922
3	0xbd9e70db	-0.07736369
4	0x3ba0e110	0.004909642
5	0x3ce32691	0.02772835
6	0xbd368a94	-0.044565752
7	0xbdc4b46d	-0.09604726
8	0xbd2235a5	-0.03960194
9	0x3d805b8a	0.0626746
10	0xbdf9c3b4	-0.121955305
11	0x3cffacd8	0.031210348
12	0xbd51dc1e	-0.05123531
13	0xbcc808df	-0.024418293
14	0xbd549853	-0.05190308
15	0xbdd8aed2	-0.10580219
16	0x3cef6be5	0.029226253
17	0x3d4a82b1	0.049441043
18	0xbc9cb367	-0.019128514
19	0xbe0a4a49	-0.135049
20	0x3db99226	0.09061079
21	0x3dbd9040	0.09256029
22	0xbd97a17d	-0.07403848
23	0xbbf87ace	-0.007582999
24	0x3d469542	0.048482187
25	0xbc148273	-0.009064305
26	0x3d197e96	0.037474237
27	0x3da8e3af	0.08246552
28	0xbdc0849b	-0.094002925
29	0x3d488d34	0.048962787
30	0x3de8f748	0.1137529
31	0x3b174e45	0.0023087424
32	0xbc200fb6	-0.009769371
33	0x3d96f208	0.073703825
34	0x3d7217dc	0.059104785
35	0x3dc40ee7	0.09573155
36	0x3cf71a29	0.030163841
37	0x3d8b7583	0.06809523
38	0xbe1398cf	-0.1441376
39	0xbdb453ee	-0.08805071
40	0x3dba65c1	0.09101439
41	0xbd0d844e	-0.034550004
42	0x3da0210e	0.07818805
43	0x3dcdd33a	0.10050054
44	0x3d3eb55a	0.04655967
45	0xbde0fef0	-0.109861255
46	0x3dc2a0e7	0.09503346
47	0x3db5532e	0.08853756
48	0x3cf9fea4	0.03051693
49	0x3d426d23	0.047467362
50	0x3dba2f6a	0.09091075
51	0xbdce6150	-0.10077155
52	0xbd836184	-0.06415084
53	0xbd072c67	-0.03300133
54	0x3dbfdf09	0.093687125
55	0x3ce2d9bb	0.027691713
56	0xbdabfabf	-0.083974354
57	0x3e0b540b	0.13606279
58	0x3e011c86	0.12608537
59	0xbde6c97d	-0.112688996
60	0xbdf84656	-0.121227905
61	0xbd9fab53	-0.077963494
62	0x3d57adf3	0.052656125
63	0x3d6bbb46	0.057551645
64	0x3c5bc73a	0.0134141985
65	0x3cd46aaf	0.025929777
66	0x3cd77c49	0.026304381
67	0x3d9c88f1	0.07643307
68	0xbcb6a015	-0.02229313
69	0x3d542913	0.051796984
70	0x3d644666	0.0557312
71	0x3d644518	0.055729955
72	0x3c7263eb	0.01479433
73	0x3ad33e05	0.0016116506
74	0x3d7d527a	0.061846234
75	0xbd4a65ee	-0.049413614
76	0xbdb882ca	-0.09009321
77	0xbde1368b	-0.10996731
78	0x3dc07e89	0.09399135
79	0x3d985421	0.07437921
80	0xbd9c2299	-0.076237865
81	0xbddd4139	-0.10803456
82	0x3b5b90fa	0.003350316
83	0xbca033ea	-0.019556005
84	0xbe089d1a	-0.1334118
85	0x3d256852	0.04038269
86	0xbdc426b7	-0.09577697
87	0x3df0f92c	0.11766276
88	0xbd451a68	-0.048120886
89	0x3d378d7a	0.044812657
90	0x3d8e5a3b	0.06950804
91	0xbda17aec	-0.078847736
92	0xbd3250cb	-0.04353408
93	0x3ddb1e44	0.10699132
94	0xbc075bd3	-0.008261639
95	0x3d60d91b	0.054894548
96	0xbd2c62bd	-0.04208635
97	0xbc9b623b	-0.018967738
98	0xbd0af833	-0.033928107
99	0x3cac33ed	0.021020854
100	0x3d1e7359	0.038684223
101	0xbda80ed1	-0.08205951
102	0x3d898e5d	0.06716607
103	0xbe034453	-0.12819032
104	0xbdafb80d	-0.08580027
105	0xbdade209	-0.084903784
106	0xbdb44629	-0.088024445
107	0xbca5d9ac	-0.020245396
108	0x3dc2fcd8	0.09520882
109	0x3df69d5d	0.120417334
110	0xbd9b8be0	-0.075950384
111	0xbabf41de	-0.0014591774
112	0xbd761ae5	-0.060084242
113	0xba86147f	-0.0010229497
114	0xbd26f519	-0.040761087
115	0xbdd2b7dc	-0.10288975
116	0x3d26c1cb	0.04071216
117	0xbde5bb75	-0.11217395
118	0xbd8ed09f	-0.06973385
119	0xbdf118f3	-0.11772337
120	0x3cf17b4e	0.029477742
121	0x3d0de944	0.034646288
122	0xbd7315f3	-0.059347104
123	0xbcc29584	-0.023752935
124	0x3d1a2311	0.0376311
125	0x3d9f1fd1	0.077697404
126	0x3d61f883	0.05516864
127	0xbd91a7e9	-0.071121044
128	0xbbfc29e4	-0.0076954234
129	0x3ce639bc	0.028103702
130	0xbc9e477a	-0.019321192
131	0x3df8cf7b	0.12148949
132	0xbd264398	-0.040591806
133	0x3d7ac2fe	0.061221115
134	0x3d737228	0.05943504
135	0x3d8abc32	0.06774177
136	0x3d2f8a95	0.04285677
137	0xbdf6f7f7	-0.12059014
138	0x3c08ebd7	0.00835701
139	0x3d8c84f1	0.06861294
140	0xbda5da3b	-0.08098265
141	0xbd24142f	-0.04005831
142	0x3d1ac8bf	0.037789103
143	0x3cf4d99a	0.029888917
144	0xbd902644	-0.070385486
145	0x3d5f0820	0.054451108
146	0xbd056c32	-0.032573886
147	0xbd428497	-0.04748973
148	0x3dbfdf26	0.09368734
149	0x3d188811	0.037239138
150	0x3dca1ac4	0.098683864
151	0x3df10518	0.1176855
152	0x3d7092df	0.058733817
153	0xbd29a6f7	-0.041418996
154	0x3d84b24c	0.0647932
155	0x3de49647	0.11161476
156	0x3dbacac8	0.09120709
157	0xbd26fadd	-0.040766586
158	0x3d120f25	0.035658974
159	0xbd38c62f	-0.045110878
160	0x3d2b7193	0.04185636
161	0x3d42045f	0.04736745
162	0x3da4ecf0	0.08053005
163	0x3dd6c2e8	0.10486394
164	0x3b52b930	0.0032153837
165	0x3ae69c25	0.0017594142
166	0x3cfd51cd	0.030922795
167	0xbc76acaa	-0.015055815
168	0xbcabb2dd	-0.020959312
169	0xbe25abca	-0.16178814
170	0xbdd6211d	-0.104555346
171	0x3d8137dd	0.06309483
172	0xbe24d9d7	-0.16098724
173	0x3d1954c8	0.03743437
174	0x3d98a0a1	0.074525125
175	0x3dc871db	0.09787341
176	0xbcc41728	-0.023936823
177	0xbd232bf1	-0.039836828
178	0xbcdfc2a9	-0.0273145
179	0x3d919632	0.071087256
180	0x3d2515d2	0.040304013
181	0x3d6678ce	0.056267552
182	0x3d87a18e	0.06622611
183	0xbdeb47d2	-0.11488308
184	0xbcb26179	-0.021774994
185	0x3c876fa6	0.01653273
186	0xbd90acd5	-0.07064215
187	0x3d6f8d62	0.058484443
188	0xbda9c081	-0.0828867
189	0x3ddde27c	0.10834214
190	0xbcfd349e	-0.030908879
191	0xbce2fcab	-0.027708372
192	0x3d2d3a17	0.042291727
193	0x3d46e6b7	0.04855987
194	0xbcd1ea4a	-0.025624413
195	0x3d37c414	0.04486473
196	0xbdebfe0d	-0.11523066
197	0xbd0ed94d	-0.034875203
198	0x3dbdbd91	0.092646725
199	0x3db8d9e0	0.09025931
200	0x3d896426	0.06708555
201	0xbde6e3ae	-0.11273895
202	0xbcfcc0cf	-0.030853657
203	0xbda840fb	-0.08215519
204	0x3dbd827e	0.09253405
205	0x3bb55ec1	0.005534977
206	0xbdc8548f	-0.09781753
207	0x3da8c0bd	0.08239887
208	0xbd245f75	-0.040130097
209	0xbd61dbea	-0.055141367
210	0xb7ed229e	-2.8268722e-05
211	0xbd6a57c4	-0.057212606
212	0x3cb7abfd	0.022420878
213	0x3dd19f7b	0.102354966
214	0x3da634e3	0.08115556
215	0x3daf54e1	0.08561111
216	0x3d3347c2	0.043769605
217	0x3e03b240	0.12860966
218	0x3d67b54b	0.05656938
219	0xbdb278bd	-0.08714435
220	0xbda6a831	-0.08137549
221	0x3d80934d	0.062780954
222	0xbdb3b9e9	-0.08775694
223	0x3e099c1f	0.13438462
224	0xbcd95ef7	-0.02653454
225	0xbd0052d9	-0.03132901
226	0xbe0296e7	-0.12752877
227	0xbd491903	-0.04909612
228	0x3c1b9216	0.009495279
229	0x3b3c30b5	0.0028715555
230	0x3d10e48e	0.035374217
231	0x3d86bba9	0.06578762
232	0xbcacb2b5	-0.021081308
233	0x3c78704e	0.015163494
234	0xbddbb4c3	-0.10727837
235	0xbddc04b5	-0.10743085
236	0x3db6c116	0.08923547
237	0xbdc10763	-0.09425237
238	0x3c112536	0.008858969
239	0x3e13e00b	0.14440934
240	0x3dc447f4	0.095840365
241	0xbcd5860b	-0.026064893
242	0x3cb361d7	0.02189724
243	0x3c60affd	0.013713834
244	0x3da99043	0.08279469
245	0xbda9c7a1	-0.08290029
246	0xbd1e54ca	-0.03865508
247	0xbdf689ec	-0.12038025
248	0xbd0f2b6f	-0.03495353
249	0x3dbcf175	0.09225742
250	0xbc94cb2c	-0.018163286
251	0xbd7e73af	-0.062122043
252	0x3d078286	0.03308346
253	0x3d9d74ba	0.076882794
254	0xbc77dccf	-0.015128328
255	0xbd9df69b	-0.07713052

animal_transform1.bias f4 [64]
0	0xbda90f27	-0.08254843
1	0xbd574ed9	-0.05256543
2	0x3c63e04f	0.01390846
3	0xbe0264b4	-0.12733728
4	0xbd87ebe8	-0.066367924
5	0xbd27d2e0	-0.04097259
6	0x3d79df34	0.06100388
7	0xbe0db4ea	-0.13838544
8	0x3d6b965e	0.05751645
9	0xbe1b6ed3	-0.15178995
10	0xbd06e8c5	-0.03293683
11	0xbe0f806f	-0.14013837
12	0xbdd8037a	-0.10547538
13	0xbe00c4ba	-0.12575045
14	0xbd0ae6dd	-0.033911575
15	0x3d9d1177	0.07669347
16	0x3c0c9e30	0.008582637
17	0xbd22968b	-0.03969435
18	0xbd14241f	-0.03616726
19	0xbdff79c5	-0.124743976
20	0xbc8ad664	-0.016947933
21	0xbd11d652	-0.035604782
22	0x3d9d294a	0.07673891
23	0x3d63d2dd	0.055621017
24	0x3d5d7ddd	0.05407511
25	0xbdbad50b	-0.09122666
26	0xbdf169e6	-0.11787777
27	0xbd837e65	-0.06420592
28	0xbd36434c	-0.044497773
29	0xbc7ad274	-0.015308965
30	0xbd82c5fb	-0.06385418
31	0x3daa3954	0.08311716
32	0xbdfed0c8	-0.124421656
33	0xbd568cea	-0.05238048
34	0x3d8165aa	0.06318219
35	0xbdef05b9	-0.116710134
36	0x3b196b30	0.0023409836
37	0xbdc8d34c	-0.09805927
38	0xbe009752	-0.12557724
39	0xbbd0ca54	-0.0063717756
40	0xb99038f9	-0.00027508268
41	0x3db20762	0.086928144
42	0x3d88a576	0.06672184
43	0x3db15313	0.08658423
44	0x3a30787f	0.00067318225
45	0xbdfc6944	-0.12324765
46	0xbc963b3d	-0.018338794
47	0xbe25ce87	-0.16192065
48	0xbdb7c401	-0.08972932
49	0xbd5a7602	-0.053335197
50	0xbdbbfa0a	-0.091785505
51	0x3c6e5c6f	0.014548405
52	0x3c3ba7a8	0.011453547
53	0xbce57dd6	-0.028014105
54	0xbe001f07	-0.12511836
55	0xbdacac8e	-0.0843135
56	0xbe0c7ace	-0.13718721
57	0xbe02f47b	-0.12788574
58	0x3d9fd54a	0.078043535
59	0x3da45077	0.0802316
60	0xbd43a20b	-0.047761958
61	0xbdd81250	-0.10550368
62	0xbd3cc395	-0.04608496
63	0x3dda9e32	0.106747046

animal_transform2.weight f4 [64, 64]
0	0x3dcfc06a	0.10144122
1	0x3d495c4a	0.04916028
2	0xbde99dbb	-0.11407038
3	0x3df5e80d	0.12007151
4	0xbcd491a7	-0.025948359
5	0xbcc89d99	-0.02448921
6	0xbd0eb067	-0.0348362
7	0xbe057520	-0.13032961
8	0x3d42e7a1	0.04758418
9	0xbd97b052	-0.07406677
10	0xbd8f2038	-0.06988567
11	0xbba264cd	-0.004955864
12	0xbb219155	-0.0024653275
13	0x3cec1ead	0.028823221
14	0xbd69d374	-0.057086423
15	0xbd1593f6	-0.03651806
16	0xbdb24eb4	-0.08706418
17	0xbd9dd45f	-0.07706522
18	0xbda1d115	-0.07901207
19	0xbd80f24f	-0.06296217
20	0xbd8a5c25	-0.067558564
21	0x3b9a929e	0.004717185
22	0xbdd7665f	-0.105175726
23	0x3d72969e	0.05922567
24	0xbdc5c4a1	-0.096566446
25	0xbc3ca4b2	-0.011513876
26	0x3d9e4da6	0.07729654
27	0xbc8cd862	-0.017193023
28	0x3d89cd04	0.06728557
29	0xbd27f0c5	-0.0410011
30	0x3a0cce00	0.00053712726
31	0xbde1189f	-0.10991024
32	0x3d983460	0.07431865
33	0x3c330f9f	0.010929017
34	0xbc0c95b2	-0.008580612
35	0x3b6660ad	0.0035152838
36	0xbd1a67ef	-0.037696775
37	0xbd8f83bb	-0.070075475
38	0x3c33a5fc	0.010964867
39	0x3d30518c	0.04304652
40	0xbcd43680	-0.025904894
41	0x3de80ee3	0.113309644
42	0x3de1a6f6	0.110181734
43	0xbd8e0ee8	-0.06936437
44	0xbc4812f5	-0.012211551
45	0xbd6c4494	-0.05768259
46	0xbcce611d	-0.025192792
47	0x3cb6fec3	0.022338277
48	0xbdf8ea85	-0.12154106
49	0x3dbe0525	0.09278325
50	0x3da69b2e	0.08135067
51	0xbd96a79b	-0.07356187
52	0xbbe3a694	-0.006947348
53	0x3ca1b4e1	0.01973957
54	0x3e01f4c1	0.12691022
55	0xbe00367a	-0.12520781
56	0x3d9fe599	0.07807464
57	0xbd2ae719	-0.0417243
58	0x3da90ba6	0.08254175
59	0x3dbcbb1f	0.09215378
60	0xbb900986	-0.0043956665
61	0xbdf74be6	-0.12075023
62	0x3dcc7a22	0.099842325
63	0x3d81fec4	0.06347421
64	0x3db9aa03	0.0906563
65	0x3d56c53c	0.05243419
66	0x3ddb711c	0.10714933
67	0xbc9a68ac	-0.01884874
68	0x3d0cf8d2	0.03441698
69	0xbda8ef59	-0.08248777
70	0x3de16fbd	0.110076405
71	0xbceab649	-0.028651373
72	0x3d0a8ea6	0.033827446
73	0xbe01db38	-0.12681282
74	0xbd3e874a	-0.04651574
75	0x3ce20945	0.02759231
76	0x3ce3aaf6	0.027791481
77	0x3df459ff	0.11931228
78	0x3d4912f9	0.04909036
79	0xbc835393	-0.016031062
80	0x3d9fad44	0.0779672
81	0xbc59ebc2	-0.013300838
82	0x3d898cb8	0.06716293
83	0x3d716677	0.05893561
84	0xbd31155d	-0.043233264
85	0xbd526536	-0.051366054
86	0xbd43adac	-0.04777305
87	0x3d5d3e5a	0.05401454
88	0xbd4185f4	-0.04724689
89	0x3dac5911	0.084154256
90	0xbdfc4c44	-0.12319234
91	0x3de7353f	0.11289453
92	0xbdc53fea	-0.09631331
93	0x3e2dc591	0.16969897
94	0x39a81f74	0.0003206689
95	0xbc04e743	-0.008111778
96	0x3d9721bf	0.073794834
97	0x3df7aea2	0.120938554
98	0xbd22dd6e	-0.039761953
99	0xbd21e93d	-0.039529074
100	0x3c93a63d	0.018023605
101	0xbde72b9e	-0.11287616
102	0xbdd3cd5b	-0.10341903
103	0xbd05fc33	-0.03271122
104	0xbc8088a0	-0.015690148
105	0x3d94aeb0	0.072598815
106	0xbd80beac	-0.06286368
107	0xbd10ef65	-0.035384554
108	0x3c38de10	0.011283413
109	0xbb62d13b	-0.0034609574
110	0x3ccd6b13	0.025075471
111	0x3db46869	0.08808977
112	0xbe2cf77d	-0.16891284
113	0xbd245600	-0.04012108
114	0xbd991ea1	-0.07476545
115	0xbcf1167a	-0.029429663
116	0x3dd83a95	0.10558049
117	0x3c83e46b	0.01610013
118	0xbdb79a75	-0.08965007
119	0x3d928490	0.071541905
120	0xbd8a0941	-0.06740046
121	0x3d833983	0.06407454
122	0x3d7f46fb	0.06232355
123	0xbc912252	-0.01771656
124	0x3dd02ecb	0.10165175
125	0x3c52dc66	0.01286993
126	0xbd302bc8	-0.043010503
127	0xbccb6188	-0.02482678
128	0xbd491ddd	-0.049100745
129	0xbd6b1996	-0.057397448
130	0xbd198d7e	-0.037488453
131	0x3d873dc9	0.066035815
132	0x3dc3ad20	0.09554505
133	0xbdce9b98	-0.10088271
134	0xbdaeaff1	-0.08529652
135	0xbd818965	-0.06325034
136	0xbdb69a0b	-0.089161
137	0xbd34bf15	-0.044127543
138	0xbcabedc8	-0.020987406
139	0xbb550705	-0.0032505405
140	0x3d0a521c	0.03376971
141	0x3b5130a3	0.003191986
142	0x3d79eaeb	0.06101505
143	0x3d865462	0.065590635
144	0x3da53f42	0.08068706
145	0xbd51c3c1	-0.051212076
146	0x3d5b36d3	0.05351908
147	0xbc825fe6	-0.015914869
148	0xbdbb523d	-0.09146545
149	0xbcf212bb	-0.029549947
150	0x3d3e8a38	0.046518534
151	0xbd51a5e3	-0.051183593
152	0xbd32d7b8	-0.043662757
153	0xbdb7f8cb	-0.08983
154	0xbd1197b4	-0.035545066
155	0x3da26d9d	0.07931063
156	0xbcca7976	-0.02471612
157	0xbd9227cb	-0.07136496
158	0x3d8ef578	0.06980413
159	0x3dc820ef	0.097719066
160	0xbc38cdaa	-0.011279503
161	0xbdbd7965	-0.0925167
162	0x3d911ae0	0.07085204
163	0xbdc252d7	-0.09488457
164	0xbafadf59	-0.0019140049
165	0xbdad73bc	-0.0846934
166	0xbd7e28b0	-0.06205052
167	0xbccf1496	-0.02527837
168	0xbb1a7417	-0.002356773
169	0xbd559920	-0.052147985
170	0x3de53580	0.11191845
171	0x3d94151f	0.07230591
172	0xbd7848ea	-0.06061641
173	0xbb438ddb	-0.002983919
174	0xbccf2c1e	-0.025289591
175	0x3cc1f28d	0.023675228
176	0x3ba45ed2	0.0050161863
177	0x3da54797	0.08070295
178	0x3cd381e9	0.025818782
179	0x3d685951	0.056725804
180	0xbc118f90	-0.008884326
181	0xbd129550	-0.035786927
182	0xbd117580	-0.035512447
183	0x3de9c180	0.1141386
184	0xbd0423ab	-0.032260578
185	0xbc820272	-0.015870307
186	0xbcd09cf6	-0.02546547
187	0x3dd29e7a	0.10284133
188	0x3d8dcc9a	0.0692379
189	0x3d53d4ff	0.0517168
190	0xbd82fc19	-0.0639574
191	0xbd5337fe	-0.05156707
192	0x3db0f042	0.086395755
193	0x3cac2dca	0.021017928
194	0x3a9f3a81	0.0012148173
195	0xbd9afee5	-0.075681485
196	0x3dbb8788	0.0915671
197	0x3ade8835	0.0016977849
198	0xbcc9b416	-0.024622004
199	0xbcb1dfd7	-0.02171318
200	0x3da2609d	0.07928584
201	0x3d87b958	0.066271484
202	0x3ddb89d8	0.10719651
203	0x3de68ea1	0.11257673
204	0x3dadee22	0.08492686
205	0x3d9eece7	0.07760029
206	0x3ccd41db	0.025055816
207	0x3cb7b45e	0.022424873
208	0x3d8e9d4e	0.06963597
209	0xbd83a6a1	-0.06428266
210	0x3d8141f2	0.06311406
211	0x3c134d70	0.0089906305
212	0xbd414656	-0.04718622
213	0xbd20b883	-0.039238464
214	0x3ca1dbd5	0.019758144
215	0x3d43aa7c	0.04777001
216	0x3c66889f	0.014070659
217	0xbd8b8419	-0.06812305
218	0xbd1405dc	-0.0361384
219	0xbc9d071f	-0.019168435
220	0x3d46429e	0.048403375
221	0xbe1e56fe	-0.15462872
222	0x3df309a6	0.11867075
223	0x3d41df8c	0.04733233
224	0xbdcf31db	-0.10116931
225	0x3cc23566	0.023707103
226	0xbbb50a8e	-0.00552494
227	0xbde966d7	-0.11396568
228	0xbba1c54b	-0.004936849
229	0x3cb2ef78	0.021842703
230	0xbe14b5ef	-0.14522527
231	0x3ca5f79c	0.02025967
232	0xbcaea54c	-0.021319054
233	0x3ce736d9	0.028224396
234	0x3d2a74ac	0.041615173
235	0xbe03e99e	-0.12882087
236	0x3d45d720	0.048300862
237	0x3cc24d2f	0.023718445
238	0xbcb739ef	-0.022366492
239	0x3dc2d0a6	0.09512453
240	0x3dd1b9ff	0.10240554
241	0xbd0fc918	-0.035103887
242	0x3de30f9d	0.11086962
243	0xbc1da528	-0.009621896
244	0x3da67305	0.08127407
245	0x3c5c55f4	0.013448227
246	0x3dab7d1c	0.08373472
247	0x3c902d51	0.017599734
248	0xbd5dbb30	-0.054133594
249	0x3d387fd8	0.045043796
250	0xbcafb136	-0.021446805
251	0x3dbb9e98	0.09161109
252	0x3d00650d	0.03134637
253	0x3dad9fda	0.08477755
254	0xbe15938a	-0.14607063
255	0x3d984c8b	0.074364744

animal_transform2.bias f4 [64]
0	0x3a8f2578	0.0010921201
1	0x3a4949ac	0.00076785195
2	0xbaca0754	-0.0015413561
3	0x3ace8f3b	0.0015759239
4	0xbce60554	-0.028078713
5	0xbc33ccd0	-0.010974124
6	0xbd9f6ba9	-0.077842064
7	0x3bb4f85b	0.0055227703
8	0x3c280c9e	0.010256914
9	0x3cad4f3e	0.02115595
10	0x3c354487	0.0110637015
11	0x3bb8db2c	0.0056413617
12	0xbb8467b2	-0.0040406818
13	0x3c416428	0.011803664
14	0x3c3c0016	0.01147463
15	0x3b8513e1	0.0040612076
16	0x3bfe2e8b	0.007757013
17	0x3a8c5771	0.0010707212
18	0xb86a14b2	-5.580922e-05
19	0xb9feaada	-0.0004857395
20	0xbbd682a6	-0.006546336
21	0x3b77cea7	0.0037812383
22	0xbcd04d3c	-0.025427453
23	0x3ca755d5	0.02042667
24	0x3db52991	0.08845819
25	0xbc0c0d0c	-0.0085480325
26	0xbcdce3e5	-0.026964137
27	0x3c2f2704	0.010690454
28	0x3c844327	0.016145302
29	0xbd6e0d01	-0.05811787
30	0xbdbca500	-0.09211159
31	0x3d6c17ba	0.057639815
32	0x3c37a221	0.011208088
33	0xbb7eb2b2	-0.0038863835
34	0xbb8ec20a	-0.0043566274
35	0x3cdfcbd3	0.02731887
36	0xbc21a185	-0.009865169
37	0xbbdb844f	-0.006699122
38	0xbb0a1675	-0.0021070514
39	0x3c042fb7	0.008068017
40	0x3b57a5cb	0.0032905217
41	0x39bb936a	0.00035777251
42	0x3c702286	0.0146566685
43	0xba53acf0	-0.0008074781
44	0xbb934424	-0.004494207
45	0xbc51ac4b	-0.0127974255
46	0x3c48658f	0.012231245
47	0x3bd50a8b	0.006501501
48	0xbd6e42dc	-0.05816923
49	0xbc33c9a3	-0.010973367
50	0x3ab058c9	0.0013454194
51	0xbbf6db67	-0.007533479
52	0x3ad62bfc	0.0016340013
53	0xbc25eacc	-0.010126781
54	0x3c7f8ece	0.015598012
55	0xbc6b278c	-0.01435269
56	0xbc9b71e8	-0.018975213
57	0xbbd7c992	-0.0065853084
58	0xbbe3f317	-0.006956469
59	0x3b9c6ea8	0.0047739334
60	0xbba63788	-0.005072538
61	0x3d394f8c	0.045241877
62	0xbc95e014	-0.018295325
63	0x3c28f3b4	0.01031201

attention.query.weight f4 [64, 64]
0	0x3dce3d1f	0.10070252
1	0xbd619686	-0.05507519
2	0x3da51854	0.08061281
3	0xbd2c1646	-0.04201343
4	0xbd9ec0cc	-0.07751617
5	0xbccc8a03	-0.024968153
6	0x3d2db801	0.042411808
7	0x3dbf7d7d	0.09350107
8	0xbd092d21	-0.033490304
9	0xbd6ecc55	-0.058300335
10	0x3cd4a6eb	0.025958499
11	0x3dc96033	0.09832802
12	0x3dcba006	0.099426314
13	0xbd8f77ac	-0.070052475
14	0xbda03a20	-0.078235865
15	0xbb8ff3ab	-0.004393061
16	0xbd6c99fb	-0.057764035
17	0xbd93f768	-0.07224923
18	0xbcd4d408	-0.02598001
19	0x3d351bcc	0.044215962
20	0x3da74b71	0.08168686
21	0x3c1794fb	0.009251828
22	0x3d66692f	0.056252655
23	0x3db958c9	0.090501375
24	0xbd975338	-0.073889196
25	0x3de07050	0.10958922
26	0x3d4b62fa	0.04965494
27	0xbdc5784e	-0.09642087
28	0x3ccfa761	0.025348367
29	0xbd068315	-0.032839853
30	0x3be68275	0.0070345947
31	0xbdab8d7c	-0.083765954
32	0x3939a112	0.00017702978
33	0xbc27c016	-0.010238668
34	0xbd0f75b9	-0.03502438
35	0xbdbf91f6	-0.09354012
36	0x3da7362d	0.0816463
37	0xbc96a938	-0.018391237
38	0x3d8d46cd	0.0689827
39	0xbd6ecfd0	-0.058303654
40	0xbd20581e	-0.039146535
41	0xbb27e539	-0.0025618805
42	0xbd27b562	-0.040944465
43	0xbc45c641	-0.012071193
44	0x3da10ceb	0.07863792
45	0x3de6a38e	0.11261664
46	0x3dd732d4	0.105077416
47	0xbdc0d9d1	-0.09416545
48	0x39e6522f	0.0004393025
49	0x3c67b58e	0.014142407
50	0x3d9a6ee5	0.07540683
51	0xbe0afc2a	-0.13572755
52	0xbd7dc069	-0.061951075
53	0xbcf35822	-0.029705111
54	0xbda0f213	-0.07858672
55	0xbc7f8eb3	-0.015597987
56	0xbdd03468	-0.10166246
57	0x3da61f2f	0.081114165
58	0x3dd390b5	0.10330335
59	0xbdcf579e	-0.101241335
60	0xbdde7da6	-0.10863809
61	0xbda6a607	-0.08137136
62	0x3cbb434c	0.022859238
63	0x3dbfbaf3	0.093618296
64	0xbda989b3	-0.08278217
65	0xbd9933a1	-0.074805506
66	0x3c962018	0.01832585
67	0xbcafea95	-0.021474162
68	0x3def76df	0.11692595
69	0x3cfe6c87	0.03105761
70	0x3deec199	0.116580196
71	0x3cbadafb	0.022809496
72	0x3aeff249	0.001830646
73	0xbdb9f13d	-0.09079216
74	0xbd3c3891	-0.045952383
75	0xbc827917	-0.01592688
76	0xbe0fe3fe	-0.14051816
77	0xbda06c8b	-0.07833203
78	0x3d196d84	0.037457958
79	0xbe1c8fbd	-0.15289207
80	0x3ddc8d22	0.107691064
81	0xbd8bb4bb	-0.06821581
82	0xbe009e0b	-0.12560289
83	0x3c704e63	0.014667126
84	0x3d4b84d3	0.049687218
85	0x3d66bca6	0.056332253
86	0xbdc19926	-0.09453039
87	0xbd07ec04	-0.033184066
88	0xbe2173dc	-0.15766853
89	0x3d13d5ac	0.036092445
90	0xbdd40ff0	-0.10354602
91	0xbd1e5bb1	-0.038661662
92	0x3c89aa56	0.016804855
93	0x3da3c325	0.07996205
94	0x3e2e600f	0.17028831
95	0xbe06518b	-0.13117044
96	0x3de99cad	0.11406837
97	0x3c67f5ab	0.014157693
98	0x3dd39893	0.103318356
99	0x3d87c9df	0.06630301
100	0x3d867025	0.065643586
101	0x3dc40c87	0.09572702
102	0x3d978e73	0.07400217
103	0x3dd05313	0.10172095
104	0x3b875bb9	0.0041308072
105	0x3d9e4c28	0.077293694
106	0x3ddef19d	0.10885928
107	0xbd7c8298	-0.06164798
108	0x3cf8dcdb	0.03037875
109	0xbd9da922	-0.07698275
110	0xbce45da9	-0.027876692
111	0xbba529c6	-0.00504038
112	0x3dde2076	0.10846035
113	0xbdae3b7e	-0.08507441
114	0x3caa3838	0.02077876
115	0x3b521997	0.003205871
116	0xbe054691	-0.130152
117	0x3d09c5e9	0.033636007
118	0x3ce6f109	0.028191106
119	0xbd6325a7	-0.05545583
120	0xbd158537	-0.036503997
121	0x3dad0cad	0.08449683
122	0xbdb46159	-0.0880763
123	0x3b9925ce	0.004673696
124	0x3d98ab5c	0.07454559
125	0xbd32c6eb	-0.043646734
126	0xbca4b20a	-0.020104427
127	0x3e13ea6b	0.14444892
128	0x3df95a31	0.12175406
129	0xbdf95d57	-0.12176006
130	0xbddc2009	-0.10748298
131	0x3dbb771b	0.09153577
132	0x3ca6003c	0.020263784
133	0xbe102e7a	-0.1408023
134	0xbc895eed	-0.016768897
135	0x3d59f7e3	0.05321492
136	0xbd7585dd	-0.059942115
137	0xbdaaa0c6	-0.08331446
138	0xbd3f1262	-0.04664839
139	0xbdc31977	-0.095263414
140	0x3b77f1cc	0.003783333
141	0x3d27f88d	0.04100852
142	0xbd243f95	-0.0400997
143	0xbdea3361	-0.11435581
144	0x3dd12c70	0.10213554
145	0x3dd344e7	0.103158765
146	0xbe00b760	-0.12569952
147	0x3c0430b1	0.00806825
148	0x3b4dc6bf	0.003139898
149	0x3cf6d1fb	0.030129423
150	0x3c4aa966	0.012369489
151	0xbd7e8479	-0.062138055
152	0xbcfb53d8	-0.030679628
153	0x3dcded9d	0.10055087
154	0xbe0f43a6	-0.1399065
155	0x3db71750	0.089399934
156	0xbb0d264e	-0.0021537724
157	0x3d03596a	0.032067694
158	0x3d9cbbc7	0.07653003
159	0xbdf34dc1	-0.11880065
160	0x3c526f84	0.01284397
161	0xbd0742d0	-0.0330227
162	0xbd9a3de3	-0.07531335
163	0xbe06e7ec	-0.13174409
164	0x3cce5992	0.025189195
165	0x3d8d8504	0.06910136
166	0xbd0d63f3	-0.034519147
167	0x3d4a4dde	0.049390666
168	0x3d0068d9	0.03134999
169	0x3d1b6b23	0.03794397
170	0xbd50c2da	-0.050967075
171	0x3de676b0	0.112531066
172	0xbd24e0b1	-0.040253345
173	0x3c8b0a42	0.016972665
174	0x3c8710ba	0.016487468
175	0x3c37ede8	0.011226155
176	0xbd94f2b8	-0.072728574
177	0x3d483f11	0.04888827
178	0xbc888906	-0.0166669
179	0xbe11f19d	-0.14252324
180	0xbdb1e7b3	-0.08686771
181	0x3da52afe	0.08064841
182	0x3d169934	0.0367672
183	0xbdd7ffad	-0.10546813
184	0x3abd338c	0.0014434918
185	0xbd30ab32	-0.043132015
186	0xbcf86900	-0.030323505
187	0x3d70c52c	0.058781788
188	0x3d5591c2	0.05214096
189	0x3d9dc250	0.07703078
190	0xbdc4458d	-0.09583578
191	0x3dc7e3fe	0.09760283
192	0xbd22a3b2	-0.039706893
193	0xbd76bf2b	-0.060240906
194	0xbd393290	-0.045214236
195	0x3d9dbbac	0.07701811
196	0xbd891643	-0.06693699
197	0xbd4a063e	-0.04932236
198	0x3e1ba167	0.15198289
199	0xbd8091f9	-0.06277842
200	0xbdadb21d	-0.08481238
201	0x3d7a72fc	0.061144814
202	0x3d83bca2	0.06432463
203	0xbd369b34	-0.044581607
204	0x3d6c1d76	0.057645284
205	0x3dc7510b	0.097322546
206	0x3dcd3d1e	0.10021423
207	0xbdb8e035	-0.09027139
208	0x3e0ef2c5	0.13959797
209	0x3c8d3dbd	0.017241353
210	0x3d039369	0.032123003
211	0x3d88b5f0	0.06675327
212	0x3d629888	0.055321246
213	0x3d5d8725	0.054083962
214	0x3c2ff50e	0.010739578
215	0xbc8557ed	-0.016277278
216	0xbd3fe88b	-0.04685263
217	0xbd3701f2	-0.04467959
218	0x3c341117	0.010990403
219	0xbda63bd1	-0.08116878
220	0xbdb7c597	-0.08973234
221	0x3e2e269e	0.17006919
222	0x3de54f13	0.11196723
223	0x3d5defba	0.0541837
224	0x3d72f0c3	0.05931164
225	0x3ccba7b2	0.024860237
226	0xbd60318c	-0.05473475
227	0xbda2f817	-0.07957476
228	0xbe0ab936	-0.13547215
229	0xbe03466f	-0.12819837
230	0x3dcf1404	0.101112396
231	0x3d616274	0.055025533
232	0x3dd0b1bc	0.1019015
233	0x3d3c0943	0.04590727
234	0xbd21e958	-0.039529175
235	0x3daee158	0.08539075
236	0x3b4d0466	0.003128314
237	0xbd1824a4	-0.03714432
238	0x3e1c0026	0.15234432
239	0x3bea6ddb	0.007154209
240	0x3e18acf1	0.14909722
241	0x3abf85b7	0.0014611994
242	0x3dc28500	0.09498024
243	0xbe0188b2	-0.12649801
244	0xbe03f100	-0.12884903
245	0xbdabd831	-0.083908446
246	0xbbb23b4f	-0.005439199
247	0xbda86bd1	-0.08223689
248	0x3cd484f8	0.02594231
249	0xbdfca8a5	-0.12336854
250	0x3da7a5aa	0.08185895
251	0xbd77fe56	-0.060545288
252	0x3d9977ea	0.07493575
253	0xbd8a11b9	-0.067416616
254	0xbd047f2b	-0.03234784
255	0x3e049570	0.12947631

attention.query.bias f4 [64]
0	0xbe2ad02a	-0.16680971
1	0xbdf340fc	-0.11877629
2	0xbda1422a	-0.07873948
3	0xbe022e1b	-0.127129
4	0x3e29fdc7	0.16600715
5	0xbdcd37c3	-0.10020401
6	0xbe3014f0	-0.17195487
7	0x3da411d1	0.08011211
8	0xbe0b9679	-0.1363162
9	0x3df4c9dd	0.11952565
10	0xbe025d73	-0.1273096
11	0xbd2f4ce3	-0.042797934
12	0x3e175026	0.14776668
13	0x3d2d2e44	0.04228045
14	0xbe4b44e7	-0.19850503
15	0x3e333e26	0.17504176
16	0x3debba09	0.11510093
17	0x3ce9b4df	0.028528629
18	0xbddf9768	-0.1091755
19	0x3daf4294	0.08557621
20	0x3dda13aa	0.10648282
21	0x3c6f4fcd	0.014606428
22	0xbdc361fd	-0.09540174
23	0x3d802983	0.06257918
24	0x3db619f7	0.08891671
25	0xbe32f5c2	-0.17476562
26	0xbdf3e038	-0.11908001
27	0x3de89b21	0.113577135
28	0x3d91129d	0.07083628
29	0xbd93f521	-0.07224489
30	0xbdf6b983	-0.12047102
31	0xbdc64ab9	-0.09682221
32	0xbcb3f2ae	-0.021966305
33	0xbbf90ee5	-0.0076006525
34	0x3cb0fc0d	0.021604562
35	0x3c7b5bb4	0.015341688
36	0xbb319f2f	-0.0027102937
37	0xbd0a116f	-0.033708032
38	0x3c4d5995	0.012533565
39	0xbc2799c6	-0.010229534
40	0xbdcda7e8	-0.10041791
41	0xbccc1007	-0.024909986
42	0x3caec7f7	0.021335585
43	0x3a600b8c	0.00085466425
44	0x3cccf431	0.025018783
45	0xbd4b13fb	-0.0495796
46	0x3b4082b7	0.0029374787
47	0x392c52ec	0.00016434089
48	0xbd375059	-0.04475436
49	0xbcc9a7b0	-0.024616092
50	0x3d572b28	0.05253139
51	0xbd3199d8	-0.043359607
52	0x3cc7a4cb	0.024370572
53	0xbdabc5e0	-0.08387351
54	0xbd5e4544	-0.054265276
55	0x3d97ad9c	0.0740616
56	0xbc39a5d8	-0.011331044
57	0x3dc7abdd	0.09749577
58	0xbaa6066b	-0.0012666708
59	0x3d8c2abe	0.0684409
60	0x3d3756bc	0.04476045
61	0x3c8fb96d	0.017544473
62	0xbcd7f66a	-0.026362617
63	0x3cb1e7ba	0.021716941

attention.key.weight f4 [64, 64]
0	0x3db08a8f	0.08620178
1	0xbde4d41d	-0.1117327
2	0xbdc3c7cf	-0.09559595
3	0xbd163457	-0.03667101
4	0x3dbd4334	0.092413336
5	0x3d612ab9	0.054972384
6	0xbe11f84e	-0.14254877
7	0xbb67220e	-0.00352681
8	0xbe123fea	-0.14282194
9	0xbd62cc91	-0.05537087
10	0xbd9860a9	-0.074403115
11	0xbd1ebc1d	-0.038753618
12	0xb9f72869	-0.0004714162
13	0xbd8e1fce	-0.0693966
14	0x3c31cf1b	0.0108526
15	0xbdcda56f	-0.100413196
16	0xbe18f054	-0.14935428
17	0xbdfa1a52	-0.122120515
18	0xbe01f926	-0.12692699
19	0x3d55f775	0.052237947
20	0xbd6de297	-0.05807742
21	0xbdc14f31	-0.09438933
22	0x3d6e09a0	0.058114648
23	0xbe22247f	-0.15834235
24	0xbda23477	-0.07920163
25	0xbab9d4df	-0.001417782
26	0x3e1a2446	0.150529
27	0xbe17ce04	-0.14824682
28	0xbe36c5f4	-0.1784895
29	0x3d3c6b13	0.04600055
30	0x3e16c8c0	0.14725018
31	0xbddb338b	-0.107031904
32	0xbe0e0eb3	-0.13872795
33	0x3d4839c1	0.048883203
34	0xbdc576c7	-0.096417956
35	0x3d57f37f	0.05272245
36	0xbd50ac4e	-0.050945573
37	0x3d2ae9ae	0.04172676
38	0x3b5df6f5	0.0033869122
39	0x3dc7d5dd	0.09757588
40	0x3ddd01c9	0.10791356
41	0x3b88bf1d	0.004173173
42	0xbcb4accf	-0.022055058
43	0xbce00fbb	-0.02735125
44	0x3de3b589	0.111186095
45	0x3d378f6f	0.044814523
46	0x3c13c2d4	0.009018619
47	0xbd6365a9	-0.055516873
48	0x3deac0e7	0.114625745
49	0xbcca8e10	-0.024725944
50	0xbd2e4a10	-0.0425511
51	0x3dfa9846	0.12236075
52	0xbdf33fcd	-0.118774034
53	0xbb870296	-0.0041201813
54	0xbe271b5c	-0.1631903
55	0x3d8c9530	0.06864393
56	0x3e1e8229	0.1547934
57	0x3d24e54c	0.040257737
58	0xbd8f20b4	-0.069886595
59	0xbe1a1d2e	-0.15050194
60	0x3beef847	0.0072927806
61	0xbe035038	-0.1282357
62	0x3e0afcb5	0.13572963
63	0xbe09da2c	-0.13462132
64	0xbd8ea089	-0.069642134
65	0xbd30e776	-0.04318949
66	0x3dd27bae	0.10277496
67	0x3bfcb4a2	0.007711963
68	0x3dc21832	0.09477271
69	0xbcb15281	-0.021645786
70	0xbdf2c421	-0.11853815
71	0xbe1c3af1	-0.1525686
72	0xbdbe91c2	-0.09305145
73	0xbe2ac52b	-0.16676776
74	0xbe6bf0ac	-0.23041028
75	0xbcfc5bd0	-0.030805498
76	0xbd416169	-0.04721204
77	0xbde4bd50	-0.11168921
78	0xbcbedee1	-0.023299636
79	0xbda7b212	-0.08188261
80	0x3cf777a1	0.03020841
81	0xbdcf7a5b	-0.10130759
82	0x3cac6f1f	0.02104908
83	0x3d57bb1e	0.052668683
84	0xbaebd849	-0.0017993535
85	0xbd54eb17	-0.05198201
86	0xbd493c90	-0.049130023
87	0xbc21d588	-0.00987757
88	0x3dcb1fe4	0.09918192
89	0x3c787990	0.0151657015
90	0x3dc7baba	0.09752412
91	0xbe47d59d	-0.19515081
92	0xbe4136c5	-0.18868549
93	0xbe200e33	-0.15630417
94	0xbbf1fd01	-0.0073848967
95	0xbe60b8de	-0.21945521
96	0xba18fc3c	-0.00058359257
97	0x3da7872c	0.08180079
98	0x3a7b7008	0.0009591584
99	0x3bca3482	0.00617081
100	0x3df30d84	0.11867812
101	0x3e3133de	0.17304942
102	0x3d452fe5	0.04814138
103	0x3dac6aa8	0.084187806
104	0x3cfce89b	0.030872634
105	0xbdd0a15b	-0.10187026
106	0xbe4cafb8	-0.19988906
107	0x3dc2f69f	0.095196955
108	0x3c589f83	0.013221624
109	0x3caa4bf6	0.020788174
110	0xbd0d099e	-0.034433
111	0xbe34f1ca	-0.1767036
112	0x3d4c0aab	0.04981486
113	0xbd224a81	-0.039621834
114	0xbd0e2082	-0.03469897
115	0x3deb9d0f	0.11504566
116	0xbd20ad3d	-0.039227713
117	0xbd47af11	-0.04875094
118	0xbd3229eb	-0.043497007
119	0x3d526e79	0.051374886
120	0x3d926a90	0.071492314
121	0xbccdeca8	-0.02513726
122	0x3dab2dde	0.08358358
123	0xbdca2a64	-0.098713666
124	0xbde02bdf	-0.10945868
125	0xbd53f5c3	-0.05174805
126	0xbdb96885	-0.09053139
127	0xbd859837	-0.06523173
128	0x3d93c583	0.07215407
129	0x3d717abe	0.058954947
130	0xbd42e115	-0.047577936
131	0x3dd9b2a2	0.10629775
132	0xbc9532eb	-0.018212756
133	0x3db93b26	0.09044485
134	0xbdd73f94	-0.105101734
135	0xbe220a36	-0.15824208
136	0x3d89b7be	0.06724499
137	0xbd4b5e81	-0.049650673
138	0xbdc995ba	-0.09843011
139	0xbdc974f4	-0.0983676
140	0xbd00fea8	-0.03149286
141	0xbe1d5874	-0.15365773
142	0xbdbaf1e2	-0.09128167
143	0x3c8dbc0d	0.017301584
144	0xbe1b8357	-0.15186821
145	0xbd83d27f	-0.06436633
146	0xbe12c79b	-0.14333956
147	0xbd6ca6c5	-0.05777623
148	0x3dad827f	0.08472156
149	0xbe08b30b	-0.1334955
150	0x3d2ca58b	0.04215006
151	0xbd4b16a1	-0.049582127
152	0xbd9f20c5	-0.07769922
153	0x3c0aa22b	0.008461515
154	0xbd3b3dd4	-0.04571326
155	0xbe098ad6	-0.13431868
156	0xbbb94e66	-0.005655098
157	0xbd995c4b	-0.074883066
158	0x3e087092	0.13324192
159	0xbe269b13	-0.16270094
160	0xbe169deb	-0.14708678
161	0x3b82f579	0.003996548
162	0xbd8ae509	-0.06781966
163	0x3daad1ea	0.08340819
164	0xbaf43dac	-0.0018634102
165	0x3d2b72d8	0.04185757
166	0x3cc49f95	0.024001876
167	0xbd8a8cc4	-0.0676513
168	0xbc118f64	-0.008884285
169	0xbda7586d	-0.08171163
170	0xbe4825ef	-0.1954572
171	0x3d7f1f93	0.06228597
172	0xbc1b3492	-0.009472983
173	0xb96f92f4	-0.0002284756
174	0xbdf67ea6	-0.12035875
175	0xbde16320	-0.11005235
176	0x3d85542e	0.065101966
177	0xbd8ce545	-0.06879667
178	0xbd9bfadf	-0.07616209
179	0x3ddfbcdb	0.10924693
180	0xbd8e3af6	-0.0694484
181	0xbc8f0242	-0.017457131
182	0x3d09b74a	0.033622064
183	0x3d5e7895	0.054314215
184	0x3e02ac34	0.12761003
185	0xbd0dc2a3	-0.03460945
186	0x3d2f02a5	0.04272713
187	0xbd419b8e	-0.04726749
188	0x3cee6380	0.02910018
189	0x3d6e2efb	0.058150273
190	0x3cf3a404	0.029741295
191	0x3c99fdf0	0.018797845
192	0xbdbf9ab8	-0.09355682
193	0xbd217551	-0.039418522
194	0x3cb6779d	0.022273833
195	0xbdfd9adb	-0.12383052
196	0x3e3a9c5d	0.1822371
197	0x3b0f5ba0	0.002187468
198	0xbcdeef5a	-0.027213741
199	0xbd6b2369	-0.057406817
200	0xbc5c64ba	-0.013451749
201	0xbcb403b8	-0.02197443
202	0xbe5b0037	-0.213868
203	0x3d93b7fe	0.07212828
204	0xbd659aba	-0.056055762
205	0xbe3f8bba	-0.18705645
206	0xbdd96256	-0.10614459
207	0x3ca7bf20	0.020476878
208	0xbd43c9c8	-0.047799855
209	0xbe241398	-0.160231
210	0x3d7d605d	0.061859477
211	0x3cc1d2ec	0.023660146
212	0x3df7c43f	0.12097978
213	0x3ce32ba4	0.02773077
214	0x3c5787a5	0.013154899
215	0xbd036d7e	-0.03208684
216	0x3bfab37a	0.00765079
217	0x3d6364db	0.055516105
218	0x3e04dbc4	0.12974459
219	0xbddf3792	-0.10899271
220	0xbe1b3475	-0.1515673
221	0xbce703d1	-0.028200062
222	0x3da851b6	0.0821871
223	0xbe531e69	-0.2061707
224	0xbd84ca5c	-0.064839095
225	0xbcf51928	-0.029919222
226	0xbdf1038f	-0.11768257
227	0xbe349002	-0.1763306
228	0x3dd3e47c	0.10346314
229	0x3e3addb9	0.18248643
230	0x3d37fd6b	0.044919413
231	0xbdebb5da	-0.11509295
232	0x3c9665d7	0.018359108
233	0xbe0dd2b3	-0.13849907
234	0xbe34dd73	-0.17662601
235	0x3c6c394f	0.01441796
236	0xbc4ffead	-0.012694997
237	0x3de8804a	0.11352594
238	0xbe395683	-0.18099408
239	0xbe100eb3	-0.14068107
240	0xbd58f76f	-0.052970346
241	0xbd2e99d3	-0.042627167
242	0xbe01c16f	-0.12671445
243	0x3e195fa9	0.14977898
244	0x3b2dbd6c	0.002651061
245	0x3db8dadb	0.09026118
246	0x3ccba83b	0.024860492
247	0x3da31761	0.079634435
248	0x3e2a5e75	0.16637595
249	0x3d213580	0.039357662
250	0xbd324ac2	-0.043528326
251	0x3c5739fd	0.013136384
252	0xbcfd91e6	-0.030953359
253	0xbc730c05	-0.014834409
254	0x3db42603	0.08796313
255	0xbdbebc97	-0.093133144
