models/model_B_fixed.pth (torch, 11301 bytes, 10 tensors)

fc1.weight f4 [16, 4]
00000000: d4ee 8fbe 5827 c2be 24a1 953e 888c 8dbd
00000010: fdb7 55bd a749 04be 7427 77be 1163 b73d
00000020: 76f5 c43e 5e5f 94be 2040 c43c 00b1 c2be
00000030: e89a 69be 3ce0 e33e 80c9 ab3b 9cc4 f93e
00000040: 4444 c0bd f6b5 8ebe fef4 98be f8bb df3e
00000050: 74fd c5be bc2f 853e 588c fe3d 02dc 143e
00000060: 0872 903e 70f3 05be 4a67 9e3e 02f6 cbbe
00000070: ba12 37be c487 ba3e 84f3 173e 2e7d 8dbd
00000080: 9434 e2bd 490d 99be e6ab 9b3e 8e8a 1dbc
00000090: 6095 8abc 582b f23d 2eea bc3e 609b 82be
000000a0: dc54 30be 3a79 ad3e ee94 903e 18df 7bbe
000000b0: a357 fbbe f30c c73d fea0 863e 8d67 fc3d
000000c0: a095 b53e 1e21 cbbe e418 813e 6026 9fbe
000000d0: 50a8 903e 4e7e bf3e 9c28 223e dfd0 cf3e
000000e0: f230 abbe 541d e7be 3425 f6be 9377 9e3e
000000f0: b8d9 2e3e f616 bebe a8f3 773e 1c2e e73e
-0.281119 -0.37920642 0.29224503 -0.0691157 -0.052177418 -0.12918721 -0.24136144 0.08954442
0.38468522 -0.2897901 0.023956358 -0.38025665 -0.22812998 0.44507015 0.0052425265 0.48782814
-0.09388021 -0.278732 -0.29874414 0.43698096 -0.38669932 0.2601298 0.12429112 0.14537051
0.28212 -0.13081145 0.30938178 -0.39836127 -0.17878237 0.36431706 0.14838988 -0.06908642
-0.11045185 -0.29892948 0.30404586 -0.009615554 -0.01691693 0.118246734 0.36897415 -0.25509167
-0.17219871 0.3388155 0.28238624 -0.24596822 -0.490903 0.09719267 0.26294702 0.12324438
0.35465717 -0.39673704 0.25214303 -0.31083965 0.28253412 0.3740105 0.15835804 0.40589043
-0.3343578 -0.45139563 -0.4807526 0.30950603 0.1707524 -0.37126893 0.24214041 0.45152366

fc1.bias f4 [16]
00000000: fa6f fcbe bd03 ba3e c80d 9d3d f9c5 573d
00000010: 4c2f e33e 9db6 e63e 58bb 573e 93fe c83e
00000020: 9c70 5b3e 28da a63d de06 e1be 8d14 c73d
00000030: 5821 b6be 6003 1f3e 21a3 ab3d 76a4 d63b
-0.4930418 0.36330977 0.07668644 0.052679036 0.44372022 0.45061198 0.2106756 0.39256725
0.21429676 0.08147079 -0.43950552 0.097207166 -0.35572314 0.15528631 0.08380724 0.006550367

rnn.weight_ih_l0 f4 [48, 4]
00000000: 0f77 2ebe 0b2b 1abe 9c86 3c3e a85d fb3d
00000010: d09c 0a3e af14 91bd ec63 38bd 8a12 77bd
00000020: 7fc5 323e 701c d7bd efb1 1d3e e265 333e
00000030: d95c 64be aec5 e93b 8976 2fbd 73e2 07be
00000040: bfe9 da3d 2f2d 01bd 94cd 603e fe57 21be
00000050: ee66 f73d 1fc5 55be e56b 01be 572f b33c
00000060: da7e 493e 1f2f 063e c5ab 51be a7a1 dc3c
00000070: 0bfd 1bbe 9258 be3b 9a3e 55be c536 a0bd
00000080: 20f6 2f3e 1241 6abe 177d 79be 3501 3d3d
00000090: 01b0 e53c 6ce1 54bd ba8e 5c3e 7e6b 20be
000000a0: c1bd 16be 16e9 3abe 2de5 41bd 8ca8 73bd
000000b0: c9ec 1f3e 06e4 4dbc bf77 a83d e6c8 d1bd
000000c0: fd4a 513e 8184 593e 3841 62be 6bb8 80bd
000000d0: d6f7 5bbe a021 d43d 6ff9 60be e189 f7bd
000000e0: 137c 803e b58b 73be 378b 413e beae b43c
000000f0: ed11 4e3e 1068 00be 1984 243e 4ca4 013d
00000100: 2be2 923c e2c4 2c3e 3331 73be 8cc3 4fbe
00000110: 6869 7a3e 2f9a 16be ee30 35be 6923 39bc
00000120: 1219 9ebd 0554 01bd 52d3 2fbe 1e35 c33d
00000130: 4d20 59be 5986 c43c 8259 103e 9407 5e3d
00000140: ee91 043d 4a49 133d c76a 98bd ae6f 3dbd
00000150: 85fe d9bd ffa3 2ebe 3d03 07be 99a2 793e
00000160: dfe9 20bd db95 b83d 28d5 2d3e e6dc 5cbc
00000170: 70dc 0bbe 6c7d 30be f95e c0bd 2bd4 b33d
00000180: d6f0 55be e378 ecbc e732 bd3d f9a7 543e
00000190: cc31 953d d1be 423d 8ae7 2f3e 09c8 ed3d
000001a0: 2d90 aa3d 7270 9fbd 0a7f 4bbe e33c 65bd
000001b0: 04bc 36bd 01b4 a03c eb10 d8bc f487 d03d
000001c0: e5f4 273e bbde d3bd 3040 76be f961 05be
000001d0: 24a5 fcbd 6191 0d3e 242f 25be a5cc dcbc
000001e0: 7d75 5bbd 3b94 1bbe 0e5e ed3d 464b d8bd
000001f0: 0c29 64bc 98c8 35be 565d c6bc 06a6 083d
00000200: 933a 1fbc 688d bdbd c433 963d 3fd9 82bd
00000210: 0f35 0abe f2f5 38be dc9c 5ebd a4ee 6dbe
00000220: 8029 573e 2ec1 eebd 57ff dbbd c7f1 d33c
00000230: 1240 903d 6318 93bc a2bb 343e bd98 0fbe
00000240: 5d95 b83d eca4 1b39 4c76 52be 93f8 c4bd
00000250: 3a7f 713d df44 303d 6d16 3d3e 7558 263e
00000260: d2c9 0bbe d11b dbbd add9 42bd c0cd 37be
00000270: 4d63 94bd a9a2 56be 99f0 c23d 4323 303e
00000280: 1f8e a63c e96f 36be f313 47be 8bb8 c5bd
00000290: d11d 883d dc3b 1db9 ebfd 2f3d 94fd 6a3e
000002a0: 31b5 e43d f250 4b3d 0fcd 49bd 5fad e93d
000002b0: 8910 be3d 671d 65be 014f 15be 7ec9 1f3c
000002c0: 2e13 bf3d 59b9 f53d 99b3 1bbe 8a60 7fbe
000002d0: 1b42 80bc 6d33 ffbc 753f 923d 6530 92bd
000002e0: 9176 423e 5bd4 803c 1837 363e 3b47 33be
000002f0: 12e5 c93d f5dc e63c 9b77 fdbd 3e9a fa3d
-0.17037605 -0.15055482 0.18410724 0.12273723 0.13536382 -0.07084023 -0.045017168 -0.060320415
0.17458151 -0.10503471 0.15399908 0.17519334 -0.22301044 0.007134161 -0.042837653 -0.13269977
0.10689115 -0.03153723 0.21953422 -0.15756223 0.12080179 -0.20875977 -0.12638815 0.02187316
0.19677296 0.13103913 -0.20475681 0.02693255 -0.15233247 0.0058088982 -0.20824662 -0.078229465
0.17183733 -0.22876385 -0.24364124 0.04614373 0.028038027 -0.05197279 0.21538821 -0.15666005
-0.14720823 -0.18252978 -0.0473377 -0.05948691 0.1561767 -0.012566572 0.08225965 -0.102433965
0.20438762 0.21241952 -0.22095191 -0.06285175 -0.2148126 0.10357976 -0.21970151 -0.12086845
0.2509466 -0.23783763 0.18900762 0.02205598 0.20124026 -0.12539697 0.16066016 0.031650826
0.01793011 0.1687198 -0.23749237 -0.20289439 0.24454272 -0.14707254 -0.17694446 -0.011299946
-0.077196255 -0.031574268 -0.17170456 0.09531616 -0.21203728 0.023989843 0.14096645 0.054206446
0.032365732 0.035958566 -0.07442241 -0.046249084 -0.10644249 -0.17054747 -0.13184829 0.24378432
-0.039285537 0.09012958 0.16975844 -0.013480401 -0.13658309 -0.17235345 -0.093931146 0.08780702
-0.20892653 -0.028866237 0.092382245 0.20767201 0.072848886 0.047545258 0.17178169 0.11610419
0.083282806 -0.07785119 -0.1987268 -0.05596627 -0.0446129 0.019617083 -0.026375255 0.10182181
0.16402014 -0.10345217 -0.24047923 -0.13025655 -0.123361856 0.13824989 -0.16131264 -0.02695305
-0.053578842 -0.15193264 0.11590205 -0.10561232 -0.013925802 -0.17752302 -0.024214428 0.033361457
-0.009718555 -0.09255487 0.07334092 -0.06389093 -0.13496803 -0.1806257 -0.05434881 -0.23235565
0.21011925 -0.1165794 -0.107420616 0.025872124 0.070434704 -0.017955964 0.17649701 -0.14023109
0.09012864 0.0001484339 -0.20552939 -0.09617724 0.058959223 0.04303443 0.18465586 0.16244681
-0.13651207 -0.10698665 -0.047570873 -0.17949581 -0.072455026 -0.20960487 0.095185466 0.17200951
0.02033144 -0.17816128 -0.19441204 -0.096543394 0.06646312 -0.00014994986 0.042966764 0.22948295
0.11167372 0.049637742 -0.049267825 0.11410021 0.092804976 -0.22374497 -0.14580919 0.009752629
0.0932983 0.11998243 -0.1520523 -0.2493917 -0.015656522 -0.031152451 0.0714101 -0.07138137
0.18990542 0.015726259 0.17794454 -0.17507641 0.09858145 0.028181532 -0.123763286 0.122364506

rnn.weight_hh_l0 f4 [48, 16]
00000000: 4fa7 80be 8a00 4a3e bb92 cc3c 3960 9a3c
00000010: dc1a e23d e8c2 813c a3a0 e63d 9958 1d3e
00000020: df59 4cbe 856c 2e3e 209c 03bd 4bce 57bd
00000030: ae5e 643d 6cba 423e 5aa2 05be db17 27be
00000040: 9953 1c3e 21a4 f6bd fbf9 aa3d 57fc 20bd
00000050: c2d3 873d fc9b 473e eb2f 00be 00e3 fcbd
00000060: 58df f43d 8fd9 873c 71cf ccbc 3bf4 5ebe
00000070: 83e3 5a3e 4112 41bc 5189 35bd ca35 cdbd
00000080: 5293 3cbd e946 003e d809 22bc 622c 5e3e
00000090: cd5e 35bc 6718 08bd bb7a 0d3e 8b3b 5bbb
000000a0: 0dc7 51bd 2f20 a33d 7d8e 463e 0a59 733d
000000b0: 6f33 2f3e dd1e 293e 9cb6 8a3d eb6f ab3d
000000c0: e0f4 ae3d 90fa f73c 9f83 553e c820 713e
000000d0: 899b bf3d 0266 ebbb 905c 603e fd1b 42be
000000e0: 83c5 3f3e 9a3d 033e 2476 1f3e 201e c7bc
000000f0: 3f26 44be eca8 3b3e 0a6b eabd b3ea 793d
00000100: 256e 133e d8ab 6cbe b3e6 643c 59f0 b0bd
00000110: 5119 383e 1757 21be f334 1b3e c58b 213e
00000120: 29ce 0f3e f227 733e e1c6 113d 17cc 69be
00000130: 27e5 343e 9d45 cd3c e04a 963b 1a42 76be
00000140: bcd5 70bd 2877 00be 18b9 7e3e 192b 333e
00000150: 4502 3c3e 54b7 323e b7b8 21be 3d3f d8bd
00000160: 058b d0bd 4281 c5bd 8adf 493e 5898 a93d
00000170: 8a0a 4b3e 2aba 57bc 3cdd 66be 5973 8fbd
00000180: 7579 343e 785b 1c3e 5880 9e3d ad09 95bd
00000190: 145f 6ebe 50dd 08be b0e2 043e 8976 cdbd
000001a0: 9c71 f63d 0f11 8b3d 06b6 c5bd 494b 1b3e
000001b0: 38c8 a5bd 6a7e febb a222 c4bd b664 73be
000001c0: ac87 0e3d 5046 8a3d 535c f8bd 146a 173e
000001d0: 1828 6bbe 362d 7dbe 5306 18be d3c6 bcbd
000001e0: 0c2c 00bd 77d5 31bd 9c1d f53d bc92 5abe
000001f0: 54cd 2e3d fda0 b5ba 6687 933d 9a14 823e
00000200: b271 213e 58bc 08be d5cd 56be c57c 68bd
00000210: 96d0 f8bd e016 b73d 5ada 32ba bc5d 513e
00000220: 11d0 d33d e8f8 4ebd 3f60 9e3b ac41 683d
00000230: f834 0cbd 2635 523e e762 4bbe acf0 f13d
00000240: c94b 25be ba30 5cbe 0a07 63bd 88f7 f53d
00000250: 293d 333e 240d 683d 859a 81bc 0b8c 8dbc
00000260: 505a c5bd ab07 cebc 30f3 77bc a661 5d3e
00000270: 8753 193e 1ac0 4fbe fff9 943b 1a2b 1bbe
00000280: cec9 1fbd 8af9 4cbe 95b2 883d 2f02 38be
00000290: ba55 7d3e f602 473e f3ae 35be 91f0 6bbe
000002a0: c875 eb3b bf49 8dbd aedb 943d e56c 32be
000002b0: 1157 c73d 6d1d 59be 585e 0cbe b34c 07be
000002c0: f412 ef3d adbb 38bc 1ee9 70be 5a7f 16be
000002d0: c7a1 f5bd 2a7c 70be 3251 123d 126f ae3d
000002e0: e384 50bd b620 c2bd 641b 2c3b 6b72 47be
000002f0: e0f5 17be 23bf 1fbc 002c 673e bee2 94bd
00000300: fe22 023e 2787 c4bd 4415 8ebd 4797 70be
00000310: f417 573e ddb2 7c3e a1dd 0ebc 7b24 263e
00000320: 37f9 523e 65bc f83d 0e91 003e 7845 77be
00000330: 4d02 74be 7016 41be 560f 993d 10ad 60be
00000340: 3216 47be 46af f4bd e9b8 69be e21f 5bbb
00000350: 919c 043d 0146 19be 223d 2b3e a5d3 c9bd
00000360: 1f90 8abd 5982 453e 929b 5f3e f7e0 cdbc
00000370: 2417 34be 002c 04be 65b0 113d fbbf 193e
00000380: b46d 053e b9c1 d8bd ba44 76be c6fe 59be
00000390: a2f7 96bd 1ed4 cc3b 6d1a edbd 5bb1 46be
000003a0: 4d83 f03c 547e 50be 9b8d 4abe a2d5 53be
000003b0: 4041 92bd 9ff7 653e 7434 c13d 6c67 11bd
000003c0: 9640 443d daa3 c43d 88ec a73b 5c2b 52be
000003d0: ff53 21be a62f 31be 2bc2 3ebb 5eee 6dbe
000003e0: 90b8 47bd 54e4 b3bd 3adb 7e3e 50a1 533e
000003f0: 2742 183e 3ea9 2b3c 79c7 9ebd fde4 893d
-0.25127646 0.19726768 0.02497231 0.01884471 0.11040279 0.015840009 0.11261108 0.15365829
-0.19956158 0.17033584 -0.032131314 -0.05268697 0.055754356 0.19016427 -0.13050213 -0.16317694
0.15266265 -0.12043024 0.08348461 -0.03930315 0.066321865 0.19493097 -0.12518279 -0.12347984
0.11956662 0.016583232 -0.02500126 -0.21772854 0.21375851 -0.011784137 -0.04432041 -0.10020025
-0.046038933 0.1252705 -0.009890042 0.21696618 -0.011069966 -0.033226397 0.13816349 -0.0033452238
-0.05121522 0.07965123 0.19390292 0.059411086 0.17109464 0.1651568 0.06773111 0.08370956
0.085428 0.030270845 0.2085099 0.23547661 0.09355838 -0.007183791 0.2191031 -0.18955989
0.18727688 0.12816468 0.15572411 -0.024306357 -0.19155215 0.18326157 -0.11446197 0.061014842
0.14397486 -0.23112428 0.013971019 -0.08639593 0.17978407 -0.15755878 0.15156917 0.15775974
0.14043488 0.23745707 0.035590056 -0.2283176 0.1766554 0.025057608 0.0045865625 -0.24048653
-0.058797583 -0.12545455 0.24875295 0.17496909 0.18360241 0.17452747 -0.1579312 -0.10558937
-0.10182766 -0.096437946 0.1971418 0.082810104 0.19828239 -0.013166944 -0.22545332 -0.07004423
0.17624457 0.15269268 0.077393234 -0.07277236 -0.23278457 -0.13365674 0.129771 -0.100323744
0.12033388 0.06790363 -0.09653859 0.15165438 -0.08094829 -0.0077665346 -0.09576918 -0.23768887
0.034797356 0.06751692 -0.121269844 0.1478656 -0.22964513 -0.24724278 -0.14846162 -0.0921761
-0.031292006 -0.043416467 0.11968538 -0.21345037 0.042676285 -0.0013857182 0.072035596 0.25406343
0.15766028 -0.13353097 -0.20976956 -0.056759614 -0.121491596 0.0893991 -0.0006822698 0.20445913
0.1034242 -0.050530344 0.004833251 0.056703255 -0.034230202 0.20528087 -0.19861947 0.11813483
-0.16142191 -0.21502963 -0.055426635 0.120101035 0.175038 0.056653157 -0.015820751 -0.017278692
-0.09636366 -0.02515014 -0.015133664 0.21619281 0.1497327 -0.20288125 0.0045464034 -0.1515316
-0.039010815 -0.20017067 0.06674687 -0.17969583 0.24739733 0.19434723 -0.17742519 -0.23040988
0.0071856715 -0.068988316 0.07268463 -0.17424352 0.097334035 -0.21202631 -0.13707864 -0.13212852
0.11673537 -0.011275214 -0.23526427 -0.14697018 -0.11993747 -0.23484865 0.035721965 0.08517279
-0.05090798 -0.09478895 0.0026261443 -0.1947724 -0.14839888 -0.00975016 0.22575378 -0.0726981
0.12708661 -0.09596091 -0.0693765 -0.23495208 0.21005231 0.24677606 -0.008719833 0.16224854
0.2060288 0.121453084 0.12555334 -0.24147594 -0.23829003 -0.18856215 0.07473628 -0.21941018
-0.1944206 -0.11947493 -0.22824444 -0.0033435752 0.032375876 -0.1496811 0.16722539 -0.09854821
-0.0676577 0.19288005 0.21836689 -0.025131686 -0.17586952 -0.1290741 0.035568614 0.15014641
0.1303013 -0.10583825 -0.24049655 -0.21288595 -0.07371451 0.0062508723 -0.11577306 -0.19403593
0.029359484 -0.2036069 -0.1978058 -0.20686963 -0.07141352 0.22457741 0.09433833 -0.03549902
0.047913156 0.09601565 0.0051246323 -0.20524353 -0.15754698 -0.17303333 -0.0029107432 -0.23235461
-0.048759997 -0.087837845 0.24888316 0.20667005 0.14868985 0.010477362 -0.0775289 0.06733129

rnn.bias_ih_l0 f4 [48]
00000000: d1ba 593e fa5b ebbc b880 373e c3eb bd3d
00000010: d677 963d 577a 24be 293b 743e a5db de3d
00000020: 63c7 2c3d ff10 323e 15e2 57be b00c 4c3d
00000030: 6a3a eabd c555 edbc 4775 af3d fd9b db3d
00000040: 449f 6a3d 6a3d 49be 75f8 1dbe 12ce 693b
00000050: 88e0 34bd 1a25 58be 3d1e 7c3e b4ae eb3c
00000060: b3e0 31be dabe dc3d 90e5 d53d a0a5 f8bd
00000070: 6fb1 fb3d b4d5 21be 8078 b33d ab1f 753e
00000080: fc64 233e 58fb 003e 6a91 43bd 8757 543d
00000090: 8c3b b83d 0a64 823d 1114 52bd b131 ef3c
000000a0: 1404 c8bd 992c 11be 74fd 6cbe f687 54be
000000b0: e319 24be a721 713e f366 3d3d d90f 64be
0.21262671 -0.028730381 0.17920196 0.092734836 0.07347076 -0.16062294 0.23850693 0.108817376
0.042182337 0.17389296 -0.21082337 0.049816787 -0.11436923 -0.028971562 0.08567291 0.10723112
0.057280794 -0.19652334 -0.1542681 0.0035675806 -0.044159442 -0.21107903 0.2462091 0.028769828
-0.17370872 0.107785895 0.10444176 -0.121409655 0.12289702 -0.15804178 0.08763218 0.23937862
0.15956491 0.1259588 -0.0477461 0.051841285 0.08995733 0.06366737 -0.051288668 0.0291985
-0.09766403 -0.14177169 -0.2314356 -0.2075499 -0.160255 0.23547994 0.04624076 -0.2227167

rnn.bias_hh_l0 f4 [48]
00000000: af57 08be 74dc 653d fccc 92bd 4dec 86bd
00000010: dade bbbd b623 7fbd 264e f03c 8d49 153c
00000020: 2416 283e 71d2 203e cfc3 563e ddb8 44bc
00000030: 4ed5 ddbd 3804 33bb 01ac 25be 0151 ca3d
00000040: 19ac f7bc 8d32 aabd 17cc 56be 981b f53d
00000050: b802 0e3e 2ca9 673e 218e b5bd 65ca 943d
00000060: 50c4 5a3c 3af8 24be 5052 24be e45a 043e
00000070: ca8c 15be 5c63 373e c0f1 b43d 97bf b23d
00000080: 67ff 223e 92c8 ff3d 8c2f e33d b9d7 093e
00000090: 63b7 d3bd 1e18 05be 1037 3ebd 504e 083e
000000a0: 8dd2 363e c111 3c3e 16ff a2bd 4f43 11bd
000000b0: 0e3f 33be d441 1a3e 96a4 2dbe c3a1 cbbd
-0.13314699 0.056118444 -0.07168004 -0.065880395 -0.09173365 -0.062289916 0.02933414 0.009111774
0.16414696 0.15705277 0.20973133 -0.0120069655 -0.108317 -0.0027315747 -0.16178896 0.098787315
-0.03023343 -0.08310423 -0.20976292 0.11968154 0.13868225 0.22623128 -0.088649996 0.07265166
0.013352469 -0.16110316 -0.16047025 0.12925297 -0.14604488 0.17908996 0.08835173 0.08727949
0.15917741 0.124894276 0.11093053 0.13461198 -0.103377126 -0.12997481 -0.04643923 0.13311124
0.17853756 0.18366148 -0.0795881 -0.03546458 -0.17504522 0.15064174 -0.16957316 -0.09942963

fc2.weight f4 [16, 32]
00000000: c17a 153e 7521 263d 918f 97bd d06f f8bd
00000010: d9e9 fdbd b0c5 0f3e d473 25be 1222 1a3e
00000020: 263c 123e 4076 333c 4027 68bc bb82 0c3e
00000030: 8ea6 9f3d 49b8 283e b25b 113e dca1 f2bd
00000040: f37c da3d 9fa8 b13d 77c8 fbbd 46eb a83d
00000050: 881b c1bd f654 dcbd 0fd4 bb3b 6557 c5bc
00000060: a2c4 4bbd b548 e8bd e8fc ca3d 2cdf 363e
00000070: 58c3 16bd b0d2 f8bd bab9 dbbb 68ce 1abe
00000080: 70ff 12be ce34 71bd 7e78 e33d 74ae 0abe
00000090: f019 e7bc f2fe bbbd 3fae 26be 64ff 22bd
000000a0: 80b6 28bc 787e f3bc 8159 043e e004 913d
000000b0: 4667 e13d 80ce 8d3d d0ef 973c f27f c43d
000000c0: 61f6 e6bd 8a78 b83d aa71 ac3d d3a6 99bd
000000d0: 60ce c6bb d7ef 08be 8e66 1ebe 00c8 4cb9
000000e0: 60a6 013d 0830 1cbd 28b4 5f3d 51bf 0bbe
000000f0: 9b01 c7bd a2e0 f93d b829 30be 2864 e33c
00000100: 9f5c 0b3e 5945 0a3e 04ff 763d 7308 22be
00000110: 450a cf3c 8c4e 73bd 908b 4bbd 1d9e 0d3e
00000120: db5e 7abd 09a4 01be a54f 11be c66c ec3d
00000130: 20c1 0b3c 2291 353e 5e93 133d cd4b 26be
00000140: e7e8 3d3d 1ef7 273e b7fd da3d efaf 633d
00000150: a259 05be 569c d3bd 1453 f03d 0f97 ecbd
00000160: 0cdf 2a3d 9ade cebc 4802 683d 75a0 133c
00000170: 6786 0cbe a7fc 8abd a240 1b3e 2419 953c
00000180: d292 b73d 46a6 b6bd 614d 0f3e b0ff 1abd
00000190: 6c0f 74bd e4e1 123d 29b9 81bd 2d7c 91bd
000001a0: 6039 cfbc 005a 25bc 2de9 cdbd dc7f 773d
000001b0: d570 2fbe 023e de3d 8be3 273e 6049 ea3c
000001c0: cc2f 29bd b7cb 25be a603 aa3d dd52 143e
000001d0: 0fc2 1a3e d021 813c 58ba 703d 5774 2d3e
000001e0: 9026 d83c 01c8 aebd 69dd 2bbe 8a49 9e3d
000001f0: a007 8d3d 7bde 203e d950 b8bd 0681 9b3d
00000200: 6890 6fbd 8024 4ebd a63e d33d 0877 2cbe
00000210: 16ca fd3d ca6b 9b3d a52a d7bd b7b4 ab3d
00000220: 9685 42bd 6854 823c 30ce 41bd 63aa 34be
00000230: 80fb 95bc e472 a33d 30dc bfbc 3579 bfbd
00000240: 1dc4 42ba 286b d43c 0aa7 30bd 8ae2 12be
00000250: edf8 cebd 1ba6 10bd c493 8f3d 2b66 1a3e
00000260: a656 32bb f65f 8e3d 6d75 dd3d a086 90bd
00000270: a8d0 55bd 50f6 e23d 214e 083e 7096 453d
00000280: 79e3 0bbe fe7c cd3d 919c 15be 7ef4 b43d
00000290: 88a0 ab3c 3ce3 693d be72 30be 5491 7ebd
000002a0: aec1 993d fd53 0b3e e84b 4fbd 876c 213e
000002b0: 9095 21bd c25c dabd 4bc7 9cbd 903a 343c
000002c0: 50b1 00bd 663a af3d 305c c8bd 8cfa 4dbd
000002d0: 7c64 33be 7dc1 133e 983e 08bd 21b3 0ebe
000002e0: 40c2 0bbc 002c a9b9 c018 493d 70f3 9ebc
000002f0: c2be e33d ead2 79bd 58b9 58bd 4cf2 2bbd
00000300: 0045 013d 4f09 113e f044 05bc 1148 0b3e
00000310: f732 0e3e d27e bcbd 00da 78bc 53e7 aabd
00000320: 4299 963d 2c90 7ebd 34e1 5c3d f009 2d3c
00000330: 76aa edbd 8065 f3bd 5bce 30be 8a84 cabd
00000340: 3046 4a3d c075 303c 1f25 083e 442c 1fbe
00000350: 4045 a9bb 9b4f 22be 00a2 873a 68e7 833d
00000360: d761 22be 1fde 1f3e 52e4 60bd c163 203e
00000370: 0813 f3bc d263 cd3d 798f 243e 06cf 83bd
00000380: 7803 30bd 62e6 bd3d ecf9 1abe 024d d63d
00000390: bb66 e3bd c71f 283e 8144 edbd a9fb 94bd
000003a0: f112 073e 79a0 9dbd 3529 1b3e f616 f93d
000003b0: 2974 253e 7375 2fbe 80d8 013b ac28 6ebd
000003c0: 547a 2c3d c9ad 08be 9474 943d 8035 09bc
000003d0: af21 abbd 7cd8 22be f25e bd3d 1006 83bd
000003e0: e391 053e 6ce5 003d 9c38 5c3d 28a2 dbbc
000003f0: a89a c8bc def9 75bd abbe 1cbe c69c e33d
0.14597608 0.04055925 -0.0740043 -0.121307015 -0.123981185 0.14040256 -0.16157466 0.1505206
0.14280757 0.010953486 -0.014169514 0.13721745 0.0779544 0.16476549 0.14195135 -0.118472785
0.106683634 0.0867474 -0.12294095 0.08248 -0.09429079 -0.107583925 0.0057320665 -0.024089525
-0.04974807 -0.11341993 0.09911519 0.17858571 -0.036807388 -0.121495605 -0.00670549 -0.151178
-0.14355254 -0.05888825 0.111069664 -0.13543111 -0.02821061 -0.09179486 -0.16277407 -0.03979434
-0.010297418 -0.029723391 0.12924768 0.07081008 0.11006026 0.069241524 0.018546969 0.09594716
-0.11277462 0.09007366 0.08420117 -0.07502522 -0.0060670823 -0.13372742 -0.15468809 -0.00019529462
0.03165281 -0.038131744 0.05461517 -0.136472 -0.09717103 0.122010484 -0.17203414 0.02775772
0.13609551 0.13503017 0.060301796 -0.15823536 0.025273452 -0.05940108 -0.049693644 0.13829847
-0.061125617 -0.1266023 -0.14190538 0.115441844 0.008529931 0.17731145 0.036029212 -0.16239853
0.04636469 0.16402861 0.106929235 0.055587705 -0.13022473 -0.10332553 0.11734596 -0.1155225
0.04171662 -0.02525263 0.0566428 0.009010424 -0.13723145 -0.06786471 0.15161374 0.018200465
0.089635506 -0.08918433 0.13994361 -0.0378415 -0.05958502 0.035859957 -0.063341446 -0.07103763
-0.025295913 -0.010092258 -0.100542404 0.06042467 -0.17132886 0.10851671 0.16395395 0.028599441
-0.04130535 -0.16190992 0.08301477 0.14484735 0.1511309 0.015763193 0.05877146 0.16938911
0.026385576 -0.085342415 -0.1678368 0.0772887 0.0688622 0.1570987 -0.089997955 0.07592969
-0.058487326 -0.050327778 0.103146836 -0.16842282 0.123920605 0.075889185 -0.10506181 0.08384078
-0.04749068 0.015909389 -0.047315776 -0.17643122 -0.018308401 0.07980898 -0.023420423 -0.0934929
-0.0007429736 0.025930002 -0.04312805 -0.1434423 -0.101060726 -0.03531466 0.07010606 0.15078036
-0.002721229 0.06951897 0.10813413 -0.07056928 -0.052200943 0.11082137 0.13311054 0.04823917
-0.13660993 0.10033606 -0.14610507 0.08835696 0.02095057 0.057101473 -0.1723127 -0.062150314
0.075076446 0.13606258 -0.0506095 0.15764056 -0.039449275 -0.106622234 -0.076551996 0.0110002905
-0.0314191 0.085560605 -0.09783208 -0.05028777 -0.175188 0.14429279 -0.03326282 -0.1393552
-0.0085301995 -0.00032266974 0.04909587 -0.01940319 0.111203685 -0.06099216 -0.052911133 -0.04197912
0.031559944 0.14163707 -0.008134112 0.1360171 0.13886629 -0.092038766 -0.015188694 -0.08344903
0.0735345 -0.06214921 0.053925708 0.010561451 -0.116047785 -0.11884594 -0.17266218 -0.09888561
0.049383342 0.010770261 0.1329541 -0.1554423 -0.005165726 -0.1585068 0.0010347962 0.064406216
-0.15857635 0.15612076 -0.054905243 0.15663053 -0.02967216 0.10028805 0.16070355 -0.06435971
-0.042972058 0.09272458 -0.151344 0.10463907 -0.11103579 0.16418372 -0.11585332 -0.07274563
0.1319082 -0.07696623 0.15152438 0.121625826 0.16157593 -0.17134647 0.0019812882 -0.058144256
0.04210885 -0.13347544 0.07248798 -0.008374572 -0.08356034 -0.15902895 0.09246625 -0.06397641
0.13043933 0.031468794 0.053764924 -0.02681072 -0.024487808 -0.060052745 -0.15307109 0.111138865

fc2.bias f4 [16]
00000000: f8f6 e2bd 7563 21be 3f65 243e 4dda c9bd
00000010: 5d97 19bd 3411 12be bf3e fabd 247f 0c3d
00000020: fabc 30bd 6dae d03c 7efa afbb c4de 323c
00000030: d478 0fbd 4000 e0bb da5d 9d3d 4f69 033e
-0.11082262 -0.15760596 0.16054247 -0.09856091 -0.037497867 -0.14264375 -0.12218999 0.03430094
-0.043148972 0.025473798 -0.005370437 0.010917369 -0.03502734 -0.0068359673 0.076839164 0.12833141

fc3.weight f4 [8, 16]
00000000: 3217 593e b6dc 50be ca47 5abe 780a 19bd
00000010: 3499 b8bc c84b 0d3e e6fc 703e f87a 833d
00000020: dcf1 37be 4529 f6bc 77aa 213e 715b bc3d
00000030: f40b 35be 4013 6f3c 4a2f 77be 3b5a d2bd
00000040: c977 2e3e e818 debd a300 173e 08d0 50be
00000050: d082 5c3e 103a f43d fae3 253e d8d2 8b3d
00000060: aefa 4c3c 37aa 03be d327 11be 70de 33be
00000070: ea91 533e 6cb4 b1bd 8093 c73b 83e0 75be
00000080: 726f 853d a888 aebd 70f6 4bbe 7077 fd3c
00000090: 235c 6bbe c0c7 c9bc 800f 51be 18d8 213e
000000a0: e975 4abe 994f 283d a0b8 f53d d255 4bbe
000000b0: a8b9 253e 687d 503e 5eed 1cbe 36a8 b13c
000000c0: 146b 9e3d 3e05 543e 98da 4b3e 60bc 56be
000000d0: 670b 4bbe 205c 62be 14b5 e3bd b0b3 4ebd
000000e0: 98ce afbd 6b90 2c3e 3a8e 2cbe fa73 4bbe
000000f0: 941e 48be 181b 17be 32be 7a3e fadb 103d
00000100: cbd3 48bd 7c77 96bd bf2a 49be 44b6 adbd
00000110: 84dd 013e a204 2d3e cea5 383e 20ce 913c
00000120: 1598 10be aa8a 1cbe fbe5 743e fe3c 6cbe
00000130: 286d 723d 705d c1bc 28b0 6d3e 2e05 113e
00000140: 29c2 7dbd 206b 54be c34b 0a3d 820e 33be
00000150: 019d cdbc dc31 803d 2006 fa3d 6079 8abd
00000160: a7c6 2bbe c2c5 58be 1342 76be 2951 003d
00000170: c8cf 1bbe 008c 143c dc8f f2bd 0c25 2cbe
00000180: 9a36 323e fedf 103e 7367 383e ce91 753e
00000190: 75ea 33be ca45 08be 6cba 40be ece5 2b3e
000001a0: 924e 1b3e e879 543e 4706 37be b205 06be
000001b0: 8e91 793e a048 4bbe 647f 2abe 05fd c43d
000001c0: a096 5bbe a8c2 90bd ec69 e33d 58b9 513e
000001d0: 7674 bfbc 788b 62be 3eeb 103e 5637 7f3e
000001e0: 0320 39be cee4 c2bb 764f 35be 2561 fbbd
000001f0: 304d ac3d 1c33 ef3d e0b7 d33d 1731 6cbe
0.21200255 -0.20396695 -0.21316448 -0.0373635 -0.02253399 0.1379844 0.23533973 0.06419939
-0.17963356 -0.030048976 0.15787683 0.091971286 -0.17680341 0.014591992 -0.24139133 -0.10271116
0.17037882 -0.10844594 0.14746337 -0.20391858 0.21534276 0.11925137 0.16200247 0.06827325
0.012510939 -0.128579 -0.14175348 -0.17565322 0.2066113 -0.08676991 0.0060905814 -0.24011426
0.06515397 -0.08522159 -0.19918227 0.030940741 -0.22984366 -0.024631381 -0.20416069 0.1580509
-0.19771542 0.041091535 0.11998105 -0.19856957 0.16184103 0.20360339 -0.15324923 0.021686655
0.07735267 0.20705125 0.19907606 -0.20970297 -0.19828568 -0.22105455 -0.11118522 -0.050464332
-0.085843265 0.16851966 -0.1685113 -0.1986846 -0.19542915 -0.14756429 0.24486616 0.035366036
-0.049030107 -0.073470086 -0.19645213 -0.0848203 0.12682158 0.16896299 0.18032 0.017798483
-0.14120515 -0.15287271 0.23915856 -0.23070142 0.05918613 -0.023604125 0.2321173 0.14162132
-0.061952744 -0.2074399 0.03376366 -0.17486003 -0.02509928 0.0625951 0.122081995 -0.06761432
-0.16774999 -0.21169189 -0.24048643 0.0313274 -0.15215981 0.009066582 -0.11843845 -0.16811007
0.17403641 0.14147946 0.18008213 0.23981401 -0.17569907 -0.13307872 -0.18821114 0.16786927
0.15166691 0.20749629 -0.17873488 -0.1308811 0.24371931 -0.19851923 -0.16650158 0.09618572
-0.21444178 -0.07068378 0.11104187 0.2048086 -0.023370963 -0.22123516 0.14152238 0.24923453
-0.18078618 -0.005947686 -0.17706093 -0.12274388 0.0841316 0.1167967 0.10337806 -0.23065601

fc3.bias f4 [8]
00000000: 2182 80bd 607b cf3d fcd6 b7bc ad53 96bd
00000010: 933c 09be d7cc 733e 9e68 48be 01b5 44be
-0.0627482 0.10130954 -0.02244138 -0.07340179 -0.13402013 0.23808609 -0.19571158 -0.19209673
